mnist_mj_mod.pt (torch_old, 910509 bytes, 18 tensors)

weight f4 [16, 1, 5, 5]
00000000: 165f 12be 86ae 3bbe b9e2 45be a4b8 92be
00000010: 06f8 67be 4ba8 fbbc 9187 a4be 7dab adbe
00000020: eef9 8abe 1c07 5ebe f111 44be a933 71be
00000030: b6d0 4fba 8d19 f5ba 2443 643e aa97 76be
00000040: 6b89 f83d 1611 293e 1a57 a53d 4a0f c03e
00000050: a207 3d3e e199 81bd 87eb b33e be14 7e3e
00000060: 73f3 a73e 1f1d a4bd 84eb 703d f8ec 083e
00000070: cb93 093d 6d0d 5d3d 748a 1ebe 3259 343d
00000080: 95b9 d4bd 811b 943b a7b8 7f3e 39c4 c3be
00000090: d147 2abe 1477 f0bd cfef f43d 0bdf 823e
000000a0: 2090 abbe a53e 0dbe 9727 ddbd 26a6 913e
000000b0: 6f7e 963e b492 a8be a5ef 53be 5544 963d
000000c0: 4074 b43e 4b26 813d 3e56 66bd 2ef9 053e
000000d0: 4499 a1bd ffa2 813d 4d6e 873e aada 68bd
000000e0: e2f0 20be 0964 ffbd 7928 1a3d 28fc 833e
000000f0: 3ef8 0abe 7122 37be 8ef1 6dbe fa22 513e
00000100: eddf 5d3e a708 a4be 0319 51be b0b4 23be
00000110: eb46 673d 0158 af3e 60fe dbbd 198e 04bc
00000120: a78c a03e 6b62 ba3e f1c0 603e c78c 14be
00000130: f67d 24bd 2566 253e 2ed0 aa3c e11e abbd
00000140: 678b 89be 3be5 9b3c 773e 0bbe 2cab 1b3e
00000150: 8a7d 8f3d 838b 0cbe 4db3 7abe ba5d b2bd
00000160: d9e6 643d dbe8 d83e a47c 163c e617 45be
00000170: 922a c9be 4e69 9ebc 1011 9e3e f94c 793d
00000180: e131 bebd 0892 14bd d6b2 83be f54c 373d
00000190: e892 8abd df7c 2ebe c3b7 973e 7a15 443e
000001a0: 8be5 a3be 583d 08be 8533 62be 38e4 ad3e
000001b0: a327 4b3e b077 80be 0fe6 d7bd 66ce bdbe
000001c0: ae03 833e a532 883d ba39 893d 3891 97bd
000001d0: 6c90 30be 4227 dfbd c8d7 dc3e e424 fb3d
000001e0: 8afc 1abe c565 f5bd 2ab2 973e d5b6 533e
000001f0: 495a c5bd d14f a33c 38af c3bc 3291 7c3e
00000200: 21e7 143e 657b 8e3e d4f2 c8bd 7f5a 623e
00000210: 7c19 bfbd 64c6 68be 16a5 d8bd 10ae 963e
00000220: 0260 5cbd 5d54 1abe 370c 4fbe 1ff5 4cbe
00000230: c1fd 853e 3bd5 2e3e faf3 46be ac1d ddbd
00000240: 19a1 97be 4891 9fbd 0859 5c3e 30e9 ca3d
00000250: c8e3 2fbe 8edb 0fbe a16a bf3e c028 a73e
00000260: bb05 e23e 5ba7 f83e 142d a13e cba0 fe3d
00000270: 4bed 7b3e 61d7 053c 43ae ae3c cef2 1c3e
00000280: 94f7 81be a7c1 afbe 8bcb a1be 009b 63be
00000290: acec 47be 25b2 78be 32e6 9bbe e3b1 16be
000002a0: e7d8 b3bd c092 03be 1e56 0d3d 9fce 6c3d
000002b0: b5f9 e6bd 8a19 47be 1444 e1bc 505e d93c
000002c0: 0ad7 e0be 11a2 c4be 57f9 3bbe 0507 50be
000002d0: 3520 b03e 982e 22be 2a11 c9be ea69 b3be
000002e0: 3fb0 1bbe fdf1 da3e 100f 253f 7df1 ae3e
000002f0: 79f1 843e 9a2f 15be 657b 8d3c 7c1a 013f
00000300: 5ba9 f13e fd3d c83d 1801 213e 7fd2 e2be
00000310: 6cd6 c0be ec2f 7d3b f858 0f3d 4e68 a73c
00000320: cafb df3d 55a3 42be 3730 68bd 9b01 a6bd
00000330: 5dc7 05be 2c20 99be 7b2e 98be b3fb c1be
00000340: d2fb 45bd 64e1 a4bd f488 43be f4ac 903d
00000350: 144d a13e ef62 9a3d e87e 993e 2948 013f
00000360: cec8 cc3e 267e b43e 2d2f 853d 1b3a 22bd
00000370: a577 263d 1bc4 6fbd 386f 14be bfaa 2cbe
00000380: 6ced 1abe fbc6 8d3d 61db 053e 2046 963e
00000390: 2479 013e 41ee 38be 4588 623c 401c 823d
000003a0: ca59 8d3d 354c 003f 2893 e93e b720 24be
000003b0: 2eac fbbd eb20 543d a509 a73e 79c4 e23e
000003c0: 3856 82bd 843f 96bd 6ddd 84be 8e59 d5be
000003d0: ba59 84bc fb27 b9bd 6cfa 7dbe a2c6 c5be
000003e0: d08b e7be 726a a1be d8d4 103e dee8 ab3e
000003f0: 3fed ce3e d483 883e 6f52 18bd c03c 95bc
-0.14294085 -0.18328294 -0.19324769 -0.28656495 -0.22653207 -0.030719897 -0.3213468 -0.33919898
-0.27143806 -0.216824 -0.19147469 -0.23554863 -0.00079275237 -0.0018699631 0.22291237 -0.24081293
0.121355854 0.16510424 0.08073254 0.37511665 0.18459943 -0.06328178 0.3514063 0.248126
0.32802925 -0.08013367 0.058818355 0.13371646 0.033588212 0.053967882 -0.15482503 0.044030376
-0.103869595 0.0045198803 0.24972783 -0.38235644 -0.16628958 -0.11741462 0.11959802 0.25560793
-0.33508396 -0.13793428 -0.10798567 0.28447074 0.29393336 -0.32924426 -0.20696886 0.07337252
0.35244942 0.06306132 -0.05623459 0.13083336 -0.07890561 0.06329917 0.2645134 -0.05684916
-0.1571689 -0.12470252 0.037636254 0.25778317 -0.1357126 -0.17884232 -0.23236677 0.20423499
0.21667452 -0.3203785 -0.20419697 -0.15986896 0.056464117 0.3424683 -0.107418776 -0.008090519
0.3135731 0.36403212 0.21948601 -0.14506827 -0.04015919 0.16152246 0.020851221 -0.08355499
-0.26864168 0.019030204 -0.13598047 0.15202016 0.070063666 -0.13725094 -0.2448246 -0.08709283
0.055884216 0.42365155 0.00918499 -0.19247398 -0.3929029 -0.019337323 0.30872393 0.060864422
-0.092868574 -0.03627208 -0.25722378 0.044751126 -0.067663014 -0.17039822 0.29632387 0.19148818
-0.32011065 -0.13304651 -0.22089966 0.3396318 0.19839339 -0.25091314 -0.10541927 -0.37071532
0.25588745 0.06650285 0.067004636 -0.07400745 -0.17242593 -0.1089616 0.43133378 0.12262896
-0.15135399 -0.119823016 0.29628116 0.20675214 -0.09636361 0.01993552 -0.023887262 0.24664763
0.14541294 0.27828518 -0.09811941 0.22104834 -0.09331033 -0.2273193 -0.10578363 0.29429674
-0.053802498 -0.15071245 -0.20219503 -0.20015381 0.2617016 0.17073528 -0.19429007 -0.10796675
-0.29615095 -0.07791382 0.21518338 0.09907758 -0.17176735 -0.14048597 0.3738604 0.32648277
0.44144997 0.48565182 0.31479704 0.124330126 0.24602239 0.008169026 0.021323329 0.15326998
-0.253842 -0.34327433 -0.31600603 -0.22227097 -0.19523877 -0.24286707 -0.30449063 -0.14716296
-0.08781605 -0.1284895 0.034505956 0.057814237 -0.112780966 -0.19443336 -0.027498282 0.02653423
-0.43914062 -0.38404897 -0.18356834 -0.20315178 0.34399572 -0.15838087 -0.39270908 -0.35041744
-0.15203951 0.42762747 0.6447611 0.34168616 0.2596548 -0.1456894 0.017270753 0.50431037
0.4719952 0.09777448 0.15723073 -0.4430122 -0.3766359 0.00386333 0.034996957 0.020435479
0.10936697 -0.19007619 -0.056686606 -0.08105775 -0.13064332 -0.29907358 -0.29722962 -0.37887344
-0.048335858 -0.08050802 -0.19095212 0.07064238 0.31504118 0.07538401 0.29979634 0.5050073
0.39996952 0.35252494 0.06503139 -0.039606195 0.040641446 -0.05853663 -0.14495552 -0.1686201
-0.15129632 0.06922718 0.13071968 0.29350376 0.12643868 -0.18059637 0.0138264345 0.063530445
0.069018915 0.5011628 0.45620084 -0.16028105 -0.122887 0.051789206 0.32624546 0.44290522
-0.06364101 -0.073363334 -0.25950184 -0.41669887 -0.016156066 -0.09040829 -0.2480256 -0.38628107
-0.45223856 -0.31526524 0.14143693 0.335761 0.4041538 0.26663077 -0.03718799 -0.018217444

bias f4 [16]
00000000: 3126 e03e 5459 4a3e 12e6 6bbe d9b2 223f
00000010: 4819 97be 8222 2b3f 4d18 523e eff8 44be
00000020: 5d1e a93e 9273 783f b12e 4ebe f114 243d
00000030: 0824 163d 194f f03e 988b 1a3f e081 f93d
0.43779138 0.19760638 -0.23036984 0.6355415 -0.29511476 0.6684953 0.20517083 -0.19235586
0.33030978 0.97051346 -0.20134999 0.040059034 0.036655456 0.46935347 0.60369253 0.12182975

weight f4 [16]
00000000: 87c7 b33f 8bc9 a03f 60cb 9d3f dc2e a23f
00000010: b69f a03f d4cd 9c3f 72c6 b23f cd1c cd3f
00000020: a037 a63f c28a c23f 762b 9b3f 4049 a03f
00000030: 09c0 993f db19 af3f 3c14 c03f 4802 bb3f
1.4045266 1.2561506 1.232769 1.267055 1.254874 1.2250314 1.3966811 1.6024414
1.2985725 1.5198596 1.2122638 1.2522354 1.201173 1.3679765 1.5006175 1.4610071

bias f4 [16]
00000000: cb70 463e ee56 a93d 5cfa 9abd 01ca 1b3e
00000010: 7a99 61bd 8803 313e 3d36 d13d 2a4b c7bc
00000020: 712e ff3c 4fbb 7b3e 65d2 77bd 31d0 773d
00000030: ccd6 8dbd 393e ed3d 4e16 493e a085 6c3c
0.19378965 0.08268534 -0.075672835 0.15213777 -0.055078007 0.17286503 0.10215423 -0.024327833
0.031150075 0.24583171 -0.060503382 0.06050128 -0.06925735 0.11584134 0.19637415 0.014436156

running_mean f4 [16]
00000000: 2461 a53e 224d 3c3e 1568 14be 6653 073f
00000010: a4d6 8fbe 7a83 243f fef5 523e 7f0b 34be
00000020: a457 a33e 7630 703f e11c 02be 6ad8 23bd
00000030: 42b3 343e 9270 c53e 13b7 153f 9f5e 8d3d
0.32300675 0.18388799 -0.14492829 0.5286163 -0.28093445 0.6426312 0.20601651 -0.1758251
0.31902802 0.93823946 -0.12706329 -0.04000131 0.17646506 0.38562447 0.58482474 0.06902813

running_var f4 [16]
00000000: 1e56 c03e 6f8b 803e 7621 793e 2c4c f83d
00000010: 72f3 dd3d de92 f43d cdd5 913e a450 693e
00000020: df7d e53d 9a9d 903e 6ce3 233e 31c4 8d3e
00000030: 4d66 693e eee2 263e bd72 bd3e 92be de3d
0.37565702 0.2510638 0.2432917 0.12123904 0.10837449 0.11942075 0.2848343 0.22784668
0.11205649 0.2824524 0.16004723 0.27688745 0.22792931 0.16297504 0.370016 0.10876192

weight f4 [32, 16, 5, 5]
00000000: a148 873c c02c d5bd c868 13be ea1c b4bd
00000010: 7b16 89bd 8175 8bbd dc5a 95bd 4e95 19be
00000020: 1e75 cabd 8be0 acbd 5aa8 66bd 8c07 0dbd
00000030: 89bc 18bd 6d69 91bd 9fec 88bd 6139 4ebc
00000040: 2a40 ca3d 954c 413d 3b08 90bc c776 ccbd
00000050: fef1 013b 0190 233b d4fd 27bd 6d14 ed3c
00000060: c64e e2bb 5346 55bb f892 9abb f8a5 e0bc
00000070: 70b1 8abd dbdc e4bd 9c75 99bc 78e6 083d
00000080: beab 353d 081b bdbd 0e92 eebd f0a3 893c
00000090: 6fd6 323c 843e 853d eafb a23b e35f c23a
000000a0: fb23 5fba a140 873d a740 083d 153b 1bbc
000000b0: 87ec 6939 cd89 bbbc fc8b 2cbc 5fff 52bc
000000c0: 379b 983c bc79 45bb d160 7f3d a500 08bd
000000d0: 29e5 2c3c 99ff e1bc 4ad0 243d 5544 1dbd
000000e0: 8fe3 cbbc 3ce1 83bb ebff 7bbd 4550 92bd
000000f0: d713 9ebb e0c0 42bc d899 553d 5490 943c
00000100: 8122 9fbc 0013 a93c 9989 62bc bef1 c13c
00000110: 5dde afbc 4522 ca3c 2505 00bd 4833 84bc
00000120: acab 14bc 19bb 233d 85ec fabc c714 6cbc
00000130: 4558 763a 5e0b b6bb 17ef 9fbd ffb0 28bd
00000140: 152f c63c 022c 323c e1ea 5c3c ba19 9e3a
00000150: f0f1 acbd 814c 63bd d67c ffbc 2b19 a1bc
00000160: 17f9 853c b074 433c a5f4 46bd 17d3 d63c
00000170: 8b08 dfbc b4e3 2dbd 233c d7bc 216d f83c
00000180: 9d01 843b 9bfc 07bc 24ea 4ebd 31a9 99bd
00000190: 8052 623c a672 9bbb b8e4 5d3d 0e78 e9bc
000001a0: 3071 043d 3a5c 45bd 4c66 343b d759 383d
000001b0: 759e 97bc facc f03c bd82 cabc 332e 0a3d
000001c0: 032c 1cbd d17b 9ebd f63b 043d ae02 313d
000001d0: eaaa 2b3c 7dd3 33bd 8ad6 c8bc 189c 493d
000001e0: 5a83 ddbb e64f 11bc 5233 4f3c aada b83d
000001f0: 8cfb 393d 16cb 96bd 82e6 d6bc bb26 83bd
00000200: 714c 48bd e33f 9dbd b30e 9c3b ae62 58bc
00000210: 95ca 5fbd e13c 75bd 778e fcbc 54ea a7bd
00000220: e058 8ebd ac4a a83c 1cc9 573d 8849 fe3c
00000230: 586e f33c 3b8d 6dbd e3f9 34bd 778b 57bc
00000240: 9e4e 183c 5300 7bbd 1d10 6ebc b97d f2bc
00000250: 3753 a83b d470 10bc 06c1 5f3c 5008 28bd
00000260: a710 bcbd 2211 a1bb e09d c2bb c771 b4bb
00000270: d4d7 4b3c c3e2 0bbd 5c93 84bc 3cb9 eb3b
00000280: c61a 36bd cccb 1ebc 245d bf3d e04a fe3d
00000290: 5d2f 033e dd5b f73c 53cd 0f3d 44b9 f3bc
000002a0: 3a9c 7e3a c78e 4f3d 1e0c 443c 1ef8 d43c
000002b0: d66b 083d c87d 813b 3e04 0d3d fc48 a9bd
000002c0: 0d11 79bc 8358 883d ac8b 023e d7f7 fdba
000002d0: 43c6 a8bd 4612 80bb ba0f 3d3d 6d0a b93d
000002e0: de2e 0c3e b040 6cbc e78f 5abd 435d 6d3c
000002f0: 2b72 55bc fb0d 2cbd cfc9 86bd fcd8 c8bc
00000300: 57bc 3bbd e7ed 4dbd 2c37 11bd 2df9 47bd
00000310: 582b 99bd 0480 99bd b8ea b6bc fe39 63bd
00000320: 22d1 61bd 1f66 28bd 2b27 19bd 8805 a1bc
00000330: 5c36 573d 36e9 bcbd 0ffa 40bd fff4 0e3c
00000340: 7904 f23b badc 0c3d 7f5e 48bd 4062 d4bc
00000350: f062 9b3b 880d 63bd bc55 e4bc bfe0 26bd
00000360: 7905 1ebd 0c93 523d ea28 5fbb 146c b33c
00000370: 9aef 513c de9f 65bd c457 7bbd b913 b7bc
00000380: 05e6 febb 9384 ea3c 269d dc3c 9d08 69bd
00000390: c2c0 3fbd 86dd 36bc 5d1d a2bc c17a 883d
000003a0: 571e e13d 5d7e 573c 4705 c1bd 4acb 5fbd
000003b0: a22c 013c 90ff 2fbd b1cf 683d f6d7 7abb
000003c0: ef74 4fbd 5651 8dbd 00cc 32bd 149e 21bc
000003d0: f490 6f3d 7aed 8dbd 7405 ef3c 3599 75bc
000003e0: c5f5 86b8 aaaa c6bd 8221 5c3d 67d4 fa3c
000003f0: cc45 52bc c32a eb3b 0b23 4abd 4d68 5e3c
0.016514124 -0.10408926 -0.1439544 -0.087945774 -0.06693741 -0.068095215 -0.07292721 -0.14998361
-0.098856196 -0.08441266 -0.056312896 -0.034431025 -0.037289176 -0.071001865 -0.06685757 -0.012586922
0.098755196 0.047192175 -0.01758205 -0.099835925 0.0019828076 0.002495766 -0.041013554 0.028940404
-0.006906363 -0.0032543137 -0.004717227 -0.02742289 -0.06772125 -0.11174937 -0.018732838 0.033422917
0.04435324 -0.092336714 -0.116489515 0.016801804 0.010915383 0.065060645 0.004973878 0.0014829602
-0.00085121364 0.06604124 0.033264782 -0.0094745355 0.00022308725 -0.022892857 -0.010531422 -0.012878268
0.0186287 -0.0030132374 0.06234819 -0.03320374 0.010552683 -0.027587699 0.040237702 -0.038395245
-0.024888782 -0.0040246528 -0.06152336 -0.071442164 -0.0048241424 -0.011886805 0.05214867 0.018135227
-0.019425632 0.020638943 -0.013826751 0.023674842 -0.021468336 0.024674544 -0.031254906 -0.016137734
-0.009074133 0.039973352 -0.03063036 -0.014409251 0.00093973085 -0.0055555543 -0.07809275 -0.04118442
0.024192372 0.01087475 0.013483734 0.001206211 -0.084445834 -0.05549288 -0.031187456 -0.019665321
0.016354127 0.011929676 -0.048573155 0.026223702 -0.027225753 -0.042453483 -0.026273793 0.030325474
0.0040285126 -0.008299972 -0.050516263 -0.07502974 0.013813615 -0.004743892 0.0541732 -0.02849963
0.032334507 -0.048183657 0.0027526794 0.045007553 -0.018508175 0.029394615 -0.024720544 0.033735465
-0.03812791 -0.0773846 0.032283746 0.043215446 0.010477761 -0.043902863 -0.024516363 0.04922113
-0.006760043 -0.008869147 0.012646513 0.09026082 0.04540591 -0.07362954 -0.026232962 -0.064038716
-0.048901025 -0.07678201 0.0047624945 -0.013207121 -0.054636557 -0.05987251 -0.030829651 -0.081989914
-0.06950545 0.020543419 0.052682027 0.031040922 0.029715702 -0.057996016 -0.044183623 -0.01315581
0.009296088 -0.061279606 -0.014530209 -0.029600965 0.005136873 -0.008815963 0.01365686 -0.041023552
-0.09182864 -0.0049153725 -0.0059392303 -0.0055067274 0.012441594 -0.034151804 -0.016183548 0.0071937125
-0.044459127 -0.009692144 0.09343937 0.12416625 0.12811036 0.030195171 0.03510792 -0.029751427
0.00097126106 0.050673272 0.01196578 0.025997218 0.033305965 0.003951762 0.034427874 -0.08265874
-0.015201819 0.06657507 0.12748593 -0.001937623 -0.082409404 -0.0039084284 0.046157576 0.09035192
0.13689753 -0.01441972 -0.053359892 0.014487567 -0.013027708 -0.04200552 -0.06581461 -0.024517529
-0.04583391 -0.05027571 -0.035453007 -0.048821617 -0.0747897 -0.0749512 -0.02232872 -0.055475228
-0.055131085 -0.041113015 -0.03739087 -0.019655958 0.052542076 -0.09224169 -0.047113474 0.008725404
0.007385787 0.03439019 -0.048918243 -0.025925756 0.004742019 -0.055432826 -0.027872913 -0.04074168
-0.038579438 0.051409766 -0.0034051486 0.021902122 0.012813473 -0.056060664 -0.061362997 -0.022348272
-0.0077788853 0.02862767 0.026930403 -0.05689298 -0.046814688 -0.011161214 -0.019789392 0.066640384
0.10992115 0.013152686 -0.09424835 -0.05463723 0.007884176 -0.042968333 0.056838695 -0.0038275695
-0.050648626 -0.06900279 -0.04365158 -0.009864349 0.058487847 -0.06930061 0.029177405 -0.014990141
-6.435396e-05 -0.0970052 0.053742893 0.03061886 -0.012834024 0.0071767285 -0.049349826 0.013574672

bias f4 [32]
00000000: e4b4 19bd 4855 01bd baea abbd 8fc5 31bd
00000010: ae93 dcbc aefd 31bd c84a 90bd db61 2dbb
00000020: c7ee 6ebc 88bb 0f3c d520 9bbc 5046 2fbc
00000030: dfc7 26bd e61b 32bd d069 453c 5488 a53c
00000040: b343 86bd e9b4 93bd 002f a2bd d212 55bd
00000050: e5bf 6cbd a69e 1fbb 4975 c5bc 59a7 a4bd
00000060: 6f76 26bb 733d 62bb 3a3c e8bd 94c0 cebd
00000070: 5f66 06bd c65c a9bd 513a bf3a 775f b4bd
-0.037526026 -0.03157547 -0.0839438 -0.043401297 -0.026925888 -0.04345482 -0.070455134 -0.0026456031
-0.014583296 0.008772738 -0.018936554 -0.010697916 -0.040717956 -0.043483637 0.012049153 0.020206608
-0.06555881 -0.0721224 -0.07919121 -0.0520199 -0.057800192 -0.0024356036 -0.024103777 -0.080397315
-0.0025400182 -0.003452149 -0.11339612 -0.10095325 -0.032812472 -0.08269648 0.0014589523 -0.08807271

weight f4 [32]
00000000: 4563 943f c307 973f 71c0 9b3f ef62 9d3f
00000010: 21f0 8b3f 2ce7 9c3f 3a51 9b3f 515f a53f
00000020: a008 953f 4c6e 8d3f 77d6 9f3f cf45 8d3f
00000030: c197 993f f7c4 9d3f c30c 9a3f 3b7b a13f
00000040: 9652 933f 5d9e 9d3f 36e2 a43f f380 903f
00000050: 0bec 8e3f 2bec 8e3f a0fb 883f 971c 873f
00000060: 318d 9a3f 32ed 923f efd7 983f 140c a53f
00000070: 390d 963f 310b a43f 83a7 933f 325b 963f
1.1592795 1.1799244 1.2168103 1.2295817 1.0932657 1.2258048 1.2134163 1.2919713
1.1643257 1.1049285 1.2487324 1.1036929 1.1999437 1.2325734 1.2035145 1.2615732
1.1509578 1.2313954 1.2881534 1.1289352 1.1165785 1.1165823 1.070179 1.05556
1.2074338 1.1478636 1.1940898 1.2894311 1.1722785 1.2815915 1.1535496 1.1746581

bias f4 [32]
00000000: 48ab 93bd 32a0 a5bd bf7d 8bbd cc43 aabd
00000010: 1e94 5abd 0f88 b2bd d1d1 a3bd 8d95 55bd
00000020: 85ec 40bd 7c1b 64bd 49eb 8bbd ae6b 66bd
00000030: 5451 95bd 92b8 66bd 0848 5fbd 1249 16bc
00000040: 363f 83bd 6b03 9bbd 1339 69bd 76a0 41bd
00000050: bbc5 99bd e67d 49bd 2cb4 85bd b132 92bd
00000060: e045 8dbd f838 99bd 4c16 9bbd 4515 c3bd
00000070: 4a90 6cbd fa8a 90bd 8f26 0abd 598a afbd
-0.07210404 -0.080871955 -0.068110935 -0.083137125 -0.05336391 -0.08717357 -0.07999004 -0.052144576
-0.047100563 -0.055690274 -0.068319865 -0.056255035 -0.07290903 -0.056328364 -0.054512054 -0.009172695
-0.06408541 -0.07569011 -0.056939196 -0.047272168 -0.07508417 -0.04919233 -0.06528506 -0.07138575
-0.06898093 -0.07481569 -0.07572612 -0.09525541 -0.057754792 -0.07057758 -0.03372818 -0.085713096

running_mean f4 [32]
00000000: 07f0 5cc0 3e1a 53c0 3bec 1ec0 47ed 1ac0
00000010: 9bbb 11c0 5196 06c0 fb6c c9bf 002a 6fc0
00000020: cf27 0ec0 7922 f8bf cb50 11c0 f6f2 20c0
00000030: f54b 52c0 eb5e 1dc0 c406 54c0 645e debf
00000040: dc7a 43c0 9926 51c0 f2f2 e1bf 523a 32c0
00000050: f09d 2ac0 4f15 2fc0 d908 4bc0 8293 2bc0
00000060: 46ad 85c0 4a4b 3cc0 fb62 3bc0 d405 24c0
00000070: 3417 11c0 3ca7 0cc0 7a7b 00c0 6322 17c0
-3.45215 -3.2984767 -2.4831684 -2.4207323 -2.2770755 -2.1029246 -1.5736383 -3.7369385
-2.2211797 -1.938552 -2.2705562 -2.5148292 -3.285886 -2.4589183 -3.312913 -1.7372556
-3.0543737 -3.2679808 -1.7652266 -2.7848096 -2.6658897 -2.7356756 -3.172415 -2.6808782
-4.1774015 -2.9420953 -2.9279163 -2.5628557 -2.2670412 -2.1977072 -2.0075364 -2.3614738

running_var f4 [32]
00000000: 7ec1 f640 befa 2641 cb31 9d40 26b8 4c41
00000010: f6e3 c540 765d 3441 afef f640 e315 7541
00000020: 0929 1641 66cf b940 9293 5641 add0 1341
00000030: 76d8 0841 6d01 6b41 671e 5e41 7bbe 2141
00000040: 91b2 d740 86ce 2441 d0fb 2841 b49b 9440
00000050: 87ff c240 2626 cf40 8f3f d940 5df9 9a40
00000060: 8c1a 6a41 9150 3b41 075a de40 f143 8641
00000070: fc10 a240 8f02 0041 b2af f940 f3b2 c340
7.7111197 10.436216 4.9123282 12.794958 6.1840773 11.272818 7.7167583 15.317843
9.385018 5.806567 13.411028 9.238446 8.552847 14.687848 13.882422 10.109004
6.7405477 10.300421 10.561478 4.6440067 6.0936923 6.473407 6.7890086 4.84294
14.631481 11.70717 6.9484897 16.783175 5.0645733 8.000625 7.802697 6.1155944

weight f4 [128, 1568]
00000000: 95c9 5c3c 55a3 833c 6ed4 333b 3246 363b
00000010: b75a 5bbc 2a5f ae3c 9933 623c d864 c03c
00000020: 97ac 18bc 1d07 a4bb 2ceb c3bb 8b88 a8bc
00000030: 9e86 5b3c 224f 54bb 5023 48bc e8f2 ebbc
00000040: aa40 be3a 3fb0 d83b f952 a5bb 0292 d2bc
00000050: 6d47 5d3c 1bd2 36bc 2733 e23a b010 0c3d
00000060: abc8 953c 0d06 b13c da17 38bb c274 b23b
00000070: f157 503c e342 b23c 1e9c 87bc c284 c63c
00000080: b013 3fbb b58d 543c 6ed0 d1bc 26af 0dbb
00000090: 4e6f 15bd b767 55bb 15cd ae3c 8f0a 203b
000000a0: ab09 cc3c ba15 f0bb 208f 953c 0134 79bc
000000b0: 6adf 84bc 00e6 91bc 1338 cabc 62a7 f63c
000000c0: f089 3c3c 1960 84bc e0a6 6ebc 1667 fe3b
000000d0: 225f f1bb d97b 16bc 1492 6dbb 15d3 003b
000000e0: 3ee5 b13b 4d54 98bb 0c70 d13c 984c a0bc
000000f0: 79b2 0d3c 7613 713c 6b15 813c 79fa a23c
00000100: 2313 fc39 7832 adbc b7d6 e33a e2c1 77bc
00000110: cab9 c8bc d0d8 1d3c ae8f 003c ba5f 00bd
00000120: 49a3 cdbc d7a3 a63c c847 a8bb 1c89 27bb
00000130: 6b10 e1bb d391 55bc 5399 14bc 2fca 2f3d
00000140: e1fa bf3c 8afb a13c bf4c e1bc d447 25bc
00000150: 4031 de3a ec45 3fba 3bb4 95bc cc14 b63c
00000160: 7f92 02bc bc39 9c3c 4f74 893c daec 683c
00000170: 17eb a23b fd94 533c 0fa0 b0bb ed08 753c
00000180: f636 ab3c 4482 653c 8ba0 74bc 3d0d ae3c
00000190: 4109 8bbc a066 8f3b f594 dbbc 8fa5 23bc
000001a0: 0dfe 85bc 8601 643c 47c7 763c effc 5cbc
000001b0: 19ea 51bb 598b 02bd 40ed e53b a5e6 82bc
000001c0: 28cc 9abc 21c0 6f3c 0644 cfbb c1ae a33c
000001d0: f347 b7bb 9d34 0ebc 40b6 d1b9 cf26 deb8
000001e0: 41d3 c63b 20fb 2ebc d3aa 84bb 2c79 b7bc
000001f0: 334b eb3c a820 b1bc 8bef afbc df73 ecbc
00000200: 937e f4bb fdfc ba3b 445e 123c 38c2 6e3c
00000210: d277 0d3d 8af5 c2bb 60ed e5bc e019 19bb
00000220: d612 84bb 5133 a03a f4a9 793c 9651 473c
00000230: b9dc 3ebc e25e de3b 9096 8cbb eafd 633c
00000240: 4421 853c b7a0 78bb 7b69 5fbc 69a6 a93c
00000250: ccb1 843c 09e1 813c 40ea 88bc fc54 23bb
00000260: 9bd0 c0bc 4a97 ae3c c701 ee3c f58f dd3c
00000270: 333d 11bd 63bf 8bbc 5511 79bd 9a8e 96bc
00000280: b2e8 e6bc c95e e3bc 9e0a 54b9 1e4d 663b
00000290: fd92 32bd 6790 97bb 1245 30bc d3c2 a93b
000002a0: b965 a03c c0ad e1bb 3e8d 7c3c 5ea1 69bc
000002b0: c794 f43c 7d47 2b3d 483c b93b ed0c c9bc
000002c0: 3c2c 82bc 59a3 fa39 310d 0c3d 6a30 903c
000002d0: 20cd e13c a30b 28bc be7b 99bc 2d40 42bc
000002e0: 0545 4cbd f97d 0ebd fa6c ab3a 41bb af3c
000002f0: 5cc3 573b 9f8c cf3b 76b0 1dbb 2135 ca3b
00000300: b9c5 54ba 368a 76bb dc23 a13c 74b7 73bc
00000310: 73bd 89bc 5468 933c afc3 063d a2b9 1abc
00000320: 3a64 08bd e79a 02bc f9da 94bc 679d 8d3c
00000330: 11ee bcbc 87d4 a13c f7cb 733c c144 bdbb
00000340: 3ca4 88bc f8b0 b6bb cac0 b63b 761c b73b
00000350: 3f21 1dbc 41aa 31bc 5c9c 0f3d 02c0 d8bc
00000360: f2da 5a3b 45c4 a53b 2ee5 c6bc 89c4 42bb
00000370: 295e 59ba 2894 91bb d260 fbbc 1525 b13b
00000380: 2329 16bc 3f6b c7bb 0a18 923c 4fa3 a93c
00000390: f142 0cbd 9686 5fbc 9dcd 8c3b d337 673c
000003a0: ca6d bc3c a8cc 0136 1c08 c0bc a514 883b
000003b0: cbc9 bdbc 87c4 763c e9ea 883c 775e 84bc
000003c0: 807d b23b a413 52bc 31bd 8abc 252c 133a
000003d0: 78c7 2c3c 661f 323b 9d84 e03c 1397 243b
000003e0: 19dc 31bd ad6a 0bbd 5e8e c4bc ad9a 593c
000003f0: 2fab e23b 4241 a13c a9ea 843c 0642 1bbb
0.013475795 0.016069094 0.002743985 0.0027812836 -0.013388327 0.021285612 0.013806247 0.023485586
-0.009318492 -0.005005731 -0.0059789624 -0.020572921 0.013398794 -0.00323958 -0.01221545 -0.02880235
0.0014515121 0.006612807 -0.0050452915 -0.025704388 0.013505799 -0.0111584915 0.0017257676 0.034195602
0.018284163 0.02160933 -0.0028090389 0.0054460475 0.012716279 0.02176041 -0.016553935 0.024233226
-0.0029156022 0.012973239 -0.025612082 -0.002161929 -0.0364831 -0.003256304 0.021338025 0.0024420356
0.024906954 -0.0073268088 0.018256724 -0.015210153 -0.016219813 -0.017809868 -0.024684941 0.030109111
0.011507496 -0.016159104 -0.014566153 0.0077637536 -0.007366077 -0.009184801 -0.00362504 0.0019657065
0.005428939 -0.0046487213 0.025566123 -0.019567773 0.008648508 0.0147141125 0.015757283 0.019894825
0.00048079444 -0.02114223 0.0017382716 -0.015121909 -0.024502654 0.009634212 0.007846756 -0.031341292
-0.025102274 0.020341797 -0.00513551 -0.0025563901 -0.0068684123 -0.0130352555 -0.0090697585 0.042917427
0.023435058 0.019773263 -0.027502416 -0.010087926 0.0016951934 -0.0007296491 -0.018274417 0.022226714
-0.007969498 0.019070499 0.016779093 0.014216626 0.0049718725 0.01291394 -0.005390174 0.014955741
0.02090023 0.0140081085 -0.014930855 0.021246547 -0.016972186 0.0043762475 -0.026804427 -0.009988203
-0.016356492 0.013916379 0.01506216 -0.013488038 -0.0032030402 -0.031871174 0.007016808 -0.01597912
-0.018896177 0.014633209 -0.0063252477 0.01998079 -0.005593294 -0.008679536 -0.00039999373 -0.000105930136
0.006067664 -0.01067999 -0.004048684 -0.022396646 0.028722381 -0.021622017 -0.021476528 -0.028863845
-0.007461378 0.005706428 0.0089336075 0.014572673 0.034538098 -0.0059496807 -0.02806729 -0.002336137
-0.0040305657 0.0012222325 0.015238274 0.012165448 -0.011649304 0.0067862133 -0.0042904094 0.013915518
0.016251214 -0.003793759 -0.013635988 0.020709233 0.016198061 0.015854375 -0.016713262 -0.002492248
-0.02353697 0.021312375 0.029053582 0.027046183 -0.035458755 -0.017059034 -0.060807545 -0.018378545
-0.02818713 -0.027755158 -0.0002022185 0.003514118 -0.04359721 -0.0046253684 -0.010758655 0.0051806956
0.019579755 -0.0068871677 0.015414534 -0.014259664 0.029856099 0.041816223 0.005652938 -0.024542296
-0.015890233 0.0004780542 0.034192268 0.01760121 0.027563632 -0.010256681 -0.018735763 -0.011856121
-0.04987051 -0.034788106 0.0013078742 0.021451594 0.003292284 0.006333902 -0.0024061478 0.0061708842
-0.0008116621 -0.0037619001 0.01967042 -0.014875282 -0.01681397 0.017994083 0.032901462 -0.009443672
-0.03329871 -0.007971502 -0.01817082 0.01728697 -0.023062738 0.019754661 0.014880172 -0.0057760184
-0.016679876 -0.0055752955 0.0055771815 0.0055881096 -0.009590446 -0.010843814 0.035061225 -0.026458744
0.0033394662 0.0050587975 -0.024279203 -0.0029719195 -0.0008291924 -0.0044427104 -0.030685816 0.005406032
-0.009165081 -0.006085783 0.017833728 0.020707754 -0.034243528 -0.013642928 0.004296972 0.014112431
0.02300157 1.9341624e-06 -0.023441367 0.0041528516 -0.023167511 0.015061504 0.016713576 -0.016158326
0.0054470897 -0.0128220655 -0.016935917 0.0005614183 0.010545604 0.002717936 0.027406985 0.0025114461
-0.043422792 -0.03403728 -0.023993667 0.0132815065 0.0069173793 0.019684438 0.016225176 -0.0023690476

bias f4 [128]
00000000: 9e78 16bc ee05 a03c 77cd 46bc 5f82 133c
00000010: 0cf9 673c 1c36 a0bc 25d7 b73c d79f 6fbc
00000020: 34bd 6a3c f145 953c c06c 0f3b 7e1b 81bc
00000030: 142c 893b 29b8 6338 19f9 90bc 1c6b bb3c
00000040: f93b 353c d76b 67bc 0322 3ebc 30ac 9abc
00000050: 7f1a c33c d4f8 84bc f058 24bc 0679 3eba
00000060: cd5b 9cbc 7bbf d0bb 7f49 a63c ce97 54bc
00000070: 2b08 5e3c e37c 413b c689 5dbc 00b8 51bc
00000080: 642b d1bc 637c bcbc 81b3 be3c 006e 903c
00000090: 9ea8 8e3b 0db1 fcbb 7222 6dbc dd28 e7bb
000000a0: 226f 0abb 27d6 42bc 7faa 783c 0d23 5abc
000000b0: befa 9ebc 3569 083c 93ae c2bc c493 38bc
000000c0: 39b7 833c ed5f f6bb a5e6 1dbc 1d90 68bc
000000d0: 17a7 bbbc c3a7 8c3c 8c20 11bb 31b6 a4bc
000000e0: 174d 6fbc e8a8 07bc 0f4d 413c 8266 11bc
000000f0: 947b f4bb f425 41bc 2a47 233c c5e0 5abc
00000100: 1648 b03c 166c b43c 90fa 013c eb7f 51bc
00000110: 8d9d bb39 6e82 8bbc 216c 7c3b c229 bdbc
00000120: f9a7 95bb 60c9 a5bc 0cbd be3c 0b4f 6fbb
00000130: 03e7 19bc 52b1 bf3c 36c0 6c3c 978f 43bc
00000140: 4ed3 21bc daf8 e5bb 51f9 933c bf70 303b
00000150: bbc2 c13c 7236 b7bb 9758 aa3c 0bc7 0ebc
00000160: 59ff c23c f69d 9cbb 3461 5c3c 7830 ca3c
00000170: af8e dc3c 70c5 90bc 1465 d0bc 809d 6ebb
00000180: 045d 85bc 35c8 e53c 556d 93ba 8a20 843c
00000190: 8610 df3b 3e04 1f3c 0803 893c 9045 ad3c
000001a0: 9a20 cebc e23d c3bc 56ba a8bc 0c09 bfbc
000001b0: 93dc e6bc 5bc0 4bb9 6bab 96b8 7d57 8bbc
000001c0: 997f c1bc c301 94bb c5d5 b4ba 2405 3a3c
000001d0: d315 5eba c56a 5b3b 1293 1d3b c5d9 90bc
000001e0: 3755 203c 1575 17bc 3cf6 71bb 5e56 c43c
000001f0: 4250 e13c 4ba3 e3bb bc50 fb3b 042d acbc
-0.009184031 0.019534077 -0.012133948 0.009003251 0.0141584985 -0.019557051 0.022441456 -0.014625511
0.014327336 0.018221827 0.0021884888 -0.01576018 0.0041861627 5.429253e-05 -0.017696904 0.022878222
0.011061662 -0.014124832 -0.011604789 -0.018880934 0.023816345 -0.016231932 -0.01003097 -0.00072659587
-0.019086743 -0.0063704825 0.020298718 -0.012975646 0.013551752 0.0029523901 -0.013521617 -0.012800217
-0.025533386 -0.023008531 0.023278954 0.017630577 0.004353597 -0.007711536 -0.014473544 -0.007054432
-0.002112337 -0.011891878 0.015177368 -0.013314021 -0.019406673 0.008325865 -0.023764884 -0.011265699
0.016078578 -0.0075187595 -0.0096375095 -0.0141945155 -0.022906823 0.017169839 -0.0022144644 -0.020106407
-0.014605782 -0.0082800165 0.011798157 -0.008874537 -0.0074610207 -0.011788834 0.009965697 -0.013359253
0.021518748 0.022024196 0.007933274 -0.012786846 0.00035784804 -0.017029967 0.0038516598 -0.0230912
-0.004567143 -0.020237625 0.023283504 -0.003651562 -0.009393456 0.023399983 0.0144501235 -0.01193609
-0.009877039 -0.007018191 0.01806322 0.002692267 0.023652425 -0.005591207 0.020794196 -0.008714448
0.0238034 -0.0047795726 0.013450909 0.024681315 0.026923506 -0.01767227 -0.025438823 -0.0036409795
-0.016279705 0.028049568 -0.0011247793 0.016128797 0.0068073897 0.009705601 0.016725078 0.021151334
-0.02516203 -0.023833219 -0.020596664 -0.023319744 -0.02818135 -0.00019431247 -7.1844865e-05 -0.017009491
-0.023620414 -0.0045168116 -0.0013796618 0.011353765 -0.000847188 0.0033480388 0.002404396 -0.017681966
0.009785942 -0.009244223 -0.0036920449 0.023966964 0.02750409 -0.0069469563 0.0076695364 -0.021017559

weight f4 [64, 128]
00000000: 5b28 9abd 637a 143d 0737 86bd fae7 073d
00000010: fd61 be3d 33dd 843d f366 433a 7bab 3c3c
00000020: cadc a5bc 5cab 8abd 9379 233d 97a7 323c
00000030: 1947 af3c ac10 2a3d 6e62 3e3d 30f9 9bbd
00000040: b88a 703d 862a c13d c891 9d3c 106d 0cbe
00000050: 3b1d 99bd 5f9e 55bd b929 ae3d 9fae 5a3d
00000060: ea8c 963d f6aa a2bc fd13 a2bd caa1 ac3d
00000070: 9c2a a93c c0e6 81bc 7973 ba3c 3bd9 b3bd
00000080: 30ed 4fbb 07c7 52bd b934 37bd 5b5f 88bc
00000090: b3b5 7ebd 13a2 fabc 4103 c23c 1195 533d
000000a0: 933a 1b3e 40a8 37bd 0162 3fbc c34e b0bd
000000b0: 4ed2 78bc 24d1 a53d c620 3e3d 019a 94bd
000000c0: 9ec1 8dbb 216e dabc ac1f 863d 3b3b 993c
000000d0: 796f 313d 99b0 a53d 68ed 9dbd 8191 81bd
000000e0: 90ae adbd aadf ef3d dcee 613d bf00 b33d
000000f0: cfe3 773d 186a b2bd a305 2e3d 8257 84bd
00000100: 0d56 853b 6f6d 33bd ea99 ecbc 9e2a 9e3d
00000110: 1992 8abd d418 59bd 24ed aebd 2995 113d
00000120: 5294 dabc 175c 163c 8390 3ebc b707 923d
00000130: 3042 0b3d 215a 943d 2c36 0d3b 47c3 8b3d
00000140: a900 863d adc7 e5bc 9d7b a43d b96a 05bd
00000150: 35c9 ff3c e2f6 48bd 54f9 2f3c fa77 13bd
00000160: 4231 dfbc ba27 053e 430e e4ba 2810 e93c
00000170: 8bef 433c 0bd6 b5bc 82c0 28bd b693 6ebc
00000180: 18b5 3b3c 7963 e63d 2870 b73c 6b8b debc
00000190: e1ac 91bd 53a3 5ebc 8f98 cb3a 1ce1 6a3d
000001a0: 1b75 843d b773 203d ce39 18bb 0611 06bc
000001b0: a46d 5abd af16 803d 5581 043d c52c 913d
000001c0: 691b a1bd 851b aeba e7ff 0b3c 519c 87bd
000001d0: 5408 b53c 6688 da3d a08b c4bd 819f 7dbd
000001e0: 4536 253e 9533 373d 0538 5cbd d76f fe3c
000001f0: f12c f03d 73a7 5a3d 86c3 d4bc 15f5 a0bd
00000200: 51e2 9e3d c48a 02bd cf17 6fbd 2816 74bd
00000210: de69 37be ccec fbbd 6aa2 133e 2c48 7b3c
00000220: c45b f03d b818 09bb b498 833d b2c7 36be
00000230: 8af9 163e cd44 b13d 3b3f 71bd 99ec 613c
00000240: b8f2 9c3d 9581 7ebd 09db 4d3b 38b4 f93d
00000250: 1158 96bd 5a24 573d 8de6 e63c 33a3 e6bc
00000260: a231 51bb 8c74 793d 2228 4ebc a4a8 8e3d
00000270: 35ab 0a3d 9aba 923c ad25 9d3d d6f6 4c3d
00000280: c518 7a3d daaf edbd 0294 a73d 21e3 81bb
00000290: ac3b 003e ca7a ec3c 7b57 813d ce35 94bd
000002a0: 4705 e83d ecab 28bd c0cf e53b 3c0e 0abd
000002b0: c96b d93d 1155 603d 6575 8cbd 617c d63d
000002c0: 2c98 803d 33e7 70bd a1ab 9f3d dacd 673d
000002d0: af3a e03c f9f4 293e aae5 d53c b3cd 4d3c
000002e0: 8928 d03d 7cfc a4bd a7b5 073c 7e5f 00be
000002f0: ec10 6f3d 0e2d a83d afaf d8ba 7a6b 88bd
00000300: d913 78bd 2037 5ebd a3ac 80bc 96ee 65bd
00000310: 2827 833c b6ce e83b 33bb e9bc 633b 203c
00000320: 560b 713d e2c5 003e e1b7 51bc ff39 6e3d
00000330: 67cd 19bd 2f44 1a3e 4f38 cb3d eb1e 9cbd
00000340: 289d 0ebe b208 76bc d99c 32bd 208d 0f3e
00000350: b0d3 24bd a03c fa3d 0492 dd3d 3ff4 09bc
00000360: 8308 44bc a15d e43c af2f 97bb 69d8 dbbd
00000370: 9bfe 9a3d f79e da3d c996 473c f33b d83d
00000380: 00f9 0ebe 9918 a8bd c041 94bd efae 783d
00000390: b016 a83d c28d 1abc a119 a33d 0940 32bc
000003a0: 217b d93d b106 8d3d be61 863d c01a 9abd
000003b0: 1a97 9dbb e166 2bbd 201e 403e 34ad 1f3e
000003c0: 228f 833d 3a26 143d fabb 533d 6919 713d
000003d0: a606 8fbc f5c1 cdbc 0421 8b3d 0db3 9e3b
000003e0: 3d63 623d 0e94 223c b157 3bbd ae10 453d
000003f0: 9a27 71bc ab61 2ebe 3a58 7f3d bbb0 94bd
-0.075272284 0.03624953 -0.065534644 0.033180214 0.092960335 0.06487503 0.00074540003 0.0115154935
-0.020246882 -0.067709655 0.039910864 0.010904214 0.021396207 0.041519806 0.04648059 -0.07615888
0.058726043 0.09431939 0.019234553 -0.13713479 -0.074762784 -0.052152988 0.08504052 0.053389188
0.07351096 -0.019856911 -0.07913969 0.08429296 0.0206502 -0.0158571 0.02276014 -0.08781668
-0.0031727068 -0.05145934 -0.044728015 -0.016647032 -0.062185 -0.030594861 0.023683192 0.051655833
0.15159063 -0.04483819 -0.011681081 -0.086087726 -0.015186859 0.08096531 0.046417974 -0.072559364
-0.0043260595 -0.026663842 0.0654901 0.018705001 0.0433192 0.08090324 -0.07711297 -0.06326581
-0.08480561 0.117125824 0.055159435 0.08740377 0.06051999 -0.08711642 0.042485844 -0.06462003
0.004069096 -0.043805536 -0.028881986 0.07722972 -0.06766147 -0.053002194 -0.08541325 0.03554264
-0.026682053 0.009177229 -0.011631134 0.07130378 0.03399867 0.07243753 0.0021547182 0.068243556
0.06543095 -0.028049314 0.0803139 -0.03257248 0.031223873 -0.04906357 0.010740597 -0.03600309
-0.027245168 0.13003436 -0.001739927 0.028450087 0.011958967 -0.02219679 -0.041199215 -0.014561584
0.01145675 0.11249442 0.022392347 -0.027166089 -0.07113052 -0.013588744 0.0015533137 0.057343587
0.064676486 0.039172854 -0.0023227814 -0.00818277 -0.053327218 0.062543266 0.032349903 0.07088617
-0.07866556 -0.0013283348 0.008544899 -0.06621612 0.022098698 0.10670547 -0.09596944 -0.061919693
0.16133983 0.044726927 -0.053764362 0.031059189 0.11727322 0.05338235 -0.02597214 -0.07859246
0.0775801 -0.03187062 -0.058372315 -0.059591442 -0.17911479 -0.12301025 0.14417425 0.015337031
0.11736253 -0.0020919275 0.0642561 -0.17849615 0.14743629 0.08655701 -0.058898192 0.013789319
0.076634824 -0.062135298 0.0031411073 0.12192577 -0.07341016 0.052524902 0.028186107 -0.028153991
-0.0031920453 0.060902163 -0.012582811 0.069657594 0.033854682 0.017911244 0.07673202 0.05004009
0.06105878 -0.11605807 0.08182527 -0.0039638435 0.12522763 0.028867144 0.06315514 -0.07236825
0.113291316 -0.041179582 0.007013291 -0.03370498 0.106162615 0.054768626 -0.06858329 0.10472942
0.062790245 -0.05881424 0.077964075 0.0565928 0.027371733 0.16597356 0.026110489 0.01256125
0.101639815 -0.0805597 0.008283055 -0.12536427 0.058365747 0.082117185 -0.001653185 -0.066611245
-0.060565803 -0.05425179 -0.01570732 -0.056135736 0.016009882 0.00710472 -0.028531646 0.009779784
0.0588487 0.12575486 -0.012800188 0.058160778 -0.037549403 0.15065072 0.099228494 -0.07623085
-0.13927138 -0.015016722 -0.043606613 0.14018679 -0.040240943 0.122185946 0.10818866 -0.008420049
-0.01196492 0.027876677 -0.0046138386 -0.10734636 0.075680934 0.106748514 0.012181946 0.105583094
-0.13962173 -0.08207817 -0.07239103 0.060713705 0.08207452 -0.009433212 0.07963873 -0.010879525
0.10619188 0.06886042 0.065616116 -0.075246334 -0.0048092725 -0.04184616 0.18761492 0.15593415
0.06423785 0.03616927 0.05169294 0.058862124 -0.017459225 -0.0251169 0.067934066 0.004843122
0.055270422 0.009922994 -0.045737926 0.04811161 -0.014718914 -0.17029445 0.06234 -0.07260271

bias f4 [64]
00000000: d61a 8f3d d913 4ebc 0544 fabc 5f0f bb3d
00000010: a8c4 86b9 62f0 4fbc 2ed8 4f3d 42a1 053c
00000020: 1e6c 41bd 4d14 343d 238e 663d 2429 32bd
00000030: 85df 553d 10f5 88bc b6a6 9abc f4c5 ba3c
00000040: b665 663b 0fee 6c3d 6809 39bd fa9a f73c
00000050: 86f9 50bd 8e7d 5ebd cd58 8fbd 40a9 07bd
00000060: 37df 8f3c 760c 8ebc f5e7 debc 002a 3a3d
00000070: 0452 123d 1f47 e93d 33ea a53d 4883 70bd
00000080: 14da 5e3c 0bc6 193d 69a7 bfbd 654b 4cbd
00000090: e6a1 f0bc da2b 29bd 3140 8f3d ab0d 0e3b
000000a0: 6504 a13d 2f6b 43bd c069 2f3d d0c7 1c3d
000000b0: 78a3 2abd d7a4 af3c 3291 ac3d ed64 663d
000000c0: 1a7e 013c 8371 ea3c 5078 0cbb 275e 98bd
000000d0: a5c0 05bd ea5b 133c 7e28 ee3c 8a9a b0bd
000000e0: b87b cf3c dc4e 4e3c 7a44 e4ba c54c 813c
000000f0: 0694 853d 59ff 31bd a8e2 0a3d fb04 91bd
0.069875404 -0.012577974 -0.030550012 0.09133791 -0.00025704992 -0.012691589 0.050743274 0.008156123
-0.04722225 0.043964673 0.056287896 -0.043496266 0.052215118 -0.016718417 -0.018878322 0.02279947
0.003515584 0.057844218 -0.045174986 0.030225266 -0.051019214 -0.054318957 -0.06999359 -0.033120394
0.017562492 -0.017339926 -0.027210215 0.04545021 0.035722747 0.113905184 0.081013106 -0.05871895
0.013601799 0.037542384 -0.09358103 -0.04987659 -0.029374074 -0.041301586 0.069946654 0.0021675627
0.07862166 -0.04770964 0.04282546 0.038276494 -0.041659802 0.021440906 0.08426131 0.056248594
0.0079036 0.02861858 -0.0021434017 -0.07439833 -0.032654423 0.008994082 0.029072043 -0.08623226
0.025327548 0.012592044 -0.0017415427 0.015783677 0.06522374 -0.04345641 0.033907562 -0.07081028

weight f4 [10, 64]
00000000: 14dd e73c c470 b33e b901 273e ba1a 633e
00000010: d915 8abd d11b bb3b b97d 4fbd d048 953d
00000020: 59bf 693e 2b99 07be 4590 d1bd a3e2 5fbe
00000030: c916 ae3d 3591 69bd 788a 9d3d 3756 eb3e
00000040: 3aad c33e ca01 c8ba b326 3ebe 2cb8 acbe
00000050: 5f2a 0bbe 3b86 503c b17a a5be f935 c63d
00000060: b7dc d8bd 3ee3 a63e ef6d 293e a127 8dbb
00000070: 0954 4abe 8e45 5dbe 934f 383d b816 c3bd
00000080: d825 73be 8fa1 cd3d b033 7ebe 501b 2abe
00000090: 5897 adbd e667 883c 8bf8 1e3c 54b1 eebd
000000a0: ecf8 08bc 355d b5bd 354d 9e3d 94a2 223e
000000b0: 7587 023d cdd7 a6bd cf87 433e f762 0e3e
000000c0: 3c13 163d 0a2f 023c 3595 bdbe eccc b1bb
000000d0: 81df 59be fefa b8bd 36b9 36be fdf1 60bd
000000e0: 9009 e63d 00aa 85bd 03de ec3d f944 913e
000000f0: 5c3e 3cbd 1d09 e7bc 6579 163e 4a02 ae3e
00000100: cf13 713e 0230 bfbd 2272 90bd 2002 4fbd
00000110: a021 54bd b7d4 d33d 1629 00be 4095 42bc
00000120: dd34 013e 4375 06be b36f b8bd 2c40 5bbe
00000130: 53c0 22bc 9acc a6be 799c 86be 8357 7a3c
00000140: 9062 f7bd 72b6 90bc 3a97 fc3d 7e77 b43e
00000150: 9fc4 7cbe 39a7 89bc 4c7a 0dbe cbb1 303d
00000160: cff1 89bc 4d12 32bd dc7e 0cbe ff41 38bd
00000170: 94a8 173e 4c48 9c3e d9f8 70bd 145b 3dbe
00000180: 1e29 16be 9e1f ad3b 1a4c 783d 7233 4f3e
00000190: 33a3 9e3c 09da 523c 1bcb 103d 5973 a93c
000001a0: 91ae febd 349d 813e c917 683e 3098 963e
000001b0: 2093 debd b04a 3d3e d78e 2abe 7841 5f3e
000001c0: 6f26 353d 85cd 13bd f87e 163e 4cb5 7b3d
000001d0: f361 60be a5cc 153d 68c1 d93c 0679 49bd
000001e0: 3dac 47bd a614 313d ab79 f53d 9236 8c3e
000001f0: c9c0 e93e fcf0 49bd c9b0 71bd 7d62 adbe
00000200: c0e7 91be bb3b ed3d 3c63 963e 7f7c 27be
00000210: 4166 fdbc ef49 89bd 7b25 a03c 822d df3d
00000220: 7bd9 ef3d d208 e53d 9ed1 583e 9fc1 213e
00000230: 7745 96bc 0df5 5ebe 92d7 2d3e 9a70 8f3e
00000240: 7f84 d8be 928b 3c3e 8c88 313e d6e4 d1be
00000250: ac22 c03b c79a d2bd ed91 46be bbf6 233e
00000260: e52c 853e 0c8d f93d 7c9b 1bbc 413c 673b
00000270: a692 913d 3816 92be b837 7c3c d75d 373c
00000280: 5e80 b23e 2c17 91bb 9779 763e f0ae 743e
00000290: e9b2 583e a84e 933e d2b9 8bbe 0aae bbbd
000002a0: 01f6 ba3c f89e b5be a959 ce3e 6c62 79be
000002b0: f1ea 8abd 605d 063e dd9c 5fbe 3262 d43d
000002c0: 4ec6 7abc aa16 26be 5f34 a9bd 94a7 de3d
000002d0: 7b26 73be c41a 813d 0671 ce3d 8935 e43c
000002e0: b19e df3c 30cf a7bc 35f3 cd3d 0742 29be
000002f0: a804 363d 18a9 d23d e4ca 833e a5df 2d3e
00000300: e417 183e d61b 5d3e 00a6 28be 08f9 24be
00000310: 6c29 e73d b2f1 8dbd 626b a03d 0555 d53d
00000320: 6980 cbbc 59b8 003f 851c bdbd 3203 b53c
00000330: 5373 4c3e 2948 9c3d a330 62be 20f7 6abe
00000340: 19f0 f7bd e562 2abe c731 9a3e 01fb 253e
00000350: 3177 413e f521 13bd 6e25 433e 8bdf ddbc
00000360: 542a 58be c34f ecbd 508c 04be ca6d 96bd
00000370: 2947 f9bd ca3e 8c3e 2702 efbb 410a e73d
00000380: afbc 893e 7057 09be 6163 5bbe 0fa9 38be
00000390: 2be3 713e db14 123d 2087 13be 267c 673e
000003a0: e323 82bd 53b0 4cbe 5771 b3be e6a7 bdbd
000003b0: 9072 653d d75e 0fbe 8658 71be 4c34 b23e
000003c0: 804c 72bd 9b6a 0e3d d1ca 7e3d c389 a1bd
000003d0: b353 fbbd fc3c 873c 2bff 33be 1a16 4e3c
000003e0: 9748 563e 96c3 813d 4f41 1bbd 6dc5 c63d
000003f0: 6aff 9dbe d96a 9cbd f6f6 1cbe 5d53 a53e
0.02830366 0.3504697 0.16309251 0.22178164 -0.06742448 0.005710103 -0.050657008 0.072892785
0.228269 -0.13242023 -0.10232595 -0.21863799 0.0850044 -0.057023246 0.076924264 0.45964214
0.382181 -0.0015259322 -0.1856945 -0.33734262 -0.13590382 0.012727316 -0.3232017 0.09678263
-0.10588973 0.32595247 0.16545843 -0.0043077026 -0.1975862 -0.21608564 0.044997763 -0.09525818
-0.23744905 0.100405805 -0.24824405 -0.16611981 -0.08476132 0.016651105 0.009702812 -0.116549164
-0.008360129 -0.088556685 0.0772957 0.15882331 0.031867463 -0.081466295 0.19094776 0.1390494
0.036639437 0.007945785 -0.37027898 -0.00542604 -0.21276666 -0.09032248 -0.1784409 -0.054918278
0.11232293 -0.065265656 0.11565783 0.28372934 -0.045957908 -0.028202588 0.14694746 0.3398612
0.23542713 -0.09335329 -0.07053019 -0.050539136 -0.05178988 0.103433065 -0.12515673 -0.011876404
0.12617822 -0.1313067 -0.0900568 -0.21411198 -0.009933549 -0.32577974 -0.26291254 0.0152796535
-0.12079346 -0.017665122 0.12333532 0.35247415 -0.2468438 -0.01680337 -0.13816184 0.043138307
-0.016838936 -0.043474484 -0.13720268 -0.044984814 0.14810401 0.30523908 -0.05883107 -0.18491775
-0.14664122 0.00528331 0.06061945 0.20234469 0.019364929 0.012869366 0.035349946 0.020684885
-0.1243564 0.2531525 0.22665323 0.29412985 -0.108679056 0.18485522 -0.16656052 0.21802318
0.044226106 -0.03608467 0.14696872 0.061452195 -0.21912365 0.036572117 0.026581481 -0.049187683
-0.048748244 0.043232583 0.11986097 0.27385384 0.45654896 -0.049302086 -0.059006486 -0.33864203
-0.28497124 0.11583658 0.29372585 -0.16356085 -0.030932548 -0.06703555 0.019549122 0.10897352
0.11711403 0.11183323 0.21173713 0.15796517 -0.01834367 -0.21773167 0.16976765 0.28015596
-0.42288586 0.18412617 0.17337245 -0.409949 0.005863508 -0.10283428 -0.19391604 0.16012089
0.26010814 0.12185106 -0.00949752 0.0035283717 0.07108049 -0.28532577 0.015394144 0.011191807
0.3486356 -0.004427811 0.2406982 0.23894858 0.21161999 0.28770947 -0.27290207 -0.09164055
0.022822382 -0.35472846 0.4030278 -0.24353951 -0.06783093 0.13121557 -0.21837182 0.10370292
-0.015306069 -0.16219583 -0.08261942 0.10871807 -0.23745148 0.06303933 0.10080151 0.027857559
0.02729735 -0.020484537 0.10056154 -0.16529094 0.044438034 0.10286158 0.2574073 0.16979845
0.14852864 0.2159265 -0.16469574 -0.16110623 0.112871975 -0.06930865 0.07832982 0.10416607
-0.024841504 0.5028129 -0.09233955 0.02209625 0.19965868 0.07630951 -0.22088866 -0.22945833
-0.12106342 -0.16639288 0.30116102 0.16209032 0.18893124 -0.035921056 0.19057247 -0.027084133
-0.21109897 -0.11538651 -0.1294415 -0.07345159 -0.12171776 0.27391654 -0.0072939578 0.11281253
0.26901767 -0.13412261 -0.21424629 -0.1803324 0.23621814 0.03566442 -0.14407015 0.22605953
-0.06354501 -0.19989137 -0.3504741 -0.0926054 0.05601746 -0.14001022 -0.23568925 0.34805524
-0.059154987 0.034769636 0.06220514 -0.07887604 -0.12271824 0.016508572 -0.17577808 0.012578512
0.20926128 0.06336133 -0.03790408 0.09705625 -0.30858928 -0.07637567 -0.15328583 0.32290164

bias f4 [10]
00000000: b137 05bd 21a7 77bd 0ad4 b3bc 37b8 36bc
00000010: d26b 483d b75e 123d 6af7 57bd d786 e8bd
00000020: 2369 77bd 39c5 84bc
-0.032523815 -0.06046212 -0.021951694 -0.011152319 0.04893095 0.03573486 -0.052726187 -0.11353844
-0.060403 -0.016207324
