mnist_inf_mj.pt (torch_old, 895615 bytes, 18 tensors)

conv1.weight f4 [16, 1, 5, 5]
0	0xbda607ad	-0.08106933
1	0xbe480fc4	-0.19537264
2	0xbe274f5d	-0.16338868
3	0x3e098f5c	0.13433594
4	0xbcf5d494	-0.030008592
5	0x3e4d63ec	0.20057648
6	0xbc712e90	-0.014720574
7	0xbddeb482	-0.10874273
8	0xbcde9af8	-0.027173504
9	0xbd0c0bed	-0.03419106
10	0x3d7d654f	0.061864194
11	0xbdfe9654	-0.124310166
12	0x3dc89d76	0.09795658
13	0xbddcdf55	-0.10784785
14	0x3db526da	0.08845301
15	0xbd852774	-0.06501666
16	0xbe3af0b5	-0.18255885
17	0xbd9295ac	-0.07157454
18	0x3dba18db	0.09086772
19	0xbe1eee88	-0.1552068
20	0x3e8417bb	0.25799355
21	0xbd2900fd	-0.041260708
22	0xbdef910c	-0.11697587
23	0xbe3ffa49	-0.1874782
24	0xbda31b04	-0.07964137
25	0xbd6d5bd1	-0.05794889
26	0x3de3d186	0.11123948
27	0x3bcaaa10	0.006184824
28	0xbdca9d53	-0.098932885
29	0xbe5078fd	-0.20358653
30	0xbe0c1266	-0.13678893
31	0xbe868c00	-0.26278687
32	0xbdc0f414	-0.09421554
33	0xbe2f984f	-0.17147945
34	0xbd19a295	-0.037508566
35	0xbca0a4d1	-0.01960984
36	0x3c508cb5	0.01272886
37	0xbda9976f	-0.08280837
38	0xbc021419	-0.007939362
39	0x3d9e8896	0.077408955
40	0xbd010c68	-0.031505972
41	0xbdc143ed	-0.09436784
42	0x3ba4e272	0.005031877
43	0xbce44930	-0.02786693
44	0xbd899e81	-0.06719685
45	0x3ce9e523	0.028551644
46	0xbdae5163	-0.08511617
47	0x3dda71ba	0.10666223
48	0x3cb52cd0	0.022116095
49	0x3d7513e8	0.059833437
50	0x3c8bd1d6	0.017067831
51	0x3e4606d1	0.19338538
52	0x3dabd28b	0.08389767
53	0xbd882aee	-0.06648813
54	0xbe4ea33e	-0.2017946
55	0x3d0fa68c	0.03507094
56	0xbc908521	-0.017641606
57	0x3e10029b	0.14063494
58	0x3ddf9571	0.109171756
59	0x3e78d2fd	0.24299236
60	0x3e330a9e	0.17484519
61	0x3ceb393c	0.028713815
62	0xbdaa5681	-0.083172806
63	0xbd8a3faf	-0.06750428
64	0x3d2263a2	0.0396458
65	0xbcc6f7f8	-0.024288163
66	0x3e5d7cec	0.21629685
67	0x3e104f25	0.14092691
68	0xbd4cef90	-0.050033152
69	0xbe07db9c	-0.13267368
70	0xbd975ced	-0.07390771
71	0x3da50726	0.08058004
72	0x3e30ed8e	0.1727812
73	0x3e006a9d	0.1254067
74	0x3e48c6c8	0.19607079
75	0xbe4e4605	-0.20143898
76	0x3d4c7b56	0.04992231
77	0x3ddd031c	0.10791609
78	0xbd6846aa	-0.056708016
79	0xbe38ae5b	-0.18035261
80	0xbe265504	-0.16243368
81	0x3e17b199	0.14813842
82	0xbdb4d0fe	-0.088289246
83	0x3d989089	0.07449443
84	0xbdaef6a7	-0.08543139
85	0x3d4dc15e	0.050233237
86	0x3ddeab4b	0.10872515
87	0xbde76aa0	-0.11299634
88	0xbe0d83b9	-0.1381978
89	0xbe0aa11d	-0.13538022
90	0xbdf60017	-0.12011736
91	0xbd57272f	-0.052527603
92	0x3e36864f	0.17824672
93	0xba8e89b6	-0.0010874781
94	0x3d706bb5	0.058696467
95	0xbe2e8ba1	-0.17045452
96	0x3d4861e1	0.04892147
97	0x3e7ef33e	0.24897477
98	0xbe10f737	-0.14156805
99	0xbe1dfcd9	-0.15428485
100	0xbca4be70	-0.020110339
101	0x3e46f662	0.19429925
102	0x3e02b204	0.1276322
103	0xbe1c21c9	-0.15247263
104	0xbe7059d8	-0.23471773
105	0xbe6fde88	-0.23424733
106	0xbce21734	-0.027598955
107	0xbe70a7c6	-0.235015
108	0xbc968ba4	-0.018377133
109	0x3d53a3dc	0.05166994
110	0x3c54a00b	0.01297761
111	0xba9edfac	-0.0012121103
112	0x3dc96785	0.09834198
113	0x3ec4f1ff	0.38465878
114	0x3ed0f3b0	0.4081092
115	0x3db9395d	0.09044144
116	0xbd80a46f	-0.06281363
117	0x3e4ff24f	0.20307277
118	0x3dd36c4c	0.1032339
119	0x3da5f194	0.08102718
120	0xbd8261cd	-0.0636631
121	0x3df53b4f	0.11974203
122	0xbe751050	-0.23932004
123	0xbec2ebe0	-0.38070583
124	0xbed42dfa	-0.41441327
125	0x3d3b1ee2	0.04568375
126	0x3e43bae4	0.19114262
127	0x3e9fc390	0.3120389
128	0xbb3db580	-0.0028947294
129	0x3e81cd61	0.25352004
130	0xbea0ad99	-0.31382445
131	0xbe6be438	-0.23036277
132	0xbe5244c9	-0.20534052
133	0xbdf9eb41	-0.12203074
134	0xbe807bd5	-0.25094476
135	0xbe8de760	-0.27715588
136	0xbe88b2a8	-0.26698804
137	0xbe7cee6c	-0.24700326
138	0xbd742276	-0.059603177
139	0xbe399927	-0.18124829
140	0x3da39a87	0.07988458
141	0x3e3a7fa3	0.18212752
142	0x3e3ded82	0.18547633
143	0x3cd20a31	0.025639625
144	0xbc0b3087	-0.008495457
145	0x3e6a376d	0.22872706
146	0x3ddfd02d	0.10928378
147	0xbd002b58	-0.031291336
148	0xbc1629e5	-0.009165262
149	0x3d10c530	0.035344303
150	0xbd6d190b	-0.05788521
151	0x3db54907	0.088518195
152	0x3da8680d	0.08222971
153	0x3e2c22f3	0.16810207
154	0x3e74eacf	0.23917697
155	0x3e1c64b3	0.15272789
156	0x3e6b5568	0.22981799
157	0x3e8fa766	0.28057402
158	0x3e076a48	0.13224137
159	0xbe0e30dc	-0.13885826
160	0xbe2fdcff	-0.17174147
161	0xbe0e2dee	-0.13884708
162	0xbe111c57	-0.14170967
163	0xbe1347c2	-0.14382842
164	0xbea2a630	-0.31767416
165	0xbe1509eb	-0.14554565
166	0xbe2662a5	-0.16248567
167	0xbe2dba1d	-0.16965528
168	0xbe13d718	-0.1443752
169	0xbe28c28f	-0.16480468
170	0xbd06da17	-0.03292283
171	0xbda4fa60	-0.08055568
172	0xbe7054fa	-0.23469916
173	0xbdb11f1a	-0.0864851
174	0x3d43007f	0.047607895
175	0x3d51674f	0.051123913
176	0xbd57dc4d	-0.05270033
177	0xbc92ffd1	-0.017944248
178	0x3d57f784	0.052726284
179	0x3e05c286	0.13062486
180	0xbe1abd9a	-0.1511139
181	0x3e378dc8	0.17925179
182	0x3e3af357	0.1825689
183	0x3d4ab1d1	0.049485985
184	0xbdf39c15	-0.11895005
185	0x3e1de743	0.1542025
186	0xbdb52eac	-0.088467926
187	0xbdab70fe	-0.08371161
188	0x3e76591c	0.2405743
189	0xbe2190e4	-0.15777928
190	0x3e208088	0.15674031
191	0xbeafe3ee	-0.34353584
192	0x3dec379e	0.11534046
193	0x3df1ec78	0.11812681
194	0xbe24cd8a	-0.16094032
195	0xbe8bf20f	-0.27333114
196	0xbea084bf	-0.31351277
197	0x3d9c0fa6	0.07620172
198	0x3e38fc04	0.18064886
199	0x3d31694b	0.043313306
200	0x3e903695	0.28166643
201	0xbd19ec20	-0.037578702
202	0xbdeef513	-0.11667838
203	0xbe6b99de	-0.23007914
204	0x3d4c2e64	0.04984893
205	0x3d2bf4d7	0.041981544
206	0xbd9ed8d0	-0.077561975
207	0xbe8ccd97	-0.27500603
208	0x3e6382e7	0.22217904
209	0xbd061620	-0.032735944
210	0x3d8fcfe8	0.07022077
211	0x3e0cf748	0.13766205
212	0x3cb6438f	0.022249011
213	0x3ea0cedd	0.31407824
214	0x3dd330ee	0.10312067
215	0xbe17c3f9	-0.14820851
216	0xbd1fb926	-0.03899493
217	0x3e0195e2	0.12654832
218	0xbdd8dde9	-0.10589201
219	0xbe9d5693	-0.30730113
220	0x3e64d817	0.22348057
221	0xbd1046d5	-0.0352238
222	0x3ddb2856	0.10701053
223	0x3d87f0a9	0.06637699
224	0x3cbe5f6a	0.023238856
225	0xbc322f6a	-0.010875562
226	0xbcfc0fcf	-0.030769257
227	0xbd35473f	-0.0442574
228	0x3e0331e7	0.12812005
229	0x3eb4fe74	0.35350382
230	0x3e25b64c	0.16182822
231	0xbd8179e6	-0.063220784
232	0xbe8aae2e	-0.27086014
233	0xbe678abf	-0.22611521
234	0x3df4abe1	0.11946846
235	0xbc2b4b79	-0.010455006
236	0xbc73bb2c	-0.014876168
237	0xbe3b59f3	-0.18296032
238	0xbe9c26fd	-0.30498496
239	0xbe32e1d4	-0.17468959
240	0x3e0b6969	0.1361443
241	0x3eb58faf	0.35461184
242	0xbe6c8f5f	-0.23101567
243	0xbcc957e5	-0.024578044
244	0xbe494e12	-0.19658688
245	0xbe215606	-0.15755472
246	0x3e620d7d	0.22075458
247	0x3e55dc41	0.20884801
248	0x3d8879f6	0.06663887
249	0xbd0550f4	-0.032547906
250	0x3e104915	0.14090379
251	0xbdc32348	-0.09528214
252	0xbdb4d5c3	-0.08829834
253	0xbeb5f0be	-0.35535234
254	0x3ce542a9	0.027985888
255	0xbc55a62d	-0.013040108

conv1.bias f4 [16]
0	0xbdfc07bd	-0.123061635
1	0x3e2028c1	0.15640546
2	0x3dba806f	0.09106528
3	0xbc948d7f	-0.018133877
4	0xbd6c6760	-0.057715774
5	0x3e39d9c4	0.18149477
6	0xbd603853	-0.054741215
7	0x3e45ae17	0.19304691
8	0xbe478404	-0.19483954
9	0x3cba3714	0.022731341
10	0x3dc65b09	0.09685332
11	0xbd58114c	-0.05275087
12	0xbdb32eab	-0.087491356
13	0xbd84bc3e	-0.06481217
14	0xbd8c9fe8	-0.06866437
15	0x3e3af7ec	0.18258637

bn1.weight f4 [16]
0	0x3f81bb55	1.0135294
1	0x3f831580	1.0240936
2	0x3f269db9	0.65084416
3	0x3f830aef	1.0237712
4	0x3f7121da	0.9419228
5	0x3f8e02c0	1.1094589
6	0x3f950a35	1.164374
7	0x3f52ff02	0.8242036
8	0x3f3fe583	0.7495958
9	0x3f8d9e38	1.106391
10	0x3f81b3d6	1.0133007
11	0x3f8c684c	1.0969329
12	0x3f92b4fb	1.1461481
13	0x3f8e4ffe	1.1118162
14	0x3f3b99fd	0.7328184
15	0x3f84b0ec	1.0366492

bn1.bias f4 [16]
0	0xbcf8e76f	-0.030383794
1	0xbcb22678	-0.021746859
2	0xbe0ffcf5	-0.14061339
3	0xbcba95ea	-0.022776563
4	0xbe5b9839	-0.21444787
5	0xbdb267f1	-0.087112315
6	0xbd4d5b5b	-0.05013595
7	0xbe1fe53e	-0.15614793
8	0xbe416d65	-0.18889387
9	0xbcb768ae	-0.022388782
10	0xbe86c5f3	-0.26322898
11	0xbda50c25	-0.08058957
12	0xbdabdbf1	-0.0839156
13	0xbdebaf59	-0.11508054
14	0xbe103cb6	-0.1408566
15	0xbd1aa3e0	-0.03775394

bn1.running_mean f4 [16]
0	0xbe6f719d	-0.23383184
1	0x3ca6255d	0.020281488
2	0x3e83a1a8	0.2570927
3	0xbde61c28	-0.11235839
4	0xbdadbf1b	-0.08483716
5	0x3ddf3098	0.108979404
6	0xbe313d3a	-0.17308512
7	0x3e4181c6	0.18897161
8	0xbe1470d8	-0.14496171
9	0xbbdd2be0	-0.006749615
10	0x3d9b432b	0.07581171
11	0xbe34f0f3	-0.1767004
12	0xbe3b42e3	-0.18287234
13	0xbe23c2ab	-0.15992229
14	0xbd1cbf79	-0.03826854
15	0x3db322f6	0.08746903

bn1.running_var f4 [16]
0	0x3d38f0e2	0.0451516
1	0x3d8d9454	0.06913057
2	0x3da58c49	0.08083398
3	0x3cf0829e	0.029359158
4	0x3d57452a	0.052556194
5	0x3d9eeb5a	0.077597335
6	0x3e17e522	0.14833501
7	0x3cfe2ed6	0.031028192
8	0x3cc492ea	0.023995835
9	0x3d5b5b3b	0.0535538
10	0x3d2b7f8e	0.041869693
11	0x3deadcf6	0.11467926
12	0x3e32d468	0.17463839
13	0x3de6d1e2	0.11270501
14	0x3d58ea62	0.0529579
15	0x3e2cf21e	0.16889235

conv2.weight f4 [32, 16, 5, 5]
0	0xbcd0da37	-0.025494678
1	0x3cdabf15	0.026702443
2	0xbc65c412	-0.014023798
3	0xbd87c52c	-0.066294044
4	0xbd2cbdcb	-0.04217319
5	0xbc72d200	-0.014820576
6	0x3d0df61d	0.03465854
7	0x3d61c480	0.055119038
8	0xbc8fa4ed	-0.017534697
9	0x3d6a208d	0.05715995
10	0xbba1bb26	-0.00493564
11	0xbcd949ff	-0.026524542
12	0x3c53a906	0.012918716
13	0x3c9c07e3	0.01904673
14	0xbc826e77	-0.015921814
15	0x3d2bbae8	0.041926295
16	0xbcc98f6a	-0.024604518
17	0x3ceffe7e	0.029296156
18	0xbc85ac53	-0.016317522
19	0x3ca7d07c	0.020485155
20	0xbc53c489	-0.012925276
21	0x3bb2374d	0.0054387213
22	0x3d06479b	0.032783132
23	0xbd28ce43	-0.04121233
24	0x3cc2e30e	0.023789909
25	0x3cc20e5f	0.023688493
26	0x3c5e5001	0.013568879
27	0xbd0e1492	-0.034687586
28	0xbbe07221	-0.0068495427
29	0xbd588165	-0.052857775
30	0xbc3b4cce	-0.011431886
31	0xbbb5c738	-0.0055474304
32	0xbc06f9bc	-0.008238252
33	0xbce4d998	-0.027935788
34	0xbcec65af	-0.02885708
35	0x3cbb65ef	0.022875754
36	0xbd5361ec	-0.051607057
37	0x3becd242	0.007227213
38	0xbd57add7	-0.05265602
39	0x3b8bd5af	0.0042674164
40	0xbc0ecb56	-0.008715471
41	0xbcc73bbd	-0.024320478
42	0xbc33d5d3	-0.010976273
43	0x3c55c4cf	0.013047411
44	0xbd5d29aa	-0.053994812
45	0xbc905e8f	-0.017623214
46	0x3caf56f6	0.02140377
47	0xbcc59329	-0.024118023
48	0xbd5691a5	-0.05238499
49	0xbcbf7585	-0.023371467
50	0x3ca54f20	0.020179331
51	0xbc09b695	-0.008405347
52	0x3cb41c16	0.021986049
53	0xbd30f2ab	-0.043200176
54	0xbcea7fb8	-0.028625354
55	0xbd536690	-0.051611483
56	0x3ccb059f	0.024782954
57	0xbc676526	-0.014123237
58	0xbd4cd1d9	-0.050004814
59	0x3da43358	0.080176055
60	0xbd7d02b8	-0.06177017
61	0x3d2537b7	0.040336337
62	0xbd580150	-0.052735627
63	0xbc94516e	-0.018105235
64	0x3d7fced0	0.06245309
65	0xbc35e7fb	-0.011102672
66	0xbd047436	-0.03233739
67	0xbcde408a	-0.027130384
68	0xbd4c26d0	-0.049841702
69	0x3d55ee29	0.05222908
70	0x3d4ee582	0.050511844
71	0x3b86e24a	0.004116331
72	0xbd120910	-0.035653174
73	0xbc10dd85	-0.008841877
74	0x3d8523b5	0.06500951
75	0xbc38c1b0	-0.011276647
76	0xbd1b33ad	-0.03789108
77	0x3cda4ab5	0.026646951
78	0xbc91e694	-0.017810144
79	0x3c91ed4f	0.017813353
80	0xbc9cec8e	-0.019155767
81	0xbcd41425	-0.025888512
82	0xbc8ffda3	-0.017576998
83	0x3d87b8eb	0.06627067
84	0xba82438a	-0.0009938341
85	0xbd89c654	-0.06727281
86	0xbc0de0bc	-0.008659538
87	0x3b223a07	0.0024753825
88	0xbd1e0265	-0.038576502
89	0xbce5f680	-0.028071642
90	0xbd7235c8	-0.05913332
91	0x3d26fb7f	0.04076719
92	0xbb4256fb	-0.0029653895
93	0x3cf1bdc3	0.02950943
94	0x3d54e262	0.051973708
95	0xbc6cfd95	-0.014464756
96	0xbd58813c	-0.052857623
97	0xbcdb4f22	-0.026771132
98	0x3c275324	0.010212693
99	0xbc1bd673	-0.009511578
100	0x3db7a3a5	0.089667596
101	0x3ca8087d	0.02051186
102	0xbc8c29be	-0.017109748
103	0xbd62cd31	-0.055371467
104	0x3c6417cb	0.013921688
105	0xbcd77f56	-0.026305836
106	0x3d903699	0.07041664
107	0x3d81e228	0.06341964
108	0xbc988122	-0.018616263
109	0xbd06acd5	-0.03287967
110	0x3d84d137	0.06485217
111	0x3d1411f6	0.03614994
112	0xbcbb2fcd	-0.022849942
113	0xbd8cd9dd	-0.068774916
114	0x3b5b8a19	0.003349906
115	0xbcb4a56e	-0.02205154
116	0x3d40398c	0.04692988
117	0xbbae0d94	-0.005311677
118	0xbc324648	-0.010881014
119	0xbcd7c31a	-0.026338149
120	0x3b2916b7	0.0025800893
121	0x3bec4aac	0.00721105
122	0xbd0a8827	-0.03382125
123	0xbcae9807	-0.021312727
124	0x3d4ff88b	0.05077414
125	0x3c042e5a	0.008067692
126	0xbd325cf7	-0.04354569
127	0x3c99edf2	0.018790219
128	0xbc86c6fb	-0.016452303
129	0x3cbcfcc3	0.023069745
130	0x3b01527f	0.001973301
131	0x3dd0c635	0.10194055
132	0x3d8c2a44	0.06843999
133	0x3d852050	0.06500304
134	0x3b9e0c5d	0.004823251
135	0xbce2a9ec	-0.027668916
136	0x3d1a309f	0.037644025
137	0xbd05863c	-0.03259872
138	0xbcdc6844	-0.026905186
139	0x3b05e4e8	0.0020430628
140	0xbcfc0b79	-0.03076719
141	0xbb4b8e97	-0.0031060332
142	0xbd1eef0d	-0.038802195
143	0xbd6f7fad	-0.05847137
144	0xbd499c6c	-0.04922144
145	0xbb6b8eb7	-0.003594322
146	0xbc8caa4a	-0.017171044
147	0x3c42deb0	0.011893913
148	0xbd997a52	-0.07494034
149	0xbcce76b8	-0.025203094
150	0x3d156c29	0.036480103
151	0x3d6c436c	0.057681486
152	0x3d017739	0.03160784
153	0xbd448130	-0.047974765
154	0xbcd0e181	-0.025498154
155	0x3b1f9b86	0.0024354174
156	0xbcce5d72	-0.025191043
157	0x3cb8e7a2	0.022571389
158	0xbd61d509	-0.055134807
159	0xbd103d56	-0.035214745
160	0xbd741a47	-0.059595373
161	0xbbe6604a	-0.0070305215
162	0x3d9dd41a	0.07706471
163	0x3ccc23df	0.024919448
164	0xbd7d78b0	-0.061882675
165	0x3d483469	0.048878107
166	0x3daed595	0.08536831
167	0x3d626769	0.0552744
168	0xbdb0ea12	-0.08638395
169	0xbca8f1b3	-0.020623064
170	0xbd96384c	-0.073349565
171	0xbbf13298	-0.0073607676
172	0xbd308f6d	-0.04310553
173	0xbd75f3b7	-0.060046878
174	0xbd8d1b86	-0.06890015
175	0x3cb64477	0.022249443
176	0x3d8d9b09	0.06914336
177	0x3d2db96a	0.042413153
178	0x3cd91ecf	0.026503948
179	0xbd2d1cfd	-0.042263974
180	0xbd033952	-0.032037087
181	0xbdad2232	-0.08453788
182	0xbc4d98d2	-0.012548642
183	0x3c0c20f3	0.008552778
184	0x3c67f26c	0.014156919
185	0xbd43b990	-0.047784388
186	0x3ccc5123	0.024941033
187	0xbd209200	-0.039201736
188	0x3d8b6e13	0.06808104
189	0x3d80d638	0.06290859
190	0x3c140163	0.009033534
191	0xbd7ddbac	-0.061977074
192	0x3b7f83b3	0.003898841
193	0x3ca39765	0.019969651
194	0x3df3910e	0.11892901
195	0x3d88d069	0.06680376
196	0xbd89d363	-0.06729772
197	0xbda9a5a1	-0.08283544
198	0x3b909ab0	0.0044129714
199	0x3bfdfc0e	0.0077509945
200	0x3d274385	0.040835876
201	0xbd5ef002	-0.054428108
202	0xbd288a70	-0.04114765
203	0x3c94b9f0	0.018155068
204	0xbd25f542	-0.0405171
205	0x3c41a384	0.01181877
206	0x3d3e3e30	0.046446025
207	0x3c310a49	0.010805675
208	0xbcbb12f4	-0.022836186
209	0xbd1ee916	-0.038796507
210	0xbc9ba3c5	-0.01899899
211	0x3cc59be8	0.024122193
212	0xbd86d1fd	-0.06583021
213	0xbd0f74be	-0.035023443
214	0x3c59dc35	0.01329713
215	0x3d5c4e20	0.053785443
216	0x3bc69f70	0.006061487
217	0xbd39ad31	-0.045331184
218	0xbb9ce4e5	-0.0047880285
219	0x3ac9c76b	0.0015394514
220	0x3ccd53eb	0.02506443
221	0x3b6f23a1	0.0036489742
222	0xbbba94ac	-0.0056939926
223	0xba84d33e	-0.0010133756
224	0xbc78cec4	-0.0151860155
225	0xbd594162	-0.05304087
226	0xbb802ff3	-0.003911966
227	0x3c80bbfa	0.015714634
228	0xbc2c3d22	-0.010512622
229	0xbd364e9c	-0.04450856
230	0x3dbc1a82	0.091847435
231	0x3e00908f	0.12555145
232	0x3d18ad75	0.037274797
233	0x3c8adc4d	0.01695075
234	0xbce07149	-0.027397769
235	0x3d70b989	0.05877069
236	0x3d35dde5	0.04440107
237	0x3c867205	0.01641179
238	0xbca641e2	-0.020295087
239	0x3c9321bb	0.01796042
240	0x3d8bef46	0.06832747
241	0xbd35b10b	-0.044358294
242	0xbca68019	-0.020324754
243	0x3ca7a404	0.020463951
244	0x3c41e41a	0.011834169
245	0xbda7076e	-0.08155714
246	0xbd23d705	-0.03999998
247	0xbc80e713	-0.015735185
248	0xbd3e4d11	-0.046460215
249	0x3d470d35	0.04859658
250	0xbbc144f9	-0.0058981148
251	0xbd114449	-0.035465512
252	0xbd120d48	-0.035657197
253	0xbcefee09	-0.029288309
254	0x3d63a67e	0.0555787
255	0x3d2e41d7	0.04254326

conv2.bias f4 [32]
0	0xbc6a82a0	-0.01431337
1	0x3c2c3714	0.0105111785
2	0xbd462d8b	-0.048383277
3	0xbd06079a	-0.032722093
4	0x3d401171	0.046891633
5	0xbd3adf67	-0.04562321
6	0x3c2dde0c	0.010612022
7	0x3d37df79	0.044890855
8	0x3c7b9ff4	0.01535796
9	0x3d3a3465	0.045460124
10	0xbd392ded	-0.045209814
11	0xbcd57d33	-0.026060676
12	0x3b156a80	0.0022799075
13	0x3d180b8b	0.037120383
14	0x3d2f1add	0.04275023
15	0x3c152b00	0.00910449
16	0xbb9e3bc0	-0.0048289
17	0xbc8f80d4	-0.017517485
18	0x3d2b0311	0.04175097
19	0x3b870830	0.004120849
20	0x3cc1de96	0.023665708
21	0xbc128154	-0.008941967
22	0x3c7e874c	0.015535187
23	0xbcaca563	-0.021074956
24	0x3cfd033a	0.030885328
25	0xbcc7e71d	-0.024402196
26	0x3cdca652	0.026934776
27	0xbd02ec50	-0.031963646
28	0xbcee2a2a	-0.02907284
29	0xbcd9ae1d	-0.026572281
30	0x3ce8e062	0.028427307
31	0x3ce41cca	0.027845759

bn2.weight f4 [32]
0	0x3f8649f4	1.0491319
1	0x3f8ef22b	1.1167654
2	0x3f8d9688	1.1061563
3	0x3f90bd53	1.1307777
4	0x3f92f60f	1.1481341
5	0x3f994ad5	1.1975962
6	0x3f900d09	1.1253978
7	0x3f908493	1.1290458
8	0x3f9a436e	1.2051828
9	0x3f92cfc9	1.1469661
10	0x3f932cd9	1.1498061
11	0x3f8b5f36	1.0888431
12	0x3f81a828	1.0129442
13	0x3f93abc9	1.15368
14	0x3f9a0c17	1.203494
15	0x3f90609e	1.1279485
16	0x3f929490	1.1451588
17	0x3f87df37	1.0614995
18	0x3f87d269	1.0611087
19	0x3f97a259	1.184642
20	0x3f8ebcd3	1.1151375
21	0x3f8b0c15	1.0863062
22	0x3f9954df	1.1979026
23	0x3f9218b9	1.1413795
24	0x3f9290a2	1.1450388
25	0x3f8dcb09	1.1077586
26	0x3f8ef5e3	1.1168789
27	0x3f986c27	1.1908005
28	0x3f8f8d4a	1.1214993
29	0x3f920dac	1.1410422
30	0x3f91cd42	1.1390765
31	0x3f970bdf	1.1800498

bn2.bias f4 [32]
0	0xbe0dd14a	-0.13849369
1	0xbddca0de	-0.107728705
2	0xbe077156	-0.13226828
3	0xbdf7f336	-0.12106936
4	0xbdf02752	-0.1172625
5	0xbe26a671	-0.1627443
6	0xbe0dc37c	-0.13844103
7	0xbe011d80	-0.1260891
8	0xbdd873ef	-0.105689876
9	0xbdecce5b	-0.11562797
10	0xbdb4cc05	-0.08827976
11	0xbe195871	-0.14975144
12	0xbddd4c42	-0.10805561
13	0xbded7ebf	-0.115964405
14	0xbdf83b09	-0.12120635
15	0xbdf3516c	-0.11880764
16	0xbdef61c2	-0.11688568
17	0xbe0093ab	-0.12556331
18	0xbdeeb8ec	-0.11656365
19	0xbdf1f779	-0.1181478
20	0xbe1a2306	-0.15052423
21	0xbdad58f7	-0.08464234
22	0xbdd73f1a	-0.105100825
23	0xbe15bfe9	-0.14623989
24	0xbe04f890	-0.12985444
25	0xbe169d64	-0.14708477
26	0xbda498d9	-0.08036966
27	0xbd73b930	-0.05950278
28	0xbe208dca	-0.15679088
29	0xbe010375	-0.12598975
30	0xbdd04edf	-0.101712935
31	0xbda2c716	-0.07948129

bn2.running_mean f4 [32]
0	0xbea10f38	-0.31456923
1	0x3f73fba1	0.9530583
2	0xbf09edab	-0.5387828
3	0xbf0f9a4f	-0.5609483
4	0xbc95278b	-0.018207332
5	0xbf5d8a05	-0.86538726
6	0xbe5ff279	-0.2186984
7	0xbef29d39	-0.47385576
8	0x3e6887e3	0.22708087
9	0x3f3b5aee	0.7318562
10	0x3f0de0c7	0.5542111
11	0xbeb0919e	-0.34486097
12	0x3e2e8ec1	0.17046644
13	0xbeb62714	-0.3557669
14	0xbe30ad1d	-0.17253537
15	0x3d5734de	0.052540652
16	0x3f26620b	0.6499335
17	0xbe23b3cb	-0.15986554
18	0xbd02b177	-0.031907525
19	0x3efdf403	0.4960023
20	0xbec52310	-0.38503313
21	0xbeba281f	-0.36358735
22	0xba50d38f	-0.0007966095
23	0xbf05fa92	-0.52335465
24	0xbf27393b	-0.653217
25	0xbf3a4ac9	-0.72770363
26	0xbe0c856d	-0.13722773
27	0xbea4800b	-0.3212894
28	0x3d2e1a8d	0.04250579
29	0xbeb305b0	-0.34965277
30	0xbd8fe1fb	-0.07025524
31	0xbe99ad61	-0.3001509

bn2.running_var f4 [32]
0	0x3ef657e9	0.48113945
1	0x3f2406f7	0.6407313
2	0x3f091253	0.53543586
3	0x3ef00ddd	0.46885577
4	0x3f167997	0.5877928
5	0x3f1424b4	0.57868505
6	0x3ef0c491	0.47024968
7	0x3f2af272	0.6677619
8	0x3f225f7b	0.6342694
9	0x3f58c67f	0.8467788
10	0x3f321e2f	0.69577307
11	0x3efa525c	0.4889096
12	0x3e91c1b0	0.28468084
13	0x3f19f807	0.60144085
14	0x3f919b3a	1.1375496
15	0x3f10c94b	0.5655715
16	0x3ef3a9b6	0.47590417
17	0x3eda8737	0.42681286
18	0x3efc9bf8	0.49337745
19	0x3f4644ea	0.77448905
20	0x3f55a345	0.83452255
21	0x3f197abc	0.599529
22	0x3f3cdf3e	0.7377814
23	0x3f085f7a	0.53270686
24	0x3edef44b	0.43545756
25	0x3ef067d5	0.46954218
26	0x3ee90bdc	0.4551686
27	0x3f4b8dc5	0.795132
28	0x3f09591c	0.53651595
29	0x3f27aa8d	0.65494615
30	0x3f4e1414	0.80499387
31	0x3f258be2	0.6466657

fc1.weight f4 [128, 1568]
0	0x3c7bb907	0.015363938
1	0xbc962948	-0.018330231
2	0xbbdc046a	-0.0067143934
3	0xbb5fe6c3	-0.0034164644
4	0x3cb03003	0.021507269
5	0xbbaf31ea	-0.0053465264
6	0xbc61ced8	-0.013782226
7	0x3bb3b1ca	0.0054838406
8	0xbc5ba1d6	-0.013405284
9	0xbc35f3a3	-0.011105451
10	0xbc556b30	-0.013026044
11	0x3c444e74	0.011981595
12	0x3cb06113	0.021530664
13	0x3c727295	0.014797826
14	0x3c594d07	0.013262994
15	0x3c861322	0.016366545
16	0x3cc94b7c	0.024572127
17	0xbbc13216	-0.0058958633
18	0x3c84f3ac	0.016229473
19	0x3c0d6b39	0.008631521
20	0x3c8edb49	0.017438548
21	0x3c1f5e64	0.009727094
22	0x3c826be5	0.015920589
23	0xbcac6cd6	-0.02104799
24	0xbcb077e6	-0.021541547
25	0xbcac8628	-0.021060064
26	0x3c64b5f1	0.013959394
27	0x3cb15ac8	0.021649733
28	0x3c3e6b4b	0.01162226
29	0x3c65b616	0.014020463
30	0xbb1d3747	-0.0023989247
31	0xbcd4b7ab	-0.025966486
32	0x3c98664b	0.018603465
33	0x3be7176f	0.007052354
34	0x3cb22a12	0.021748576
35	0xbc6d9e5c	-0.014503088
36	0x3ca2d674	0.01987765
37	0xbcceeeb0	-0.0252603
38	0x3c8222c4	0.015885718
39	0xbc58ff82	-0.013244512
40	0xbbfd3f3a	-0.0077284845
41	0x3c9e3424	0.019311972
42	0x3ca9fc65	0.020750234
43	0xbc805890	-0.01566723
44	0xbc02a9be	-0.00797504
45	0x3c673fce	0.014114333
46	0xbc2fe9ef	-0.010736926
47	0x3c0a403b	0.008438165
48	0xbcb52b95	-0.022115508
49	0x3c9cf118	0.019157931
50	0x3c5054e3	0.012715551
51	0x3c1e3be7	0.0096578365
52	0xbc6d1302	-0.014469864
53	0xbcc16fdb	-0.023612907
54	0x3c937bb6	0.018003326
55	0xbbb9b0c1	-0.0056668227
56	0x3c649d3a	0.013953501
57	0x3c31110c	0.010807287
58	0x3c05c933	0.008165645
59	0x3c3e9337	0.011631778
60	0xbb8bc96c	-0.0042659547
61	0xbac8dd25	-0.0015324695
62	0xbcba3e2b	-0.022734722
63	0xbcb5c5bb	-0.022189012
64	0xbc015188	-0.007892974
65	0x3c29099b	0.0103172315
66	0x3c960c6e	0.018316474
67	0x3b6d7181	0.0036230984
68	0x3c285731	0.010274694
69	0x3c5939a3	0.013258371
70	0x3c812e5f	0.015769182
71	0x3c540745	0.012941186
72	0xb9df0c45	-0.00042543016
73	0xbaee84c9	-0.0018197532
74	0x3c64e012	0.013969438
75	0xbcc9a194	-0.02461318
76	0x3b91e728	0.004452605
77	0x3bb1084e	0.0054026013
78	0x3cc1c496	0.02365331
79	0xbccb4d6d	-0.024817193
80	0xbc187bcd	-0.00930686
81	0xbc59dbcd	-0.0132970335
82	0xbcb72108	-0.022354618
83	0x3c89817f	0.016785381
84	0xbc40fbfa	-0.011778826
85	0xbc81b03d	-0.015831107
86	0xbcc9ea93	-0.024647987
87	0x38157ed5	3.564249e-05
88	0xbcad8f55	-0.02118651
89	0x3b9a5952	0.004710355
90	0xbbcc0557	-0.0062262225
91	0x3add7bee	0.0016897896
92	0xbc92b403	-0.017908102
93	0xbc863cc1	-0.016386392
94	0x3bedc4a0	0.0072561055
95	0xbcd031f7	-0.02541445
96	0x3ba28ed6	0.004960875
97	0x3c8f5200	0.017495155
98	0x3cadc5f3	0.021212554
99	0x3c66e2b3	0.014092135
100	0xbc867f55	-0.016418139
101	0x3c9aec6b	0.018911561
102	0x3b8d4f20	0.004312411
103	0xbcaa4f32	-0.020789716
104	0x3c8fee4e	0.017569687
105	0x3907fa4b	0.00012967845
106	0xbbdf6527	-0.006817478
107	0xbcb2b9d5	-0.021817127
108	0xbc16ffd4	-0.009216268
109	0xbc199689	-0.009374269
110	0xbad3daff	-0.0016163288
111	0x3b915081	0.0044346456
112	0xbb994866	-0.00467782
113	0xbc540abb	-0.0129420115
114	0xbc089cd5	-0.008338173
115	0x3a3dd191	0.00072410057
116	0x3c689ea0	0.014197975
117	0xbcabad74	-0.020956732
118	0xbb19415e	-0.002338491
119	0xbcce8cb7	-0.025213582
120	0xbc31b731	-0.010846899
121	0xbc303c7b	-0.010756607
122	0x3bb6d04e	0.005579031
123	0x3c8be563	0.017077154
124	0x3bbe4133	0.005806112
125	0x3c56e26c	0.013115507
126	0xbc548125	-0.012970244
127	0xbc404950	-0.011736229
128	0xb981fa20	-0.00024791155
129	0xbc647868	-0.013944723
130	0xbc94a10e	-0.018143203
131	0xbc85dcfb	-0.016340723
132	0x3b1788db	0.0023122344
133	0x3c84ce4c	0.016211651
134	0xbc9a3f6b	-0.018829068
135	0xbc87acbf	-0.016561864
136	0xbba5d8e7	-0.005061257
137	0x3b83ea0d	0.0040257038
138	0x3acf5ffa	0.001582145
139	0xbb0f2d9c	-0.0021847254
140	0x3c8ad6df	0.016948162
141	0xb974ae31	-0.00023334545
142	0x3cb475ce	0.02202883
143	0x3b2cf918	0.0026393589
144	0x3b24ccb1	0.002514642
145	0xbcc8259c	-0.024431996
146	0xbca1ce02	-0.019751552
147	0x3bc232b1	0.005926453
148	0x3bc58ce1	0.006028757
149	0x3b000582	0.0019534533
150	0xbcb5a1c9	-0.022171872
151	0x3c7694bb	0.015050109
152	0xbc67eb5b	-0.014155234
153	0x3c8b6f68	0.017020896
154	0xba903d43	-0.0011004586
155	0x3c1f5bd4	0.009726483
156	0xbca0a016	-0.019607585
157	0xbc911cc6	-0.017713916
158	0x3b168895	0.0022969593
159	0xbc311773	-0.010808813
160	0x3c5806bb	0.013185198
161	0xbbc80f80	-0.0061053634
162	0xbbfd042b	-0.007721444
163	0x3ab1eacf	0.0013574007
164	0x3cb70b35	0.022344211
165	0xbc95f0e1	-0.018303337
166	0xbbc1c03a	-0.005912808
167	0xbc3ea86a	-0.011636833
168	0xbcb63940	-0.022244096
169	0x3b9da1e7	0.00481056
170	0x3cc4f900	0.024044514
171	0xbc178c47	-0.009249753
172	0x3ca26cf3	0.019827342
173	0xbc859a44	-0.016308911
174	0xbcbf9224	-0.023385115
175	0xbc80d025	-0.015724251
176	0xbc7b938f	-0.015355005
177	0x3be735c2	0.007055969
178	0x3c8415d9	0.016123699
179	0x3cc41abd	0.023938531
180	0xbcb125e7	-0.021624519
181	0xbc9f01d5	-0.019410053
182	0xbb88af81	-0.0041713123
183	0xb992da46	-0.00028009916
184	0xbcce6c74	-0.025198199
185	0xbbe1e005	-0.0068931603
186	0xbc5aa1cd	-0.01334424
187	0xbc020142	-0.00793487
188	0xbbd76292	-0.00657303
189	0x3b1eeedc	0.0024251258
190	0xbccad8d6	-0.024761599
191	0x3bb595d5	0.005541543
192	0x3c61ed14	0.013789434
193	0xbc86c5b8	-0.016451702
194	0x3bf22a93	0.007390329
195	0x3a20b1c3	0.0006130004
196	0x3c24be6a	0.010055164
197	0x3c42e8c7	0.011896319
198	0x3c1c100e	0.009525312
199	0xbc19638c	-0.009362113
200	0xbcc2b5ee	-0.023768391
201	0xbb80b6ff	-0.003928065
202	0xbbb74c0e	-0.005593783
203	0x3c2ddbd1	0.01061149
204	0xbc75d2f0	-0.015003905
205	0x3bdb39e4	0.0066902507
206	0x3c16ee0d	0.009212029
207	0x3bd1fae9	0.0064080846
208	0xbb818eee	-0.003953806
209	0xbbb9b7a4	-0.0056676436
210	0x3b92cdc0	0.0044800937
211	0xbc88d943	-0.016705161
212	0xbb7f8bc9	-0.003899323
213	0x3c1e6fdc	0.009670224
214	0x3cb80019	0.022460984
215	0x3adaf102	0.0016703906
216	0xbc9fd6eb	-0.01951166
217	0x3c803036	0.015647989
218	0xbc5f8007	-0.013641364
219	0xbc11da86	-0.008902198
220	0xbc7fb962	-0.015608164
221	0x3c46ef9d	0.012142089
222	0x3c997af3	0.018735385
223	0x3caa93db	0.020822456
224	0x3cbe9dbb	0.023268571
225	0x3c20069d	0.009767202
226	0xbc6125ea	-0.01374195
227	0xbaeff8d3	-0.0018308408
228	0xbc9c342f	-0.019067852
229	0x3be9d713	0.0071362345
230	0xbc8b5d7f	-0.017012356
231	0xbbd7b886	-0.006583276
232	0xbc8b8d13	-0.017035043
233	0x3c42ee40	0.011897624
234	0x3caa76a2	0.020808522
235	0xbc682950	-0.014170006
236	0xbbf85ddd	-0.0075795488
237	0xbbbe7792	-0.0058125937
238	0x3a09dd2e	0.00052590936
239	0xbb01a73e	-0.0019783522
240	0xbc363e51	-0.011123256
241	0xbb111025	-0.0022134867
242	0x3c8ebe0d	0.017424608
243	0xbbf8b421	-0.0075898324
244	0x3b860bd5	0.004090766
245	0x3c480186	0.0122073945
246	0xbc35215e	-0.011055319
247	0x3bc49933	0.005999708
248	0xba3ef373	-0.00072842016
249	0xbc0d3099	-0.008617544
250	0x3ba75a05	0.0051071667
251	0x3bb8e291	0.005642243
252	0x3c4b94af	0.012425586
253	0xbc7cfb01	-0.015440703
254	0x3c82d1bc	0.01596915
255	0xbc155bbd	-0.00911611

fc1.bias f4 [128]
0	0x3b3a2f81	0.0028409662
1	0x3cb7b116	0.022423308
2	0xbb1659e2	-0.0022941758
3	0x3cb6d27a	0.02231716
4	0xbc43bba0	-0.011946589
5	0xbca59bd2	-0.020215902
6	0x3c4dd9d7	0.012564144
7	0x3c033b07	0.008009679
8	0x3c0fc66f	0.008775338
9	0xbb0c55f0	-0.0021413527
10	0xbc2cc05e	-0.010543911
11	0xbc8f36c5	-0.01748217
12	0x3a44b633	0.00075039564
13	0x3ce6a1fe	0.028153416
14	0x3c394044	0.011306826
15	0x3cb552ad	0.02213415
16	0xbcb4b586	-0.022059213
17	0xbc44e893	-0.012018341
18	0x3c900dfd	0.017584795
19	0x3c81d937	0.015850646
20	0x3c32cd61	0.010913224
21	0xbc2c59f7	-0.010519496
22	0x3c8de6c6	0.017321955
23	0xbbcb465f	-0.0062034572
24	0x3c6bb0b3	0.01438539
25	0x3c417ab5	0.011809041
26	0x3cf7d121	0.030251088
27	0x3c29cd77	0.010363928
28	0xbb05104b	-0.00203039
29	0xbc9c1df9	-0.01905726
30	0xbb5c8bb0	-0.0033652596
31	0x3d02f97b	0.031976204
32	0x3ce1e6ce	0.027575877
33	0xbc614fb3	-0.013751912
34	0xbbab85f3	-0.005234474
35	0x3b550a00	0.0032507181
36	0xbc9d52d3	-0.019204533
37	0x3bf7661f	0.0075500156
38	0x3bef87e5	0.007309901
39	0x3cb563cb	0.022142312
40	0xbc8704a0	-0.016481698
41	0xbba861c4	-0.0051386077
42	0x3c021a45	0.007940833
43	0x3ca3072c	0.01990088
44	0x3b474de8	0.0030411426
45	0x3c671733	0.014104652
46	0x3c7373e3	0.0148591725
47	0xb98abd07	-0.00026462247
48	0x3c2e4d31	0.010638521
49	0x3c5df41c	0.01354697
50	0x3c5ca698	0.013467453
51	0x3c47d89b	0.012197639
52	0x3c978a8a	0.018498678
53	0x3caf91e1	0.021431865
54	0xbc404636	-0.01173549
55	0x3a68b881	0.0008877591
56	0xbc67a357	-0.014138064
57	0xbc34edec	-0.011043053
58	0xbcc3ef4d	-0.023917818
59	0xbaa1e03f	-0.0012350156
60	0xbcac8fa9	-0.021064596
61	0x3c60dfd4	0.01372524
62	0xbc28564e	-0.010274483
63	0x3c2099f9	0.009802335
64	0x3c4302cc	0.011902522
65	0x3cc1e72b	0.0236698
66	0x3aa3015d	0.0012436319
67	0x3c1994b5	0.009373833
68	0xbbf5efa8	-0.007505376
69	0xbcf0fc60	-0.029417217
70	0xbc2fdcac	-0.010733765
71	0xbbeaec5b	-0.007169289
72	0xbad69452	-0.0016371107
73	0xbaae2014	-0.0013284707
74	0xbc73f8e3	-0.014890882
75	0xbbac8fa0	-0.005266145
76	0xbca83479	-0.020532833
77	0xbc9d6bc5	-0.019216428
78	0xbba19144	-0.004930647
79	0x3c24dee6	0.010062909
80	0x3c4e51c8	0.01259274
81	0x3ba697ff	0.0050840373
82	0x3c668ea1	0.014072091
83	0xbc40c921	-0.011766703
84	0x3b966348	0.004589472
85	0x3beb5397	0.0071815955
86	0x39991c27	0.0002920341
87	0x3c1600db	0.009155477
88	0x3b3556c7	0.0027670132
89	0x3a82228c	0.0009928509
90	0x3ad73277	0.0016418238
91	0x3ca4ad64	0.02010221
92	0xbb7fc62b	-0.003902803
93	0x3c281459	0.0102587575
94	0x3c72e1a8	0.014824308
95	0x3ca6bfcf	0.020355133
96	0xbc96f57c	-0.018427603
97	0x3c3bc9d8	0.0114616975
98	0xbbc18de8	-0.005906809
99	0x3cdcbf7b	0.026946774
100	0xbc9959dc	-0.018719606
101	0xbbca80dd	-0.0061799125
102	0xbaee9845	-0.0018203339
103	0xbc64b641	-0.013959468
104	0x3bb67120	0.005567685
105	0xbcf7e2dc	-0.030259542
106	0x3c96bdcf	0.018401055
107	0xbc983f0a	-0.018584747
108	0xbb7f6e07	-0.0038975494
109	0xbb3ed4c4	-0.0029118517
110	0x3b00c166	0.0019646524
111	0x3a0674e5	0.0005129113
112	0x3cef8757	0.02923934
113	0x3c001563	0.007817599
114	0xbbc676d6	-0.006056647
115	0xbc01f462	-0.007931801
116	0x3b87e2ff	0.004146933
117	0xbc94fc38	-0.018186674
118	0x3cb6dec1	0.022323014
119	0xbcaa58b9	-0.02079426
120	0x3b2ca1db	0.002634159
121	0x3ba1ee3f	0.004941731
122	0x3b80d623	0.003931777
123	0xbcf34a4b	-0.029698512
124	0x3b0a8402	0.0021135812
125	0xb92b902a	-0.00016361536
126	0x3b97200e	0.0046119755
127	0x3cda4252	0.026642952

fc2.weight f4 [64, 128]
0	0x3da788b2	0.081803694
1	0xbcdd48b9	-0.027012216
2	0x3cc9a328	0.024613932
3	0x3d3cb79e	0.04607355
4	0x3e4fc8d4	0.20291454
5	0xbd7426bd	-0.059607256
6	0xbbabc48b	-0.0052419356
7	0xbd01d140	-0.031693697
8	0xbde9b210	-0.11410916
9	0x3ca69536	0.020334821
10	0x3cfb16d0	0.030650526
11	0x3d385d0b	0.045010608
12	0xbe02b125	-0.12762888
13	0x3e57a8cd	0.21060486
14	0xba4c22f7	-0.00077871926
15	0xbc8d489e	-0.01724654
16	0xbd7ba822	-0.06143964
17	0x3db8a557	0.09015911
18	0xbd5e2c41	-0.054241423
19	0xbd409a52	-0.04702217
20	0xbbd28d8a	-0.006425564
21	0xbd4a80b8	-0.049439162
22	0x3dc59b1c	0.096487254
23	0x3e10106a	0.14068761
24	0xbd296e7d	-0.041365135
25	0xbd029b99	-0.03188667
26	0x3df75944	0.12077573
27	0xbd303eaf	-0.04302853
28	0x3d02a457	0.031895008
29	0x3d2044d6	0.039128147
30	0x3cdcde31	0.026961418
31	0xbcdeb3f4	-0.027185418
32	0xbd1b9636	-0.03798505
33	0x3c4dbf7b	0.0125578595
34	0xbdc990c7	-0.09842067
35	0x3d21ad1b	0.039471727
36	0xbd182a67	-0.037149813
37	0xbd46610d	-0.0484324
38	0x3ca50b08	0.020146862
39	0xbd259a8a	-0.040430583
40	0x3dff2a26	0.12459211
41	0x3d8c1d1e	0.06841491
42	0x3d019cbb	0.03164361
43	0xbd3f74f9	-0.046742413
44	0x3d03b189	0.032151733
45	0xbd92487b	-0.07142731
46	0xbc0ad10d	-0.008472693
47	0xbbfd1d9d	-0.0077244774
48	0xbd5c3ed2	-0.053770848
49	0xbdc9a494	-0.09845844
50	0xbd887f33	-0.06664886
51	0xbd5e05b8	-0.054204673
52	0x3e1e28fe	0.15445325
53	0x3d10e298	0.035372347
54	0x3df490a9	0.11941654
55	0xbda64e14	-0.08120361
56	0x3c9e9724	0.019359179
57	0x3e0c80ab	0.13720958
58	0x3cd13d9f	0.025542079
59	0x3d95c7a2	0.073134676
60	0xbd89cc8f	-0.067284696
61	0x3d6b2022	0.05740369
62	0xbd962113	-0.07330527
63	0xbd3d5ae5	-0.046229262
64	0x3da796ea	0.081830814
65	0x3cb2346a	0.021753509
66	0x3d904535	0.0704445
67	0xbcd8ec21	-0.026479783
68	0x3d813601	0.063091286
69	0xbd951512	-0.072794095
70	0xbdd18a8e	-0.10231505
71	0x3c017668	0.007901765
72	0xbda47333	-0.08029785
73	0x3c9a972c	0.018870912
74	0xbd959202	-0.073032394
75	0x3ad46304	0.0016203825
76	0xbd078b09	-0.03309158
77	0x3e07d207	0.13263713
78	0xbd881ab4	-0.06645718
79	0x3d8df75d	0.069319464
80	0x3d86a171	0.06573761
81	0x3ccc46b2	0.024936054
82	0xbc6f2609	-0.014596471
83	0xbd0e3e76	-0.034727536
84	0x3d8cb74d	0.06870899
85	0x3d501de4	0.050809756
86	0x3c1c43bd	0.009537634
87	0x3c614074	0.013748277
88	0x3d1e3312	0.038622923
89	0xbdedd56e	-0.11612974
90	0xbcbb21ab	-0.022843203
91	0xbd74c561	-0.059758548
92	0x3d826ee4	0.06368807
93	0xbc6df554	-0.014523823
94	0xbdede5aa	-0.116160706
95	0xbe08e519	-0.13368644
96	0x3d89d710	0.06730473
97	0x3d6643d4	0.05621703
98	0x3e6ed9e4	0.23325306
99	0x3d238043	0.03991724
100	0x3d85ffe5	0.06542949
101	0xbd2d35e0	-0.042287707
102	0xbd2b4257	-0.041811313
103	0xbd1ff492	-0.0390516
104	0xbcb83aae	-0.022488918
105	0x3da78580	0.0817976
106	0xbdbaedce	-0.09127389
107	0x3d669bfb	0.0563011
108	0x3d0a0706	0.033698104
109	0xbd2ee9aa	-0.04270331
110	0x3db6343d	0.088966824
111	0x3c929ec1	0.017897965
112	0x3d987644	0.074444324
113	0xbad4abb9	-0.0016225494
114	0x3e396489	0.18104757
115	0xbdc0faf6	-0.09422867
116	0x39da4bba	0.0004163662
117	0xbc737a2b	-0.01486067
118	0xbd76e418	-0.06027612
119	0x3de4c0b1	0.111695655
120	0x3c490edb	0.012271608
121	0xbd9dc7fb	-0.07704159
122	0x3d8ccdb5	0.06875173
123	0xbd16ba14	-0.03679855
124	0xbd44729a	-0.047960855
125	0x3d8ae62c	0.06782183
126	0xbe38b806	-0.1803895
127	0x3cdabcfe	0.026701447
128	0x3c816321	0.015794339
129	0xbdaac14b	-0.08337649
130	0x3d0f50cb	0.03498916
131	0xbdaafe93	-0.083493374
132	0xbd943559	-0.07236738
133	0xbd068ad0	-0.032847226
134	0x3d788821	0.060676698
135	0x3ce51489	0.027963893
136	0xbd6a262b	-0.057165306
137	0xbd96eb22	-0.07369067
138	0xbde0ab8a	-0.109702185
139	0xbd0b429f	-0.03399908
140	0x3d6083ef	0.05481332
141	0x3d899104	0.06717113
142	0xbcfb5797	-0.030681415
143	0x3ceb811d	0.02874809
144	0x3d9bda91	0.076100476
145	0xbe08996c	-0.13339776
146	0xbbd92e9e	-0.0066278717
147	0x3dcf1d35	0.10112993
148	0xbc4cc597	-0.012498281
149	0x3ddaaa35	0.10676996
150	0xbd48b7d9	-0.049003456
151	0xbd98980b	-0.07450875
152	0x3ca52f57	0.020164175
153	0xbd655f4e	-0.055999093
154	0xbdc38da3	-0.095484994
155	0x3d6ccd78	0.057813138
156	0xbd89b06c	-0.06723103
157	0xbcbaf621	-0.022822442
158	0x3d329395	0.043597776
159	0xbd696ac6	-0.056986593
160	0xbdbd4ba7	-0.09242945
161	0xbcb6ab1b	-0.022298386
162	0x3d85ca15	0.06532685
163	0x3e13b5d7	0.14424835
164	0x3d3ffb73	0.04687066
165	0xbdc303b5	-0.095221914
166	0x3d43d734	0.047812656
167	0xbd29b14f	-0.04142886
168	0xbde0fb85	-0.109854735
169	0x3dec6880	0.11543369
170	0xbc95588a	-0.018230695
171	0xbcfae334	-0.030625917
172	0x3dc1e1e2	0.09466912
173	0x3da5bd53	0.08092751
174	0xbdaf3166	-0.08554344
175	0xbd953e5f	-0.07287287
176	0x3d80e34e	0.06293355
177	0xbd0c79eb	-0.034295958
178	0x3d316d81	0.04331732
179	0xbdad24af	-0.084542625
180	0xbd412640	-0.04715562
181	0x3d48df1b	0.049040895
182	0xbddee23c	-0.108829945
183	0xbb005bff	-0.0019586084
184	0xbdb5215d	-0.08844254
185	0x3bd601e1	0.0065309857
186	0x3d9a69da	0.07539721
187	0xbda633d0	-0.08115351
188	0x3db87df5	0.090083994
189	0x3beffe54	0.0073240194
190	0x3da52887	0.080643706
191	0xbdc8c8b0	-0.09803903
192	0xbd41d095	-0.04731806
193	0xbd23d658	-0.039999336
194	0xbcc64428	-0.024202421
195	0xbd8ada38	-0.06779903
196	0xbdb066ed	-0.086133815
197	0x3da1d745	0.079023875
198	0xbbefff85	-0.0073241615
199	0xbcabe67f	-0.020983933
200	0x3d0295d3	0.031881165
201	0x3cbf2885	0.02333475
202	0x3dd61230	0.10452688
203	0x3d782bee	0.06058877
204	0x3d6caa22	0.05777944
205	0x3db98e6f	0.0906037
206	0x3df3e9cf	0.1190983
207	0x3db97ab8	0.0905661
208	0xbba20a94	-0.0049451087
209	0x3bfb5b47	0.007670793
210	0x3cfa7970	0.030575484
211	0xbdb1cfee	-0.086822376
212	0x3d9c7e3f	0.07641267
213	0x3cbd1421	0.023080887
214	0xbda8549b	-0.08219262
215	0x3c14cc35	0.00908189
216	0x3cc3e479	0.023912655
217	0xbd12c370	-0.035830915
218	0xbd7c6564	-0.06162013
219	0xbb39305c	-0.0028257584
220	0xbce63db2	-0.02810559
221	0x3d08ab4e	0.033366494
222	0x3da3ac56	0.07991855
223	0xbddc4324	-0.107549936
224	0xbc018d4f	-0.007907226
225	0xbc0bf7a4	-0.008542929
226	0xbdfe3544	-0.12412503
227	0x3d85cf43	0.06533673
228	0xbd8dfdfb	-0.069332086
229	0xbcb1aa7c	-0.021687739
230	0xbd83e68a	-0.06440456
231	0x3d66a755	0.056311924
232	0xbcc3dba7	-0.02390845
233	0x3da5e087	0.08099466
234	0x3ced7e0f	0.028990773
235	0xbba2ffba	-0.0049743326
236	0x3da28d83	0.079371475
237	0x3da6fe38	0.08153957
238	0x3da18700	0.07887077
239	0x3da545b3	0.08069935
240	0x3c24f51a	0.010068202
241	0x3d9c4da3	0.076319955
242	0xbc8cd7cd	-0.017192746
243	0x3ca6c2cb	0.020356556
244	0xbcc3d3e3	-0.023904746
245	0x3da84f12	0.082182065
246	0x3dcfd4f4	0.101480395
247	0x3d3c104c	0.04591398
248	0xbc1025f5	-0.008798112
249	0x3c4c4673	0.012467968
250	0x3b81e84b	0.003964459
251	0x3c0455d1	0.008077101
252	0x3dd03397	0.1016609
253	0x3cefc588	0.029268995
254	0x3e049371	0.1294687
255	0xbc84d96d	-0.016216958

fc2.bias f4 [64]
0	0x3db0f12e	0.086397514
1	0xbd5b9a20	-0.053613782
2	0xbd6539fd	-0.055963505
3	0xbda8105a	-0.08206244
4	0xbd00c052	-0.03143341
5	0x3b1d7bc8	0.0024030078
6	0x3d630f02	0.055434234
7	0xbd777bd4	-0.060420826
8	0x3db5da1a	0.0887949
9	0xbd432ea9	-0.04765192
10	0x3d885358	0.066565216
11	0xbd471a54	-0.048609093
12	0x3bdaa8fe	0.0066729775
13	0xbd29138e	-0.041278414
14	0x3d321183	0.04347373
15	0xbd870ed2	-0.065946236
16	0xbc8f82bb	-0.017518392
17	0x3d8a50d1	0.06753696
18	0xbd4c860d	-0.04993253
19	0x3ce85f66	0.028365802
20	0x3daf8782	0.08570768
21	0xbcc7092d	-0.024296368
22	0x3d8e62b2	0.069524184
23	0xbc649aae	-0.013952894
24	0xbc7d3683	-0.015454891
25	0x3decb951	0.11558784
26	0xbc6684c2	-0.014069738
27	0xbdc6d100	-0.09707832
28	0xba21afa2	-0.0006167834
29	0x3caf8190	0.021424085
30	0xbc022ff9	-0.007946008
31	0xbd7df042	-0.061996706
32	0x3ddc2c17	0.10750597
33	0xbb99bd26	-0.0046917377
34	0x3d2b50a1	0.04182494
35	0x3de4a670	0.11164558
36	0xbca4f049	-0.020134108
37	0xbda5d7be	-0.0809779
38	0xbd91cb1a	-0.07118817
39	0x3dc3982d	0.095505096
40	0xbdb0cdd4	-0.086330086
41	0xbd738375	-0.05945154
42	0xbcf976ea	-0.03045221
43	0x3daee79d	0.085402705
44	0x3dcce6ee	0.10004984
45	0x3d975678	0.073895395
46	0x3bee7633	0.007277274
47	0xbd000710	-0.031256735
48	0xbd82b63d	-0.063824154
49	0xbbab2b68	-0.0052236803
50	0x3d48e416	0.049045645
51	0xbced3e36	-0.028960329
52	0x3d888e6a	0.06667788
53	0x3cc049d5	0.023472706
54	0xbd247ec1	-0.040159944
55	0x3da8682c	0.08222994
56	0xbd5092f7	-0.050921407
57	0xbba9652b	-0.005169531
58	0x3da5fd8b	0.08105
59	0x39853d04	0.00025413197
60	0xbb108f2f	-0.0022058
61	0x3dadea1a	0.08491917
62	0x3d405807	0.04695895
63	0xbd8fe94e	-0.07026921

fc3.weight f4 [10, 64]
0	0xbe724256	-0.23658118
1	0x3e2cab63	0.16862254
2	0x3d5095ff	0.050924297
3	0xbd8cc41e	-0.06873344
4	0x3eda4545	0.42630973
5	0xbed6946f	-0.4191012
6	0x3cda7638	0.0266677
7	0x3d6e9adf	0.058253165
8	0x3e2f3e71	0.17113663
9	0xbdbd5709	-0.09245116
10	0x3d45231f	0.048129197
11	0x3dd8ff7e	0.10595606
12	0xbe4fd644	-0.2029658
13	0xbe027822	-0.1274114
14	0xbdf03602	-0.11729051
15	0x3dcfb308	0.101415694
16	0xbdc39b65	-0.095511235
17	0xbe32374d	-0.17403908
18	0xbe71ea32	-0.23624495
19	0x3e7d396f	0.2472894
20	0xbe14b2f7	-0.14521395
21	0x3e01baa4	0.12668854
22	0xbc406c07	-0.011744506
23	0x3e2ae4a4	0.16688782
24	0xbddbd975	-0.10734836
25	0x3d9adf69	0.07562143
26	0x3dfff7be	0.12498425
27	0xbe15bb6a	-0.14622274
28	0x3e2bc459	0.1677412
29	0xbe96a252	-0.29420716
30	0x3d3ac0ca	0.045594014
31	0x3ba72afc	0.0051015597
32	0xbe9b990d	-0.30390206
33	0xbdbee043	-0.09320118
34	0xbe2f6120	-0.17126894
35	0xbdcfabd0	-0.101401925
36	0x3d48a436	0.04898473
37	0x3ce0db3f	0.027448295
38	0x3dd0743c	0.1017842
39	0x3ed394a9	0.41324356
40	0xbd3bf5d7	-0.045888748
41	0xbdd928d4	-0.106034905
42	0x3dc56fc3	0.096404575
43	0x3db25754	0.08708063
44	0x3e03fdae	0.1288974
45	0xbe16acf7	-0.14714418
46	0xbd102889	-0.035194907
47	0x3e96b65d	0.29436007
48	0xbdb26753	-0.08711114
49	0x3e487719	0.19576682
50	0xbd891688	-0.066937506
51	0x3e348bec	0.17631501
52	0xbe0deef1	-0.1386068
53	0x3cdddda6	0.02708323
54	0xbe2da81f	-0.16958664
55	0x3c3d2acd	0.011545849
56	0xbe47f1d0	-0.19525838
57	0xbca5a318	-0.02021937
58	0xbda0650d	-0.07831774
59	0xbe25d15b	-0.16193144
60	0xbe1c1606	-0.15242776
61	0xbd65de2d	-0.056120086
62	0xbdc9b29a	-0.09848519
63	0x3ea45629	0.32096985
64	0x3e312cff	0.17302321
65	0x3cfe087e	0.031009909
66	0x3d102b73	0.035197686
67	0x3dd7eaa6	0.105428025
68	0xbe7dd00a	-0.24786392
69	0x3da9498c	0.08265981
70	0xbdc8744c	-0.09787807
71	0xbdba25d1	-0.09089244
72	0x3e223193	0.15839224
73	0xbe66c9bf	-0.22537898
74	0xbc0265f2	-0.007958876
75	0x3d937dd7	0.072017364
76	0xbe83d9bd	-0.2575206
77	0xbe2d3206	-0.16913614
78	0xbe813a4c	-0.2523979
79	0xbe264aaa	-0.1623942
80	0xbdb5013f	-0.08838128
81	0xbb621c01	-0.0034501555
82	0x3ed73e8c	0.42039907
83	0xbec86a68	-0.39143682
84	0xbb9901e6	-0.0046694158
85	0xbdb2a0c1	-0.087220676
86	0xbca50f30	-0.020148844
87	0x3d3d187f	0.04616594
88	0xbdb95c4f	-0.090508096
89	0x3eb29596	0.3487975
90	0x3e5b62a5	0.21424349
91	0xbe89f9db	-0.26948437
92	0x3e02d7e9	0.12777676
93	0x3e5756a9	0.21029152
94	0x3e552f00	0.2081871
95	0xbdad8913	-0.084734105
96	0x3e30596e	0.17221615
97	0xbe542196	-0.20715937
98	0xbdb8774f	-0.09007131
99	0x3e21c417	0.15797459
100	0x3c9ca3a3	0.019120997
101	0xbda5b604	-0.08091357
102	0xbdbcf5b2	-0.0922655
103	0xbe427db5	-0.18993266
104	0x3d93d00e	0.07217418
105	0xbdf03d4f	-0.11730444
106	0xbdd8da05	-0.10588459
107	0xbe0a8d38	-0.13530433
108	0x3ec367a0	0.38164997
109	0xbe1a47dc	-0.15066475
110	0xbc861297	-0.016366286
111	0x3e0be2a0	0.1366067
112	0xbd9efc07	-0.07762914
113	0xbcfc75f3	-0.030817961
114	0xbd0ab8e6	-0.03386774
115	0x3d47ef23	0.048812043
116	0x3e3fd8cf	0.1873505
117	0x3e5f0b6a	0.21781698
118	0xbe7e59dd	-0.24838968
119	0xbdcf0337	-0.10108035
120	0x3dfc56bd	0.123212315
121	0x3d11bf1a	0.03558264
122	0xbe43502e	-0.19073555
123	0x3e3f9b36	0.18711552
124	0x3e3728a6	0.178866
125	0xbe8db91c	-0.2768029
126	0x3c54f2d7	0.012997351
127	0xbec5bd5f	-0.3862104
128	0xbe964564	-0.29349816
129	0x3e0a3565	0.13496931
130	0x3e528047	0.20556746
131	0xbd69680a	-0.056983985
132	0x3ea459a7	0.3209965
133	0x3e4b1975	0.1983393
134	0x3e2c7109	0.16839994
135	0x3de1b347	0.110205226
136	0xbef3308e	-0.47497982
137	0x3c8a9d4c	0.016920708
138	0x3df2f811	0.11863721
139	0x3dd78b15	0.10524575
140	0xbdc025b2	-0.0938219
141	0x3cb996f7	0.022654993
142	0x3e960ee8	0.29308248
143	0x3de66d3e	0.11251305
144	0x3dccb02a	0.09994538
145	0x3e7e8afd	0.24857707
146	0x3e8b033b	0.27150902
147	0x3e88b95b	0.26703915
148	0x3e4da1ca	0.20081249
149	0xbe1eec09	-0.15519728
150	0x3db58659	0.088635154
151	0x3dc7e4a0	0.09760404
152	0xbdd9bf7c	-0.10632226
153	0xbb8cd6ca	-0.004298066
154	0x3e84bd8e	0.2592587
155	0x3e1e9119	0.15485038
156	0xbe60138f	-0.21882461
157	0x3da69327	0.08133536
158	0xbdde593d	-0.108568646
159	0xbd8fc9ce	-0.07020913
160	0x3e5115f5	0.20418532
161	0xbebacebb	-0.36485848
162	0xbce11532	-0.027475927
163	0xbedfcf3e	-0.437128
164	0x3d7f8910	0.062386572
165	0x3de8b2f9	0.11362261
166	0xbd14ca6b	-0.036325853
167	0xbda96ccb	-0.08272704
168	0x3c112242	0.008858265
169	0xbd6704b7	-0.05640098
170	0xbda9c053	-0.08288636
171	0x3e3289cb	0.17435376
172	0xbe8a3df6	-0.27000397
173	0xbd9733d5	-0.07382933
174	0xbbcc57bc	-0.0062360447
175	0x3e86b2d3	0.26308307
176	0x3db6b01c	0.08920309
177	0xbdd23393	-0.10263743
178	0x3dfce9e5	0.12349299
179	0xbe05fc07	-0.13084422
180	0x3e28f04c	0.16497916
181	0x3d8c138d	0.068396665
182	0xbe26ef58	-0.1630224
183	0xbd904f0f	-0.07046329
184	0x3df1d9c3	0.11809113
185	0xbd88260c	-0.06647882
186	0x3c3dda7e	0.011587737
187	0xbda4c637	-0.08045619
188	0xbd949daf	-0.07256638
189	0xbe2fefb6	-0.17181286
190	0xbe9e072a	-0.3086484
191	0xbd582c01	-0.05277634
192	0x3ebe0ee4	0.37120736
193	0x3d2d7cab	0.04235522
194	0xbe259417	-0.16169773
195	0x3d75bd38	0.059994906
196	0xbe63ee1f	-0.22258805
197	0x3e84372a	0.25823337
198	0x3ce8d7b8	0.028423175
199	0xbdb98ba0	-0.090598345
200	0x3e271569	0.16316761
201	0xbd4d8bdd	-0.050182212
202	0x3e7f1bb7	0.24912916
203	0x3dbc6ed9	0.0920083
204	0xbd6358be	-0.055504553
205	0xbbf9fb35	-0.007628823
206	0x3e82b72a	0.25530368
207	0x3d9724b8	0.073800504
208	0xbdc934a4	-0.098244935
209	0x3bdbe503	0.00671065
210	0xbe89006e	-0.2675814
211	0x3e31fcf4	0.1738165
212	0xbe54c3fc	-0.20777887
213	0xbe8c5483	-0.27408227
214	0xbb0fdf8d	-0.0021953315
215	0x3e3bef29	0.18352951
216	0x3e3289d9	0.17435397
217	0xbe33affd	-0.17547603
218	0x3e2ecfd8	0.17071474
219	0x3dd7d83e	0.10539292
220	0x3d308977	0.043099847
221	0x3dbd6279	0.09247298
222	0x3d1604b9	0.036625598
223	0x3dc0384b	0.09385737
224	0x3e3e23c7	0.18568335
225	0x3ea21810	0.31658983
226	0x3caf89ac	0.021427952
227	0xbda2c1ae	-0.07947098
228	0xbd6bbb65	-0.05755176
229	0x3c47d448	0.012196608
230	0x3d86a752	0.065748826
231	0x3dde859b	0.10865327
232	0x3e05dbac	0.1307208
233	0xbdf30f29	-0.11868126
234	0x3dff87e6	0.124770924
235	0xbe3f97c3	-0.18710236
236	0xbd276a38	-0.040872782
237	0x3ce60c15	0.028081933
238	0xbd6067ec	-0.054786608
239	0xbe690e94	-0.22759467
240	0x3dc63495	0.09677998
241	0x3e737f5a	0.2377905
242	0x3e6a969f	0.2290902
243	0xbceab105	-0.028648863
244	0xbe972b89	-0.29525402
245	0x3cda16f7	0.026622279
246	0xbe102ca4	-0.14079529
247	0x3e7e9893	0.2486289
248	0xbe072bae	-0.13200256
249	0xbe451c58	-0.19249094
250	0x3e8ce2b8	0.27516723
251	0xbe7af352	-0.24506882
252	0xbdc72891	-0.09724534
253	0x3bb68666	0.0055702208
254	0xbe98deae	-0.2985739
255	0xbeb1dd57	-0.3473918

fc3.bias f4 [10]
0	0xbc2d90e0	-0.010593623
1	0x3d2b5b7e	0.0418353
2	0xbe0bb803	-0.13644414
3	0x3d675336	0.05647584
4	0xbc2f774b	-0.010709594
5	0xbb926036	-0.0044670356
6	0xbcfce95b	-0.030872991
7	0x3d007b77	0.031367745
8	0xbd9df80e	-0.07713328
9	0xbcff86d3	-0.031192219
