mnist_mj_mod.pt (torch_old, 910509 bytes, 18 tensors)

weight f4 [16, 1, 5, 5]
000000 78 e6 41 3e 3a 23 00 3d ac 87 2d 3e aa fc 30 3e
       0.18935573 0.031283595 0.16946286 0.17283884
000010 c0 67 09 3e b4 d0 1e 3e 62 78 4c be 9f e6 85 3d
       0.13418484 0.15509301 -0.19967797 0.06538128
000020 cc 45 49 be 2b b6 27 3e af 6e 35 be 22 af 30 3e
       -0.19655532 0.16378085 -0.17718004 0.17254308
000030 2d 8d 44 be 67 c7 1e 3c 91 ac a9 3c 2d 03 25 3c
       -0.1919448 0.009691096 0.020712169 0.010071558
000040 ba 5c d4 3d 5a 3d e1 bd 82 0e d7 3d 51 62 46 3e
       0.10369249 -0.1099803 0.10500814 0.19373442
000050 43 0a b8 3d 1a 41 52 3c 6a 1e f6 3c 9e 30 35 be
       0.08986332 0.012832904 0.0300438 -0.17694327
000060 21 73 8b bd 92 da 39 be 28 ef 42 be c7 7a 10 be
       -0.068090685 -0.18149784 -0.19036543 -0.14109336
000070 9e b2 6c 3e 5d 18 10 be 91 3e 73 be 9b 3e 1d be
       0.23115012 -0.14071794 -0.23754336 -0.15355913
000080 30 5a 56 3e 26 ee 29 3e e0 a3 aa 3d 0a d5 7b be
       0.20932841 0.16594753 0.08332038 -0.24592987
000090 76 05 dc 3d 72 4a 4c bd af 73 34 3e b3 3f f7 3d
       0.10743229 -0.049875684 0.17622255 0.120726965
0000a0 d9 bc 94 be fe 6f 75 bb 5e 99 4f 3e 40 03 f9 3d
       -0.2905033 -0.0037450786 0.20273349 0.12158823
0000b0 1d bd 67 3d 41 29 95 be 7d d6 3a be c5 00 88 be
       0.056576837 -0.29133037 -0.18245883 -0.26563087
0000c0 f7 d5 60 3e a8 eb f1 bc 20 78 9b be 6c db 45 be
       0.21956621 -0.029531315 -0.30365086 -0.19321984
0000d0 d1 1d bd bd e7 41 69 bd 60 7f 70 3d 6f 94 10 be
       -0.09234203 -0.056947615 0.058715224 -0.14119123
0000e0 e3 22 6d bd e5 a0 81 be 82 11 3e be 50 61 51 be
       -0.0578946 -0.25318065 -0.18561366 -0.20447278
0000f0 3b 64 04 be 5f 5a 14 bb 27 58 b1 bd 3a 4e c6 bd
       -0.1292886 -0.0022636873 -0.08659392 -0.09682889
000100 29 39 8f be 7c 18 22 3d fb 6d 1c 3c 9e 6a bf 3d
       -0.27973297 0.03957413 0.009547706 0.093465075
000110 6e e9 f0 3c 01 25 1d be ca d7 0c 3e 36 21 f2 3d
       0.029408183 -0.15346147 0.13754192 0.11822741
000120 cc 66 43 3c 41 a2 0c 3e 68 e9 7b 3e 77 56 ad 3c
       0.011926364 0.1373377 0.24600756 0.021159394
000130 ae 9f 4f bd a7 cb 94 bd 10 f6 8b be 6f 34 a9 bc
       -0.05068939 -0.07265406 -0.27336168 -0.020654885
000140 56 7b 3b bc 5c 0e 0a 3c f5 9a 86 3e 60 95 a6 bd
       -0.01144298 0.008426275 0.26290098 -0.0813396
000150 fa a1 9e be 0c 95 a7 bd 30 4a af bc e2 53 e9 3d
       -0.30982953 -0.08182725 -0.02139768 0.113929525
000160 88 fb 1b bc f6 86 a4 bc 47 1a 63 be ce f0 f0 3d
       -0.009520419 -0.020083886 -0.22177993 0.1176468
000170 ff 18 56 bd 7c 36 cc 3d 13 ba 0e 3d 53 de 7f be
       -0.052269932 0.099713296 0.034845423 -0.24987154
000180 51 7b 9a bd 3a 1f fe 3d f6 63 77 3e 9d f4 77 3c
       -0.07543052 0.124083 0.24159226 0.015134004
000190 1d 38 d3 bc 1d 5f 8b be 97 26 7b be 24 08 1e 3d
       -0.025783593 -0.27221003 -0.2452644 0.038581982
0001a0 64 cb fa bc 23 a3 a1 3e 05 34 b3 bd 9b 7e a2 be
       -0.030614562 0.31569776 -0.08750156 -0.31737217
0001b0 d6 b0 67 be 0d c7 12 be c9 3e ba 3d a6 fe d8 3e
       -0.22626051 -0.14333744 0.090940066 0.4238178
0001c0 79 c6 be 3b 47 41 b4 3c 15 d6 ec bd 42 28 a0 bd
       0.0058219996 0.022003783 -0.115642704 -0.078201786
0001d0 5b 08 9b 3e 2d cf 4f 3e 8c a2 5b 3e 49 23 74 3d
       0.30279812 0.20293875 0.21448725 0.059603963
0001e0 ec a4 5d be 6a aa a4 bd 58 f9 39 bc 2c 36 af 3d
       -0.21644944 -0.080403164 -0.011350952 0.08555254
0001f0 92 71 31 3e d5 02 f9 bd 2e 7f 0c 3e fd 12 9c 3e
       0.1732848 -0.12158743 0.1372039 0.30483237
000200 74 48 d4 3c 32 3b 77 3e 0b e1 09 be 32 bc 84 bc
       0.025913455 0.24143675 -0.13464753 -0.01620302
000210 a1 c6 32 3e 41 6a 3f 3e 6f e5 d9 3d 2f ca ad be
       0.17458583 0.18692876 0.10639464 -0.33943316
000220 0a 44 f8 bd 87 93 98 bd 81 4a 81 bd f1 88 50 3b
       -0.121223524 -0.074500136 -0.063130386 0.0031819905
000230 ec fd 52 be e9 ea be be 2e 01 12 be 40 eb 9c be
       -0.20604676 -0.37288597 -0.14258263 -0.30648232
000240 f4 3e 26 bd a8 03 28 bd d9 2a c1 bd d2 0b 91 be
       -0.04058738 -0.041019112 -0.09432001 -0.2832933
000250 e4 e2 b4 3b 80 ba 0c be 24 07 7f 3d 75 3d 17 be
       0.0055202115 -0.13743019 0.06226267 -0.14769538
000260 25 76 15 be a6 28 ee 3d 12 94 52 be 26 cf c2 bd
       -0.1459585 0.11628847 -0.20564297 -0.09512167
000270 76 8a 78 be e9 cc 14 3c 8a c6 25 be 92 0d 04 3d
       -0.24271569 0.0090820575 -0.16189018 0.032239504
000280 be 74 30 bd be 3d e2 3d 34 c4 7c 3e 03 4b ac 3c
       -0.043080084 0.11046933 0.2468422 0.021031862
000290 5a 3b 0f 3e 9b 03 16 3e 20 c0 71 3e b8 72 4b 3e
       0.13987485 0.14649813 0.23608446 0.1986798
0002a0 13 f4 22 3e ee e5 18 3e 1d 53 00 be 5f 9d 1a be
       0.1591342 0.14931461 -0.12531705 -0.15099095
0002b0 a8 3c 8c be 37 27 79 be 6a 61 c9 bd e4 3b 2c be
       -0.27390027 -0.24331366 -0.098330334 -0.16819721
0002c0 6b 8d 6a bd eb 31 70 be 10 28 20 bd bf fb 8d 3d
       -0.057263773 -0.23456542 -0.039100707 0.069327824
0002d0 97 59 3b be 88 4d 15 be 4f 0e 14 be 4a 5f 59 bd
       -0.18295895 -0.14580357 -0.14458583 -0.05306939
0002e0 b8 bc 44 3e ad 4a c3 3d 21 7c 76 bd 59 43 0f be
       0.19212615 0.09535728 -0.060176972 -0.13990535
0002f0 6e 76 9c bd 2e 96 94 3e b1 64 6c 3d 16 de 71 be
       -0.07639776 0.29020828 0.057713214 -0.23619875
000300 3a f5 bb 3b 85 4a 85 3e bb 3b 99 3d 31 a8 0a be
       0.0057360204 0.26033416 0.07482096 -0.13540722
000310 f8 2c 3b be 7d 77 4d be 15 e2 8a bc 2d da 7b 3e
       -0.18278873 -0.20065112 -0.016953507 0.24594946
000320 cb e9 d1 bd 62 39 58 bc 48 e2 50 3e 05 8f 0c 3e
       -0.102496706 -0.013197275 0.2039882 0.13726433
000330 5b f2 8d 3d 4f e5 15 be ab f3 1f 3e ce 06 8b bd
       0.06930991 -0.14638256 0.15620296 -0.06788407
000340 b3 3b 5d bd 65 e8 eb 3d af 4a dd bd 14 69 3b 3e
       -0.05401201 0.11518935 -0.108052604 0.18301803
000350 0e b9 42 3e 63 f6 a4 3d bd 7a c7 3d d4 e2 2d 3e
       0.19015905 0.08054807 0.09740207 0.1698106
000360 92 a7 3a 3e 32 de de 3d d7 e6 36 3d 6a fd 8d be
       0.18227986 0.10882224 0.04465374 -0.27732402
000370 53 b8 03 3e 18 be f9 3d a6 b4 34 bc 9e 0e 28 be
       0.12863283 0.12194461 -0.011029398 -0.16411826
000380 0f 43 47 bd 96 db 4d be 6f f6 3b be 4c c5 06 be
       -0.048647936 -0.20103297 -0.18355726 -0.131612
000390 55 c4 bd 3d 09 39 d4 3c 18 7a 17 be 7e 72 50 3e
       0.09265963 0.025906103 -0.14792669 0.20356175
0003a0 12 bf 81 3e 7b 91 59 3e 0f 04 27 bd 11 41 c5 3e
       0.25341088 0.21246903 -0.040775355 0.38526204
0003b0 a5 ad a4 3e 6b 51 3d 3d fc 1b b6 3b 19 aa 62 3b
       0.3216373 0.046220224 0.005557535 0.003458625
0003c0 1f af 6c 3d 21 80 e3 bd 01 4f 57 be c6 c5 7a 3d
       0.057784196 -0.11108423 -0.21026231 0.061223768
0003d0 ff 66 44 be aa ca 76 be c3 19 0b be 36 6f 32 bd
       -0.19179915 -0.24100748 -0.13584046 -0.04356309
0003e0 21 9a 57 be 0b 9a e6 bd 64 42 2c bd 1c d9 93 bd
       -0.2105489 -0.1125985 -0.042055503 -0.07219145
0003f0 ce 0f 83 be d9 62 94 bd c9 0f 05 bd bb 3a 35 3e
       -0.25597996 -0.07245416 -0.032485757 0.17698185

bias f4 [16]
000000 83 27 99 3c 71 d2 79 bd a7 6f 79 bd 3e f3 30 3e
       0.018695598 -0.06099171 -0.060897496 0.1728029
000010 de b2 a9 bd 6a 47 b3 bd fe 27 b4 3d 6b b8 b3 bd
       -0.08286069 -0.087538555 0.087966904 -0.08775409
000020 44 8d 12 3e d8 e4 c1 3c db 35 7a bd e9 5f 02 be
       0.14311701 0.023668692 -0.061086517 -0.127319
000030 b8 e4 8d 3d 66 17 c7 bd 6e 78 22 3d eb 1e 1c bc
       0.0692839 -0.0972126 0.039665632 -0.009528856

weight f4 [16]
000000 1e ba 14 3f 4c 59 84 3f e4 64 9d 3f 9c bb 83 3f
       0.5809649 1.0339751 1.2296414 1.0291629
000010 d0 81 63 3f 72 1a a6 3f 88 66 53 3f 2d 36 88 3f
       0.88869953 1.297682 0.82578325 1.0641533
000020 83 d4 12 3f d8 3e 6c 3f 49 bc 8e 3f 0d cd 97 3f
       0.5735552 0.9228339 1.115121 1.1859452
000030 0d bb 19 3f bf 37 6d 3f da ce 89 3f 03 c5 8d 3f
       0.6005104 0.92663187 1.0766251 1.1075748

bias f4 [16]
000000 75 94 7a be 61 fd 0e be 33 ef a1 bd a6 4f 0a be
       -0.24470694 -0.13963844 -0.07906952 -0.13506946
000010 b3 33 42 be 95 da f6 bd 99 f4 62 be 60 b9 0b be
       -0.18965034 -0.1205341 -0.22163619 -0.13644934
000020 4f cb 83 be 0c 88 4e be a9 11 07 be d8 9e d3 bd
       -0.2574105 -0.20169085 -0.1319033 -0.103330314
000030 f3 0b 59 be 8b d0 73 be 0f 61 cd 3c c2 59 71 bd
       -0.21195965 -0.23810022 0.025070695 -0.05892349

running_mean f4 [16]
000000 37 02 e9 3d 3a 73 1f be 0a 4d 7a be 69 33 d5 3d
       0.113773756 -0.15571299 -0.2444345 0.10410196
000010 7e 1f 8f bd ad 8f 88 be a0 6c 44 3d 51 cc 45 be
       -0.069884285 -0.26672116 0.047955155 -0.19316222
000020 06 97 8e 3e ea 6e 71 bc 22 87 00 be f5 76 83 be
       0.27849597 -0.014735917 -0.12551549 -0.25676695
000030 3b 8c 56 3e 17 01 03 be ec 70 a0 bd c9 7d 14 be
       0.20951931 -0.12793384 -0.07834038 -0.14501108

running_var f4 [16]
000000 77 8c e9 3c 78 1a 0b 3e 57 24 23 3e f6 03 1a 3d
       0.028509362 0.13584316 0.15931831 0.037601434
000010 7b cc 81 3d 30 6d 50 3e 70 dd f4 3c cc af 00 3e
       0.0633783 0.20354152 0.029890746 0.12567061
000020 5c 68 c3 3d fd 75 7a 3d c7 eb 91 3d d4 6a 11 3e
       0.09541389 0.06114768 0.07125049 0.14200908
000030 c0 64 82 3d 3a 97 36 3d 7c 09 cf 3d 33 16 0e 3e
       0.06366873 0.044577815 0.10109231 0.13875656

weight f4 [32, 16, 5, 5]
000000 64 c2 83 3d d5 67 da 3c 5b 58 8d bc d3 45 84 bd
       0.064335614 0.02666084 -0.017254045 -0.064586304
000010 c3 bd 25 bd e6 b8 0c ba bf 8b 2e 3c a2 b5 28 bd
       -0.040464174 -0.0005368128 0.010653435 -0.041188844
000020 bd ab f0 3a af 5a fe bb 88 15 64 bc f8 9e 98 bc
       0.0018361729 -0.007762275 -0.013921149 -0.01863049
000030 71 f5 b2 3c e3 37 34 b8 ee 7b f5 bc 6b 9c 9b bc
       0.021845551 -4.2967393e-05 -0.02996632 -0.018995484
000040 e1 17 5b bd b5 12 65 bc dd 5e 01 bd ca db b0 3b
       -0.05348957 -0.013981511 -0.03158461 0.0053972946
000050 46 3c 03 3c de 72 6e 3c b3 c9 d3 bc 7f d0 a2 3d
       0.008009976 0.014553754 -0.025853014 0.07949924
000060 63 9b b9 3d 0b 5c 5f 3d ed 8e 52 bd 9b c1 5d bb
       0.09062841 0.05453114 -0.051405836 -0.0033837322
000070 77 fc eb bb 74 9d e9 3c 56 d0 c0 3d 27 40 13 bd
       -0.007201727 0.028517462 0.09414737 -0.035949852
000080 86 f5 e2 3c ea 69 bf 3c 1c c7 82 3b 40 16 6b 3d
       0.027704965 0.023365933 0.003991021 0.057394266
000090 c8 1b 56 3c 67 2e bb bc 15 0b 51 bd 9f 9f 67 3d
       0.013068147 -0.022849275 -0.05103596 0.05654871
0000a0 87 09 7f 39 a1 0f ba bc 9d 57 49 bd 74 1e 9e bd
       0.00024322244 -0.02271253 -0.04915582 -0.07720652
0000b0 45 16 33 bb bc 2b 52 bc b9 83 63 bd 1b 59 ee bc
       -0.0027326506 -0.01282781 -0.055545542 -0.029095223
0000c0 c8 b6 82 bd 02 e6 43 bd 03 32 8c bd 28 a2 d0 bd
       -0.06382519 -0.047826774 -0.068454765 -0.10187179
0000d0 20 25 c3 bc eb 80 04 bd c4 93 dc bc 0e c9 f7 bd
       -0.023821414 -0.03234951 -0.026925929 -0.12098895
0000e0 fb 98 2d be 19 10 4e bd 0d f0 65 bd 65 1d b8 bd
       -0.16952889 -0.05030832 -0.056137133 -0.089899816
0000f0 13 fe 17 be 3c 80 14 be 33 1e fb bd a9 42 8e bd
       -0.14843015 -0.14502043 -0.122616194 -0.06946308
000100 a4 fe 7e bc 69 fd 94 bd 4a 05 1c bd 7d d4 7c bd
       -0.015563641 -0.07274897 -0.03809098 -0.061726082
000110 b1 b6 d5 bc a2 25 89 3c cf 69 bd ba f7 ba 64 3d
       -0.02608809 0.016741578 -0.0014451089 0.055842366
000120 1c 40 0f 3d 42 19 c1 bc 57 9e 7f bc 65 37 9c 3d
       0.03497325 -0.023571614 -0.015601716 0.07627753
000130 e3 b7 14 3d fb 55 1d 3d c6 e1 b7 3d 9e 26 29 3d
       0.03630818 0.038412075 0.0897861 0.041296594
000140 fd 81 93 bd 59 f8 66 bd cf c6 88 3c f1 8e 8a 3d
       -0.07202528 -0.056389187 0.016696362 0.06765545
000150 99 45 62 3c af 83 aa bd 32 94 49 bd ad 1d 99 bb
       0.013810539 -0.08325898 -0.049213596 -0.004672727
000160 8d c3 9f 3b 0e 04 9a 3d ce 16 5e 3c 2c 3e 88 bd
       0.0048756064 0.075203046 0.013555242 -0.06652483
000170 a1 b9 2a 3c 47 29 5a 3b 96 82 3f 3c 1f d7 90 bb
       0.010420234 0.0033288763 0.011688849 -0.0044201757
000180 da e6 ce bb 95 1b e7 3c f9 ff 62 3c 9e 81 af 3b
       -0.0063141407 0.028211394 0.013854974 0.0053560277
000190 ee 90 1b 3d 06 ee 8c 3c 3b 38 80 3d ac 2a 42 3d
       0.037980013 0.017203342 0.06260725 0.047403976
0001a0 4d 8e 3a 3d e2 6c 82 bd 7a 07 8b bd cd 53 53 bd
       0.045545865 -0.06368424 -0.067885354 -0.05159359
0001b0 c1 a0 b5 3c c8 c7 b6 bb 5c 06 6a bd 5a 8c f0 3d
       0.02217138 -0.005578015 -0.05713497 0.1174552
0001c0 c2 1b bc 3c f7 86 7e bd 8a a8 0b 3d eb 05 b8 3d
       0.022962455 -0.06214043 0.03409628 0.08985504
0001d0 d5 d7 c2 3d 60 be 25 3d 94 1e db 3d 77 aa c9 3d
       0.09513823 0.04046476 0.10699192 0.09846967
0001e0 58 f9 54 bc 48 89 55 3c 72 cf 22 3d 3c fb bd 3d
       -0.012998901 0.013033219 0.039748617 0.09276435
0001f0 0d 9b 8c 3c f6 8c 3d bc ee 64 a2 bd db e9 e5 bc
       0.017163778 -0.011569252 -0.07929407 -0.028065613
000200 fe 03 67 bc d4 bc 68 bd 9a f6 83 bd 2c 2d f2 bd
       -0.014100073 -0.056820706 -0.0644352 -0.11825022
000210 d2 ba 13 be 76 6f 9a bd 8d 94 0d bc b5 cf ab ba
       -0.14426735 -0.07540791 -0.008641374 -0.0013108166
000220 ee 91 73 bd 3b 61 b7 bd f1 f4 d3 bd 0a 3f 99 bd
       -0.05946534 -0.08954092 -0.10349453 -0.07482727
000230 e8 47 cc 3d 8c 18 f4 3d 57 1b 92 bd 9a f1 76 bd
       0.099746525 0.119187444 -0.07134121 -0.060289003
000240 fc 21 84 bd 94 5c 05 ba 4c 11 c5 3d a3 99 c9 3d
       -0.064517945 -0.00050873426 0.0962244 0.09843757
000250 66 9e 0c 3d 87 f1 f6 bc 8b 80 15 3d 45 1d 0d 3c
       0.034330748 -0.030144466 0.03649954 0.008612935
000260 34 66 79 3d b8 a6 b0 3c e4 f4 27 bc 5a fe 9b bc
       0.060888484 0.021563873 -0.010251258 -0.019042183
000270 08 33 6e 3d bb 56 30 3d d5 ac d0 3d 9d c5 4f 3d
       0.058154136 0.043051463 0.10189215 0.050725568
000280 9f f5 59 bd c5 15 9b bc d9 c6 dc 3c 3e 0b e5 3d
       -0.05321276 -0.018931279 0.026950287 0.11183785
000290 39 00 05 3e a9 04 9b bd eb 38 e2 bc 68 03 05 3d
       0.12988366 -0.07569248 -0.027615031 0.03247395
0002a0 27 75 4b 3d f0 88 90 3d ea 82 58 bc 2c 4d 0b bd
       0.049672272 0.07057369 -0.013214806 -0.034009144
0002b0 3d ca 0f 3d 75 4d 38 3c 50 b2 7e 3d 65 28 27 bd
       0.03510498 0.011248936 0.06218177 -0.040810008
0002c0 10 82 26 3c 70 b1 bd bc d4 43 1b bb 06 39 23 3d
       0.010162845 -0.023155898 -0.0023691552 0.039849304
0002d0 a6 d8 92 3d c4 12 bf bb c4 0e 99 3c d7 be 98 3d
       0.07170229 -0.0058310945 0.018683799 0.07458275
0002e0 b6 8d bc 3a 7b 94 83 3d b8 fc c2 bc cc f8 31 bd
       0.0014385495 0.06424805 -0.023802146 -0.04345016
0002f0 55 23 18 bd 1c 4a 49 3d af 98 47 3c 36 c3 17 bd
       -0.03714307 0.04914294 0.012182399 -0.037051402
000300 78 fa 46 bd 26 23 cc bd dd 8e ad bd c8 e5 30 bd
       -0.04857871 -0.099676415 -0.08474515 -0.043187886
000310 8a 91 a5 3c 1b 82 e5 bc e6 5b 5a bd d1 2e 98 bd
       0.020211 -0.02801614 -0.053310297 -0.074308045
000320 d0 1c 92 3d 13 96 e2 bc e8 be 74 bd 16 c8 8e bd
       0.07134402 -0.027659452 -0.059752375 -0.06971757
000330 73 b2 fe bc 30 99 36 3d 0a 15 71 bb 15 4f ff bb
       -0.03109095 0.044579685 -0.0036786222 -0.0077914097
000340 de 34 86 3d 00 80 ef 3c d7 e2 83 bd 46 63 0c bd
       0.06553052 0.02923584 -0.06439751 -0.034274362
000350 b7 37 e5 3a 23 96 ae bc 4d 70 8a 3d fa fc be 3c
       0.0017487918 -0.021311825 0.06759701 0.023313988
000360 41 a7 7c bd d3 a7 64 bc 3e 56 74 bc 5b 71 40 3d
       -0.061682943 -0.013956028 -0.01491314 0.046983104
000370 50 26 47 bd 72 44 5e bd cd bd 4d bd d2 f8 81 3b
       -0.048620522 -0.054264493 -0.050229836 0.0039664293
000380 28 54 dd 3c a4 dd a0 3c c9 70 ea 3c bf 5c f0 3c
       0.027017668 0.019636936 0.028618233 0.0293411
000390 9b f5 27 3d 48 2b 7c 3d 3c 9c 81 bd 0d c7 c2 3c
       0.041005712 0.061564714 -0.063286275 0.023776555
0003a0 63 f5 97 3c f9 9a 05 3d e7 6e 53 3c 9f 58 b7 bd
       0.018549627 0.032618497 0.012904859 -0.0895245
0003b0 41 4a 8f bc fc d5 a5 3c bb 77 af 3d ab a4 21 3d
       -0.017491462 0.020243637 0.08567759 0.03946368
0003c0 1f da b9 bd 07 5a aa bc f1 ec 18 3d cd f5 60 bd
       -0.090748064 -0.020794882 0.03733534 -0.054921914
0003d0 69 2f 3c 3d 97 06 b3 3c f7 46 4e 3d 46 df 98 bd
       0.04594365 0.021853728 0.050360646 -0.07464461
0003e0 f8 b1 9a 3c f0 de ea 3d 04 ee 9f 3b e4 d6 63 bd
       0.01888369 0.11468303 0.0048806686 -0.055624858
0003f0 0c 0c 00 3d 1f d9 36 bc 55 cd 23 3d 25 4c 26 bd
       0.03126149 -0.011160164 0.03999074 -0.04059996

bias f4 [32]
000000 7e ad cd 3c 43 0e e2 bc df a9 40 bd 5d 45 fc bc
       0.025107142 -0.027594691 -0.047037 -0.030794794
000010 22 4d 9f 3c 54 dd 5a 3c d0 27 e4 bb 11 75 4b 3d
       0.01944596 0.013358433 -0.006962754 0.04967219
000020 da cd 9b bc 23 67 d2 bc f6 d8 cd 3c bb 84 36 bd
       -0.019019056 -0.025683945 0.02512787 -0.044560175
000030 5a b5 40 bb 78 a4 19 bc ca 1e ff 3c d5 c2 37 bd
       -0.002940497 -0.009377591 0.031142611 -0.04486354
000040 be 34 87 3c 3d c1 d2 bc 76 bc 01 bd 11 51 0c 3d
       0.016504642 -0.025726909 -0.03167387 0.034257
000050 d0 67 0e bd 6c a5 29 bc 12 93 f1 3c f2 1b 02 bd
       -0.034766972 -0.010354381 0.029489074 -0.031764932
000060 37 11 47 3d 6e 55 15 bd cc 2f 68 bc 6e 57 ac 3c
       0.0486004 -0.036458425 -0.014171552 0.021037783
000070 5e c1 98 3c c0 5e 95 bc a6 b7 1e bd 9a e6 b5 3c
       0.018646892 -0.018233657 -0.03874936 0.022204686

weight f4 [32]
000000 56 07 ad 3f 42 89 96 3f 7a 48 a2 3f 51 dd b2 3f
       1.3517864 1.1760638 1.2678368 1.397379
000010 d8 36 9b 3f ea 84 99 3f f3 a8 99 3f b5 e7 96 3f
       1.2126112 1.1993687 1.2004684 1.1789461
000020 ca eb 9a 3f ce 1f 91 3f c0 f5 9b 3f e7 da 99 3f
       1.2103207 1.1337831 1.2184372 1.2019929
000030 cb e7 92 3f c2 c2 a8 3f af be 8d 3f b4 b4 9c 3f
       1.1476988 1.3184435 1.1073817 1.2242646
000040 7b 8e 8b 3f d5 5f bc 3f 86 23 8c 3f 15 cf 8f 3f
       1.0902857 1.4716746 1.0948341 1.1235071
000050 10 f8 97 3f a5 d3 92 3f 51 1e 98 3f 36 fe 95 3f
       1.1872578 1.1470839 1.1884252 1.1718204
000060 79 8e a3 3f 56 46 a4 3f 43 8d 97 3f 28 bb a9 3f
       1.2777854 1.2833965 1.1839985 1.326024
000070 a6 86 aa 3f 80 01 9e 3f 9f 04 a9 3f 89 01 a0 3f
       1.3322341 1.2344208 1.3204535 1.2500468

bias f4 [32]
000000 f2 c6 96 be 47 68 12 be 51 0e 27 be ac 16 70 be
       -0.29448658 -0.14297591 -0.16314055 -0.23446149
000010 30 b1 f6 bd b5 25 3c be dd 38 38 be e3 f5 e0 bd
       -0.120455146 -0.18373759 -0.17990442 -0.10984399
000020 6f 0b 0f be 31 1c 14 be b3 6b e9 bd 71 88 fd bd
       -0.13969205 -0.14463879 -0.11397495 -0.1237954
000030 bb 9c 13 be 96 82 33 be e7 54 15 be 40 97 e8 bd
       -0.14415257 -0.17530283 -0.14583169 -0.11356974
000040 d1 80 07 be f4 31 27 be c0 f1 f3 bd a3 7a 1a be
       -0.13232733 -0.1632765 -0.119113445 -0.15085845
000050 b0 52 1f be 74 4c 0f be 4d 2a 39 be 8d 10 89 bd
       -0.15558887 -0.13994008 -0.18082543 -0.0669261
000060 00 00 65 be 3c 74 58 be cc ed a9 bd d7 e2 06 be
       -0.22363281 -0.2113809 -0.08297309 -0.1317247
000070 5b d7 77 be 00 b0 3f be 4f 98 0d be 63 ee c5 bd
       -0.24203245 -0.18719482 -0.13827632 -0.09664609

running_mean f4 [32]
000000 2d d1 9c bf d7 ca bf 3e 27 47 12 3e 96 6b 7a bf
       -1.2251335 0.37459442 0.14284955 -0.97820413
000010 37 72 05 bf d4 cb 21 bf 82 c6 99 3e 9b 65 9b bd
       -0.52127403 -0.6320164 0.30034262 -0.07587739
000020 0d 11 aa bd 59 64 a4 3e 9b 43 55 3e 45 44 d7 3d
       -0.083040334 0.3210781 0.2082657 0.10511068
000030 3a 4b df 3b 32 36 b7 3e 08 76 3e bd 5b 87 8b 3e
       0.0068143876 0.35783535 -0.046499282 0.27251706
000040 45 b4 08 be 18 9d f8 be a2 72 94 3e ea 13 09 bf
       -0.13350017 -0.48557353 0.28993708 -0.5354601
000050 90 bc 7b 3e 3d 59 a3 b8 5f 04 72 be 50 02 28 be
       0.2458365 -7.7890676e-05 -0.2363448 -0.16407132
000060 73 91 23 bf e3 2f 95 bd bc fa 7d be f3 37 95 3c
       -0.6389381 -0.07284524 -0.24802679 0.018215155
000070 5d 2f 11 3f ec 9f 3f bf 59 f5 29 bd c6 12 15 3e
       0.56712896 -0.74853396 -0.041493747 0.14557943

running_var f4 [32]
000000 48 63 38 3f 7e 8f 38 3f 45 89 1c 3f 30 70 0f 3f
       0.7202649 0.7209395 0.61146957 0.5603056
000010 d5 f2 14 3f d1 70 cb 3e 1d 59 27 3f 44 76 f1 3e
       0.5818303 0.3973451 0.6537035 0.47160542
000020 83 2e ee 3e 23 cc f0 3e 93 99 3e 3f 2d 35 00 3f
       0.4651986 0.47030744 0.74453086 0.5008114
000030 50 a3 cc 3e f9 90 37 3f 85 ca 03 3f 3a 97 20 3f
       0.39968348 0.71705586 0.51480895 0.62730753
000040 4b 81 e4 3e c3 a5 2c 3f a0 4f eb 3e a3 89 91 3e
       0.44629893 0.6744043 0.45959187 0.2842532
000050 b5 01 ad 3e 1b d6 be 3e d1 dd 1f 3f f0 21 04 3f
       0.33790365 0.37272725 0.6244784 0.51614285
000060 0a e9 18 3f b4 d8 39 3f fa ae 30 3f c7 d7 1e 3f
       0.5973059 0.7259629 0.69016993 0.62048
000070 32 48 4c 3f cb a6 f9 3e fe dd 48 3f 53 c1 46 3f
       0.7979766 0.48760065 0.78463733 0.7763874

weight f4 [128, 1568]
000000 c9 f0 b2 3b b9 79 08 bd 38 ae 69 3c 74 cd d9 bc
       0.0054608327 -0.03331921 0.014262728 -0.026587225
000010 8e 2c 1c 3b 96 52 2c 3a 12 14 a0 bc ed 2c 9b 3b
       0.0023830268 0.00065735856 -0.01954082 0.00473558
000020 7c 69 4b bc 2b bc 29 3c 10 a1 f1 bb c5 19 c6 bb
       -0.012415286 0.010359804 -0.0073739365 -0.0060455524
000030 ff 50 f2 bc 3c 39 da bc 87 96 4f bc 7d 42 70 bc
       -0.029579638 -0.02663862 -0.012670166 -0.01466429
000040 bc 3f 85 3c ba 72 15 bd 4e a9 52 bd 45 ee 2c bc
       0.016265742 -0.036486365 -0.051430993 -0.010554855
000050 15 80 31 3b 7e 2f f8 3b 4c 51 c6 3b 5b 1b 19 3c
       0.00270844 0.007574021 0.006052172 0.009344901
000060 b3 df 69 3c 9e c6 1a 3c 70 a2 f4 3b 11 0d 3b 3c
       0.014274525 0.009446768 0.007465653 0.0114166895
000070 8d d1 d0 3c 17 4b d5 3c bf 84 07 3c e1 10 08 3d
       0.025490547 0.026036782 0.008271395 0.033219222
000080 7e f8 37 3c 53 97 2a 3d 36 23 08 3c 33 ca 9f 3c
       0.011228679 0.04164822 0.008309176 0.019505596
000090 32 5c 2b 3d c0 82 c4 3b 3c 7b 44 3d a5 04 e9 3c
       0.04183597 0.005997032 0.047969088 0.028444597
0000a0 63 37 30 3d ad ae 84 3c 3e 0b 9b bb 70 16 9c bc
       0.04302157 0.016196573 -0.004731565 -0.019053668
0000b0 70 b1 45 bc 37 f6 ee bb ec 53 bc bc 83 1c f9 bc
       -0.01206623 -0.0072925347 -0.022989236 -0.030409103
0000c0 68 51 e4 bc 2d 01 81 bc d5 69 18 3b 64 69 17 3c
       -0.027870849 -0.015747631 0.002325644 0.009241436
0000d0 68 9d b1 3c fd ee 10 3d ca 73 38 3d e3 b6 6a bc
       0.021681502 0.035384167 0.0450323 -0.01432583
0000e0 34 0e b9 bc 3d fd cf 3c 78 5a 10 3d 83 2e 2c 3d
       -0.02258978 0.025389308 0.035242528 0.042036545
0000f0 1f b9 47 3d 8a c8 88 3c 9c 3d f5 3c 53 7f d4 3c
       0.04876053 0.016697187 0.029936604 0.02593962
000100 ec 2a 7e bc 22 2e 5a 3c 9c ff c2 3c a6 f9 21 bb
       -0.015513163 0.013316663 0.023803525 -0.0024715452
000110 60 7f 04 3d 74 38 8e 3b 2a a0 08 3c a1 de da bc
       0.032348037 0.004340226 0.008338967 -0.026717486
000120 c6 e9 0b bd 30 43 23 bc 6d 59 57 bb b2 90 20 3d
       -0.03415849 -0.009964749 -0.0032859698 0.039200492
000130 08 f4 30 3b 69 a8 26 bb ec f4 d8 3c 39 d6 be 3c
       0.0027000923 -0.002542997 0.026483975 0.023295509
000140 0f b8 36 3b c6 ca d5 3b f9 49 3e 3d 71 28 80 3b
       0.0027880704 0.0065244166 0.046457265 0.003911071
000150 3e ff a2 3c cf 38 73 3c b0 41 0b bc 96 8b ab 3c
       0.0198971 0.014845087 -0.008499548 0.020940583
000160 21 da 60 3d e6 6c fb 3c 26 bc e6 bb 3e 75 0d bc
       0.054895524 0.030691575 -0.007041472 -0.00863391
000170 69 e5 6a bc 0d 72 c9 bb e0 94 44 bd 23 d0 0e bc
       -0.014336922 -0.006147629 -0.04799354 -0.008716616
000180 a6 a6 14 3c 07 9e 80 3c da 6c d0 bc 39 2a 47 3c
       0.009072935 0.015700353 -0.02544253 0.012156063
000190 35 02 be bc 82 dd b2 3c 1a 13 d4 3c 8d 5d be bc
       -0.023194412 0.021834139 0.025888015 -0.023237968
0001a0 96 c4 d5 3b 00 88 57 bc 7c ac 73 3c 6e a9 8f bb
       0.006523679 -0.0131549835 0.014872666 -0.0043842113
0001b0 7c 0a 74 bb 49 0a ab bb 87 80 e7 bc e3 3c 62 3c
       -0.0037237694 -0.005219732 -0.028259529 0.013808462
0001c0 be 0e be 3c 47 5f 95 3b 9e 4f a0 3c 84 85 de 3c
       0.023200389 0.004558477 0.019569214 0.027163275
0001d0 f8 b0 06 3c a2 3f a8 bc a2 8f ff 3a 15 bd 0e bd
       0.008220904 -0.020538155 0.0019497762 -0.03484829
0001e0 42 a1 fd bc ca 0c e1 3b 71 c5 73 3d 14 33 7f 3c
       -0.030960683 0.0068679797 0.059514467 0.015576143
0001f0 8f 5f a3 3c 64 9a 2d 3d 91 07 a9 3c cf f2 ea bc
       0.019943027 0.042383566 0.02063349 -0.028680233
000200 71 d5 f7 3c 2f b9 0a 3d 74 24 b2 3c 84 d7 2f bc
       0.030253144 0.03386801 0.021745898 -0.010732535
000210 8d b1 9c 3c 06 5b a2 3c 14 ac 34 3c 32 e1 b1 bc
       0.019127632 0.019818794 0.011027355 -0.021713827
000220 7f cc 88 3c 6b 88 80 3a 38 2b 2b bd 40 9d 9e bc
       0.016699074 0.0009806281 -0.041789263 -0.019362092
000230 4f 51 23 bb 31 07 42 3c aa 11 70 3b bd 3a bf bc
       -0.002492029 0.011842535 0.0036631622 -0.023343438
000240 24 d2 82 bc df e4 42 bd 18 93 c9 bb 80 bc 90 3c
       -0.015969343 -0.04758155 -0.006151568 0.017668009
000250 fc c6 cf ba 3b 0b d9 ba 27 89 34 bc 40 a1 18 bc
       -0.0015852149 -0.0016559133 -0.011019028 -0.009315789
000260 8f ea 5b bc 65 5c 3b bc 11 fe a2 3c b2 32 5d 3a
       -0.013422622 -0.011435603 0.019896539 0.0008438035
000270 85 81 ce bc c7 36 8f bd 7e f3 ee bc d3 c4 a7 bc
       -0.025208244 -0.0699287 -0.02916884 -0.020479595
000280 89 9b 52 bc d7 f1 27 bc 29 87 5e bd a3 ac 72 bd
       -0.012854465 -0.01025053 -0.054328118 -0.05924667
000290 3d a8 f2 bc 26 14 3e bc 11 d0 18 bd f0 bf ea bc
       -0.029621238 -0.011601483 -0.037307803 -0.028655976
0002a0 e3 15 be 3c 71 c7 94 bc 7b d5 0a bd 72 23 8e bc
       0.023203796 -0.018161507 -0.033894997 -0.017350886
0002b0 b1 6f 1a bd cc 5a d7 3c 3b 82 5a bc 3c 1d 02 bd
       -0.037704173 0.026288413 -0.013336713 -0.03176616
0002c0 e0 d5 fe bc 76 a1 b8 bc c0 11 52 bc 5c 6d 0d bd
       -0.031107843 -0.022537928 -0.012821615 -0.03452812
0002d0 62 9a 52 3c e1 1c 99 3c 73 f3 71 bc 2c 0e 29 bd
       0.012854191 0.018690528 -0.0147675155 -0.04127328
0002e0 96 b8 d3 bc 89 96 a5 bc 35 ae 6a bd a5 3b 9e bc
       -0.025844853 -0.020213382 -0.057295043 -0.01931555
0002f0 03 46 36 bc 0a c0 c6 bc cd 4b 78 bb ac 09 1c 3b
       -0.0111250905 -0.024261493 -0.0037886978 0.0023809476
000300 fd dc 7c 3c e6 74 fd 3b a3 80 88 39 41 43 e5 bc
       0.015433547 0.0077348826 0.00026035783 -0.02798617
000310 a2 a5 9d bc bc 2a 3a 3c aa 66 16 3c d5 90 16 3d
       -0.019244019 0.011362728 0.00917975 0.036759216
000320 51 4c c2 3c f3 7e 1d bb fb 4a 38 ba fb e3 8b bc
       0.023718031 -0.0024031966 -0.0007030216 -0.017076483
000330 55 d1 47 bc 86 5a 0f 3d 24 ec cf 3b 6f 41 ac 37
       -0.012195905 0.03499844 0.006345289 2.0534468e-05
000340 6a 05 22 bd 6a cd 34 3c 5c f0 1b bc 66 8e f4 bc
       -0.039555945 0.011035303 -0.009517755 -0.029853057
000350 0b 44 4c 3d 3e e6 43 3d 0d 4b bb 3b 0d 59 12 bd
       0.04986958 0.047826998 0.005715734 -0.035729457
000360 d9 5b f2 bc d5 40 b0 bb 7f 98 4c bc e3 52 1f 3d
       -0.029584812 -0.0053788223 -0.01248753 0.038897406
000370 79 c0 06 3d 37 6c 31 3d 60 a5 96 3c 5e 10 db 3b
       0.0328984 0.043316092 0.018389404 0.0066853007
000380 8a 8c 12 3d 53 46 3a bb 8b e1 18 3d d9 32 82 3c
       0.03577856 -0.0028423264 0.03732447 0.015893387
000390 29 d6 ab 3c f8 c2 17 3c 42 55 42 3a 66 4c d5 bb
       0.020976143 0.009262793 0.0007413217 -0.0065093515
0003a0 1d 8b bd 3b fe 8f 5e 3a 9b 9b 19 3d d4 7d 88 bc
       0.005784406 0.00084900844 0.037501913 -0.016661562
0003b0 3c 46 70 bd 3a ad 23 bd 81 88 65 bb 1b 4f 59 ba
       -0.05866073 -0.039960124 -0.003502399 -0.00082896807
0003c0 b8 5d b8 bc f1 e4 35 bd ba e4 7f bd c1 72 e9 bc
       -0.022505626 -0.04440779 -0.06247399 -0.028497102
0003d0 c6 a2 9b 3b 27 9d 8e 3b b3 f3 a9 bc 5f e3 3f bc
       0.0047496287 0.00435223 -0.020746088 -0.011711924
0003e0 ad d8 0c bc c7 31 79 3b c2 b9 f9 bc e7 d6 9e bc
       -0.008596581 0.0038024054 -0.030484084 -0.019389583
0003f0 ee 51 91 3b 06 59 c9 3c fd bc 85 3c 0e 13 69 ba
       0.0044348156 0.024578582 0.016325468 -0.0008891084

bias f4 [128]
000000 8c c6 ba 3c d9 03 a8 bc 38 3a df 3c f4 2c 98 bc
       0.022799753 -0.020509647 0.02724944 -0.018576123
000010 50 d9 2a 3c 8c 5d 59 bc 80 d0 9a bc 8d 92 a0 3c
       0.010427788 -0.013266932 -0.018898249 0.01960113
000020 bb 1c 61 3c 56 3b ce bc db df 7f 3b f7 d6 33 bc
       0.01373976 -0.025174778 0.003904334 -0.010976545
000030 12 f1 76 bc 85 54 ba bc 1d 28 d9 ba a7 eb f5 3b
       -0.015072124 -0.02274538 -0.0016567741 0.0075048986
000040 42 e3 ad 3c 0c fd 93 bc 63 bf 81 3c f7 68 e6 3b
       0.021226529 -0.018064998 0.01583833 0.0070315558
000050 5c b2 7a bc 3c a6 d8 3a ba fd db 3c be a1 91 3c
       -0.015301313 0.0016529034 0.026854385 0.01777732
000060 ac 34 d1 bc 11 4b 55 bb 14 eb 92 3c 89 1d c6 3c
       -0.025537811 -0.0032545964 0.01793436 0.024184005
000070 3d 04 9f 3b a8 55 95 3b c0 9d 66 3b e5 50 89 bc
       0.0048528 0.00455733 0.0035189241 -0.016762206
000080 0a 04 76 3b 50 08 48 3b a4 7c 65 ba 42 3e b2 3c
       0.0037539029 0.0030522533 -0.00087542296 0.021758202
000090 e0 03 b0 bc f7 76 82 3c 80 c5 d7 3b 82 4d 6e bc
       -0.021486223 0.015925867 0.006584823 -0.0145448465
0000a0 07 77 b5 bb fc 24 eb b9 cc 6e 31 bc c9 ad 6e 3c
       -0.005537871 -0.00044850248 -0.010829639 0.014567801
0000b0 bd a6 d0 bb ca de e0 bb d5 e2 db 3b c8 5d 44 3c
       -0.006367533 -0.006862496 0.00671039 0.01198525
0000c0 7f 01 a9 3c 7a e1 61 bb c6 d7 64 bc 99 70 ac bb
       0.020630596 -0.003446667 -0.01396746 -0.005262446
0000d0 6d 88 a3 3c 21 5d 8c 3c 27 c1 fa 3b a3 3a 33 3c
       0.019962514 0.017134251 0.00765242 0.010939273
0000e0 32 10 f9 3b bf 8c 4b bc 65 25 73 bc 1c 47 bb 3c
       0.0076008076 -0.012423693 -0.0148404585 0.022861056
0000f0 4d c5 ab 3b 84 1a bb 3c 45 a6 29 bc 5f ad df bb
       0.005242026 0.022839792 -0.010354583 -0.0068260874
000100 12 b5 9d bc 9b 80 2a 3c 3e 7a 4d 3c e8 0d 35 bc
       -0.01925138 0.0104066385 0.012541352 -0.011050679
000110 8c ae 20 bb 79 77 64 3c db 68 4d bc 14 f0 5e bc
       -0.00245181 0.0139445 -0.0125372065 -0.013607044
000120 28 a8 52 bc de ad 92 bc c9 8b 4e bc 83 ff 10 bc
       -0.012857474 -0.017905172 -0.01260657 -0.008849981
000130 f4 2c 5f 3c 7a 88 c7 bc ec a1 6e 3c 5e 82 ee 3c
       0.0136215575 -0.02435707 0.014564972 0.029114898
000140 ab 08 bd bc f2 de 03 bc d8 95 be ba b1 e6 93 3c
       -0.023075422 -0.00804876 -0.0014540507 0.018054338
000150 ff 52 8a 3b 37 7f 7d 3c 9e 0e 67 bc b0 46 9b bb
       0.0042213197 0.015472225 -0.014102606 -0.004738651
000160 45 53 05 3b ed c7 90 ba 8a 36 1e ba 35 00 2a 3c
       0.0020343822 -0.0011045911 -0.00060353486 0.010376026
000170 ed 28 b0 3c 34 37 3f 3c 3b de 26 bc 84 29 71 3c
       0.02150389 0.011670876 -0.01018482 0.014719371
000180 83 6e e4 bc 0a 46 84 bc 6b 6a 23 bc 16 cc 18 3b
       -0.027884727 -0.016146678 -0.0099741025 0.0023315004
000190 97 49 0a 3c 4d 0a 89 3c c5 ae a7 3c a9 9f 0d bc
       0.008440397 0.016728545 0.020469079 -0.008644023
0001a0 31 99 a8 bc 08 6f 1d 3c 0e 2a 2d 3c 23 17 06 bc
       -0.02058086 0.009608991 0.010569109 -0.008184227
0001b0 33 fc 05 b9 1c 33 55 3c 64 f0 c3 3a 17 21 44 3c
       -0.0001277782 0.013012674 0.0014948961 0.01197078
0001c0 1b 97 46 3b b5 3d 2e 3c 26 e3 3a bc ab fe c7 bc
       0.0030302468 0.010634829 -0.0114066955 -0.024413427
0001d0 45 2c ff bc 9f 12 86 bc 88 35 23 3c 3b 2e 1a bc
       -0.031149039 -0.016366301 0.009961493 -0.009410436
0001e0 f6 52 1a 3b eb 6f 22 bc a0 53 6c bb 0a b6 93 3c
       0.0023547984 -0.009914379 -0.0036060587 0.018031139
0001f0 a4 f7 15 3c 66 93 86 bb a2 05 b3 3c 4e 65 9d 3b
       0.00915328 -0.0041069267 0.021853272 0.004803336

weight f4 [64, 128]
000000 ac 3f 86 3d 14 b0 28 3e 0c 68 2f be 6d c3 0b 3d
       0.06555113 0.16473418 -0.17129534 0.03412192
000010 d6 96 8d bb 5e 49 4c bd 3d e4 56 bd 53 73 24 3e
       -0.0043209596 -0.049874656 -0.05246376 0.16059618
000020 48 f1 49 bd a2 67 61 bd 37 58 a9 3d 93 b1 fa 3d
       -0.04930237 -0.055030473 0.08268779 0.12240901
000030 e2 16 ad bd da 94 94 3d 60 a5 2e bc 29 92 b2 bd
       -0.0845163 0.07254954 -0.010659546 -0.08719284
000040 7f 93 24 3d 55 88 e5 3d f2 c6 bf bc 5e d8 b4 3d
       0.040179726 0.11207644 -0.023410294 0.08830331
000050 35 cc 04 bd 6c 2a 06 3d 7c be ca bd 0c 1d 1f 3d
       -0.03242131 0.0327553 -0.09899613 0.03884606
000060 86 92 49 bd 1a e3 45 bd c0 38 fa bd a1 7e cd bb
       -0.049212 -0.048312284 -0.122178555 -0.006271199
000070 01 33 c0 3d ab 5f 75 bc 14 90 cd 3d 82 c1 5f ba
       0.09384728 -0.014976422 0.10037246 -0.000853561
000080 01 f1 e0 bd 8c e9 40 3c 67 23 3f 3c 0a 5f 0b bd
       -0.10983468 0.011774432 0.011666155 -0.034026183
000090 3f e6 ef 3d 2f 9b c1 3d 59 d1 fd bc 75 1d 6a bd
       0.11713838 0.09453427 -0.030983614 -0.057157
0000a0 d1 ea 18 bd 33 97 a0 3d 16 2e b2 bd 73 aa cc 3d
       -0.037333313 0.07841339 -0.087001964 0.09993448
0000b0 62 e3 f4 3d e1 f5 01 3c 1e ab af 3d 41 7a 70 3b
       0.11957432 0.007932157 0.0857756 0.0036693963
0000c0 88 d1 01 3e e6 b0 41 bd e8 1a ee 3c 09 1c 9c 3d
       0.12677586 -0.047287844 0.029065564 0.07622535
0000d0 f5 ed b1 3d 35 9b 71 3d eb 2f 74 bc 9f 80 2e 3a
       0.08687965 0.058985908 -0.014904003 0.0006656739
0000e0 c9 ac b6 bd 40 c5 ed 3d e7 03 b2 bd 4b 81 98 3d
       -0.08919675 0.11609888 -0.086921506 0.07446536
0000f0 d6 ba cb 3b b1 0e 5d bd be be f4 3d f1 8b 18 be
       0.006217341 -0.05396909 0.11950444 -0.14897133
000100 97 23 0b 3c cf 73 0a be 11 6e 44 3d 0e 08 e6 3c
       0.008492372 -0.1352074 0.04795653 0.028080013
000110 c3 d5 b8 bd 09 99 a5 bd 35 da a0 3d 31 d0 09 bd
       -0.09025147 -0.0808583 0.0785412 -0.033645812
000120 a0 7f 9a bd c1 81 85 bd e3 20 91 3c 63 95 12 3d
       -0.07543874 -0.06518889 0.017715877 0.035786998
000130 23 5e 67 3d e3 7d 20 3d f1 28 d0 3b 0b 3e a7 3d
       0.05648626 0.039182555 0.006352537 0.08166131
000140 63 94 e9 bc 30 50 b0 bb 7c 79 c3 3d 79 cc f9 bb
       -0.02851314 -0.005380653 0.09544656 -0.007623252
000150 db f3 01 3d 9b 2e 83 3d bf 57 30 be b4 59 cf bc
       0.0317267 0.06405374 -0.17220972 -0.025311328
000160 b8 00 d3 3d e2 5f a7 3c 5e 39 6e 3d b9 c4 d1 3d
       0.103028715 0.020431463 0.05816018 0.102426
000170 7e 39 27 bd 7b e2 5a 3d 77 91 fb bc 75 5e 22 bd
       -0.040826313 0.053438645 -0.030709011 -0.039640862
000180 ec 28 8b 3c de ed 3d 3d 89 95 dc 3c 70 38 a8 3d
       0.016987287 0.046369426 0.026926773 0.082138896
000190 44 43 d6 bc be 3a a6 bd a1 48 c6 bd 1a 4a b0 3c
       -0.026155122 -0.08116673 -0.096818216 0.02151971
0001a0 f2 16 51 3d 49 2f d0 3d bb 0f cc 3d 26 4e b9 3b
       0.051047273 0.10165269 0.09963938 0.005655068
0001b0 a6 f8 0d 3e c1 8c c0 3d 95 b7 44 bd 90 73 3d 3e
       0.13864383 0.09401847 -0.04802664 0.18501115
0001c0 89 f2 eb bd 49 00 2e bd 90 e0 b3 bd de 50 f0 3c
       -0.11520869 -0.04248074 -0.08783066 0.029335435
0001d0 87 be 32 3d 06 2e 9f bc ff ee 31 bd a3 a9 12 3e
       0.043638732 -0.019431125 -0.043440815 0.14322524
0001e0 a1 c0 b1 bd 2e b6 d1 bb 8a 48 5c 3d 70 45 41 3d
       -0.08679319 -0.0063998913 0.053780116 0.04718536
0001f0 04 cf d9 bb 5a bd 00 be 11 01 97 3d f0 d5 8c 3d
       -0.0066469926 -0.12572232 0.0737325 0.06876743
000200 3a f8 11 bd ba 9d ae bd 98 9a 4f 3d d4 2b 9e bd
       -0.035637118 -0.08526178 0.05068454 -0.07723203
000210 5c df a3 bd 4b 94 19 bd be a0 06 bd 31 94 f8 3c
       -0.08001587 -0.03749494 -0.03286814 0.0303441
000220 73 0e 56 3d 15 7e 5f 3d b6 d9 8e 3d 2f bd 55 bd
       0.052259874 0.0545636 0.06975119 -0.052182373
000230 53 67 4d 3d 4a e5 97 3d 7d 40 c1 bb 54 64 de bd
       0.050147366 0.0741678 -0.00589758 -0.1085898
000240 fb 1c 60 bc 94 c2 92 3d 49 8b e2 bd 40 c4 6f 3c
       -0.0136787845 0.07166019 -0.11061723 0.014634192
000250 bf 15 10 3c d7 0e 61 ba d4 8b 88 3d 2a 01 f4 bc
       0.008794247 -0.000858528 0.06667295 -0.029785711
000260 6e f8 3b bc 6f 95 3a bd 0f 97 86 bd 14 f1 45 bc
       -0.0114728045 -0.045552667 -0.06571781 -0.012081403
000270 17 13 8c 3d 79 d4 9e 3d 8b 35 27 3d 67 c5 ce bd
       0.068395786 0.0775537 0.040822547 -0.10096245
000280 fa 69 f7 bd b9 7e 5b bd 1a 12 0b bd 93 89 3d 3c
       -0.1208076 -0.05358765 -0.03395281 0.011568445
000290 57 6e b6 3d 64 46 9c bc 08 6d 18 bd 88 5f 8f bc
       0.089077644 -0.019076534 -0.037213355 -0.017501608
0002a0 3b 25 b1 3c 00 dd 7b 3d 9b 63 b2 3c 5e 69 de 3d
       0.021624198 0.06149006 0.021776011 0.10859941
0002b0 21 27 ab 3d 66 ae 70 bd 5c bc 42 3d c6 23 57 bd
       0.083570726 -0.05876007 0.047542915 -0.05252435
0002c0 5b 12 15 3d a3 2b 0e 3e 11 fe a0 38 ee 85 bd bd
       0.03639446 0.13883834 7.676718e-05 -0.09254061
0002d0 3e a5 da bd ca 43 01 3d 3c 06 cf 3b c1 fc 79 bd
       -0.10676049 0.03155879 0.006317882 -0.06103206
0002e0 93 49 a1 3d 43 12 c1 3c b0 64 17 3e 81 a2 5a ba
       0.07875361 0.023568278 0.14784503 -0.0008340255
0002f0 bc 91 a4 bc cf 20 6d bc d0 96 e1 bd 3c 73 15 bd
       -0.020089023 -0.014473154 -0.11015093 -0.03648685
000300 50 04 c3 bc b6 ce 61 3b 43 46 8e 3d 1d 05 6f bb
       -0.023805767 0.0034455485 0.06946995 -0.0036471554
000310 b8 60 41 3c a5 c4 f6 3c b9 82 bd bc b0 60 33 3d
       0.011802845 0.030123064 -0.023133622 0.04379338
000320 a3 44 ca bd ba 19 a7 3c f6 08 55 bd d5 3f 47 3d
       -0.09876373 0.02039801 -0.0520105 0.04864486
000330 9e 47 12 bd 1c f4 c2 3b e3 fb a6 bc 3d 47 b4 3d
       -0.03571283 0.0059495103 -0.02038378 0.0880265
000340 87 49 71 3d dd fa 9d 3d 93 08 62 3c eb bb ce bc
       0.05890801 0.07713864 0.01379599 -0.02523609
000350 17 43 81 bd d4 a0 c0 3d be fd c1 bd 18 72 27 3d
       -0.063116245 0.094056755 -0.094722256 0.040880293
000360 f7 63 15 bc b7 d0 8b bd e1 fe 9b bc e4 5f 73 3d
       -0.009118072 -0.068269186 -0.019042434 0.05941762
000370 e2 d1 3b 3d 8d d8 98 bd 8d a4 12 3c 00 da 7c 3d
       0.045854457 -0.07463179 0.008950365 0.06173134
000380 35 c0 ce bc 06 50 ee 3c c8 7a e8 3c 1b 4a 7f 3d
       -0.025238136 0.029090893 0.02837886 0.06232653
000390 5c 18 73 bd 61 1b fd bc e7 f9 3e 3d f6 31 58 3d
       -0.059349403 -0.030896844 0.046625044 0.05278202
0003a0 bb ec 4a 3d 63 b2 ee bc d3 d8 4c 3d 7d d0 84 3d
       0.04954217 -0.029137796 0.050011467 0.064850785
0003b0 2e cd b9 3d 37 e8 56 bd 7d d3 c3 bd 5b 65 87 bd
       0.09072338 -0.05246755 -0.095618226 -0.06611129
0003c0 c7 8b f9 3d 98 c6 56 3d 83 c4 33 3d 1a fc d2 3c
       0.121848635 0.052435488 0.04388858 0.025754977
0003d0 54 d8 b3 3c f2 49 26 bd d3 d3 db bc ef a4 da bd
       0.02195374 -0.040597863 -0.026834404 -0.1067599
0003e0 9a a5 7f 3c da 7d f5 3d e2 76 d3 bc 36 72 c2 3d
       0.015603447 0.11986895 -0.025813524 0.0949444
0003f0 54 af a2 bc 2b d6 2f 39 25 e7 3a 3d a8 0f 93 bd
       -0.019858994 0.00016769084 0.045630593 -0.071807206

bias f4 [64]
000000 77 41 06 bd 7f cf 21 3d 8a 85 66 3d b5 05 af 3d
       -0.032777276 0.039504524 0.056279697 0.085460104
000010 5d 86 9c 3d e3 0e 8b bd 67 d7 b0 bc d4 69 62 bd
       0.07642815 -0.06789949 -0.021587087 -0.055276707
000020 b6 ef ea 3c 33 2f 86 bc 1e a6 7c bd 3d 65 14 bd
       0.028678756 -0.016379928 -0.06168186 -0.03622936
000030 9b 9e f0 bc bd 45 f7 bc 2b e6 34 3d ca c8 88 3d
       -0.029372504 -0.030184621 0.044164818 0.066789225
000040 e1 a3 36 bd 8e ce c0 3d 9c 68 73 bd 51 31 00 bd
       -0.04458988 0.09414397 -0.059425935 -0.03129703
000050 51 aa 1d 3d 33 e8 02 bd 68 0d 8d bd f0 e5 18 bd
       0.038492505 -0.031959724 -0.06887323 -0.03732866
000060 28 63 3b 3d a2 36 81 3c 4c d8 2c bc 58 b6 34 3d
       0.04574886 0.015773121 -0.010549616 0.04411921
000070 0f 76 41 bd ed e1 a2 3d a8 c4 ad bd 54 99 f2 3c
       -0.04723173 0.07953248 -0.08484775 0.029614128
000080 74 40 80 bc bf 73 1d bd 89 de 13 bd e5 ec b5 3d
       -0.015655734 -0.038440462 -0.036100898 0.08883075
000090 19 61 71 bd 5b 1c 8b 3b d3 61 8b 3b dd 96 5f bd
       -0.05893049 0.0042453236 0.004253605 -0.054587234
0000a0 0e 6f 6c bd 55 04 33 bd e0 09 76 3c c9 a4 c1 3d
       -0.057723098 -0.043705303 0.015017003 0.094552584
0000b0 ea a4 a6 3d d9 9a 1b 3d be 19 95 3d ea a8 ab bc
       0.081369236 0.03798947 0.072803006 -0.020954568
0000c0 c5 1b 9b bd 36 cc 14 3d 26 0b 78 3d d1 31 c4 bc
       -0.07573656 0.036327563 0.060557507 -0.023949536
0000d0 ad d3 14 bd ad a0 57 3d 32 73 3b b9 4a 15 a1 3d
       -0.036334682 0.052643467 -0.00017876623 0.07865389
0000e0 21 7c 48 bc 73 42 67 3c fa 7a 86 3c 8e b7 d3 bc
       -0.012236626 0.014114964 0.016416062 -0.025844362
0000f0 11 50 5b 3c 05 8e 10 bc 14 7e 6f bc ef e5 c7 ba
       0.013385789 -0.008822923 -0.014617462 -0.0015251021

weight f4 [10, 64]
000000 b8 5d d3 3e 2b 80 8e 3c 28 03 08 be ce ac 48 3d
       0.4128244 0.0173951 -0.13282454 0.048992924
000010 4c e5 08 3f 9c 38 b6 bd d6 71 72 be a5 22 ba bc
       0.5347488 -0.08897516 -0.23676237 -0.022721598
000020 c4 f2 b8 3c 13 43 4e 3d fe e4 7e bd fb fb b2 be
       0.022576697 0.050356936 -0.062230103 -0.3495787
000030 3f 98 dd 3d 32 08 51 3d c4 40 1f bd e9 3b 2f 3e
       0.10820054 0.051033206 -0.038880125 0.17112698
000040 ec fb fc 3c 09 2c 96 be 53 62 48 bc 0a bf b6 3d
       0.030881844 -0.2933047 -0.012230474 0.089231566
000050 37 df b1 3d f8 3c 4c be ea 4e 69 be 3d 1a ed bd
       0.08685153 -0.19945133 -0.2278401 -0.1157727
000060 54 f0 58 3e 1a 0c 19 3d 8c 95 06 bd 97 08 d8 bd
       0.21185428 0.037365057 -0.032857463 -0.105485134
000070 e4 62 88 3e 35 d7 c6 be 21 03 a5 3d 84 ac cf bb
       0.26637948 -0.38836065 0.080572374 -0.006337704
000080 63 46 92 3e 41 30 4a 3d b7 cb 5b 3d c3 aa 46 3e
       0.28569326 0.049362425 0.053661074 0.19401078
000090 44 42 1f 3e 6c ae 83 be b8 11 27 3d 4d 86 45 3d
       0.15552622 -0.2571901 0.040788382 0.048223782
0000a0 da 7a 3c bd a3 a8 7d be ad 2b 02 be b3 3c cc 3e
       -0.046015598 -0.24771361 -0.12711973 0.3989006
0000b0 9d 49 9b 3e fe 92 dc 3c 64 21 ae 3c 73 ec ba 3d
       0.303296 0.02692556 0.021256156 0.0912713
0000c0 5d 62 55 3e 92 4b 8b be 76 da fd bd 2a 19 a2 be
       0.20838304 -0.27206093 -0.12395184 -0.31659824
0000d0 5b 3f bf 3c ff 01 96 bd 8c c6 38 3e fa 75 97 bb
       0.02334564 -0.073245995 0.1804449 -0.004622218
0000e0 f5 e9 ae bc 04 bf 27 bd 7c 7e fa bc d0 eb d6 bd
       -0.021351794 -0.04095365 -0.03057789 -0.104941964
0000f0 08 aa a8 3c 6e e0 35 3d 02 d0 3d be de 08 26 3e
       0.02058889 0.044403486 -0.1853638 0.1621432
000100 2c a2 68 be 8a cd 26 3e 5b dd 94 be d7 0b 66 3e
       -0.22718114 0.16289344 -0.2907513 0.22465454
000110 c3 72 9b 3d e9 3b 5d be 86 52 90 3e e4 7b b3 3b
       0.075902484 -0.21604885 0.2818796 0.0054774154
000120 50 56 fe 3d ce d2 c8 3e d8 05 09 3e 89 bc e3 bc
       0.124188066 0.3922333 0.13381135 -0.027799862
000130 dd 62 81 bd 99 96 09 bd 72 d7 bb 3d 84 e7 af be
       -0.06317685 -0.033590887 0.09171952 -0.3435632
000140 1d 92 b8 3e 95 88 00 bd be 7d 52 3e e7 22 ee bd
       0.36048976 -0.031380255 0.2055578 -0.11627751
000150 73 8b ba bd d2 f7 f7 bc f5 90 f2 be 2e a7 4a 3e
       -0.09108629 -0.030269537 -0.47376218 0.19790336
000160 49 23 25 3e c8 8e 8a 3d 59 a1 fa bc b7 d5 a2 3e
       0.16126741 0.067655146 -0.030594515 0.31803676
000170 c8 94 8f bd ea 9e b3 3e 72 8a 1c 3b 4c 77 f6 bd
       -0.070108 0.3508218 0.002388623 -0.12034473
000180 bc b0 f9 bd c7 62 6a bd 91 5c 12 be de 24 6d 3d
       -0.121919125 -0.057223108 -0.14293124 0.057896487
000190 a8 2e 62 bd 06 c9 aa 3d 1f 58 9b bd ac d7 9a bc
       -0.055220276 0.083391234 -0.07585167 -0.018901668
0001a0 fe 87 90 3e bb 6b 8c be 9e 20 23 3e 4e dc 65 3d
       0.28228754 -0.27425942 0.15930411 0.056118302
0001b0 21 f9 b7 be ab 96 7c 3d 9c 0c c9 3b 47 28 b4 bd
       -0.35932258 0.061667126 0.0061355364 -0.08796745
0001c0 0f 76 5a 3e 4e 6c 35 bd ec 46 2e bd c3 20 f7 3b
       0.21334098 -0.04429274 -0.042548105 0.0075417473
0001d0 63 e0 80 3e 78 de 6d be f7 91 a0 be c4 a9 7e 3e
       0.25171193 -0.23229396 -0.31361362 0.24869448
0001e0 81 0b f2 bc bf 76 83 3e ea 19 6c 3d 63 5b bd be
       -0.029546501 0.25676534 0.0576419 -0.36983785
0001f0 55 43 01 be 96 ee 45 3d 0c 28 33 3e 1d 94 5b bd
       -0.12623341 0.048323236 0.17495745 -0.05360805
000200 81 d8 50 3e c0 23 8a 3e 62 7f 6c be 15 e1 b7 bc
       0.2039509 0.269804 -0.23095468 -0.022446195
000210 79 c7 a0 be e3 c3 40 3e dd c8 92 3e 97 5e 22 3d
       -0.31402186 0.18824725 0.28668872 0.03964099
000220 c6 d9 3b be 4c 64 1a be d3 e4 35 bd 8d 23 73 be
       -0.18344793 -0.15077323 -0.044407677 -0.2374403
000230 32 18 de 3d 9c ce 08 bc 75 62 a6 bd 0c 4e 43 bc
       0.10844459 -0.008350041 -0.08124248 -0.011920463
000240 dc 7a 8f be fd 55 46 bd 1d 8d 1f 3e 37 91 e8 3d
       -0.28023422 -0.04842185 0.15581174 0.113558225
000250 57 fb 36 3e 0d fe 96 3d 66 37 a6 bd db 2a f2 3c
       0.17869316 0.07372675 -0.08116035 0.02956145
000260 65 0e e4 3e f5 ea 68 be a9 06 45 be 6a 9b 57 be
       0.44542232 -0.22745879 -0.19240822 -0.2105538
000270 58 93 19 3c c5 6d 32 be 4d 21 c5 3c 74 9c b2 3e
       0.009373508 -0.17424686 0.02406373 0.3488499
000280 f1 75 cd bd e8 fe 02 be 62 24 92 3e e5 18 7a be
       -0.10032261 -0.12792552 0.28543383 -0.24423559
000290 58 5b 98 3e 3a 98 fc 3d b5 d2 ad bd 7f 52 8d 3c
       0.2975719 0.123337224 -0.08487455 0.017251251
0002a0 6c a1 5a 3d 5f 11 1a be db 64 dc 3e fd d0 a3 be
       0.0533766 -0.15045689 0.43045697 -0.31995383
0002b0 b2 9b 72 be 47 22 b3 bc dd 42 44 3c 08 03 37 bd
       -0.23692206 -0.02186693 0.011978832 -0.044680625
0002c0 ac 9f 1f be 17 f0 b1 bd e8 4a a5 bd a2 52 1f be
       -0.15588254 -0.08688372 -0.08070928 -0.15558866
0002d0 f6 fa 1c 3e d5 ff f8 bc 71 6f c6 3e 94 09 50 bd
       0.15330109 -0.030395428 0.38756898 -0.050790384
0002e0 d9 c0 63 3d f3 5a 73 3c d5 2d 25 bd 05 11 90 be
       0.055603836 0.014853227 -0.040326912 -0.28137985
0002f0 cf 50 d4 3d 21 92 1d bd d6 86 22 bd 51 3d ec 3e
       0.103669755 -0.038469438 -0.03967937 0.4614053
000300 00 e8 d7 bd 66 9f b0 3b 79 e8 f7 ba af 4c 40 be
       -0.10542297 0.0053900955 -0.0018913887 -0.18779252
000310 5b 01 0b be 40 fc 89 be 5e 03 98 3e 7a 5c ef bd
       -0.13574736 -0.26950264 0.2969007 -0.116875604
000320 0f 3d 62 be 70 42 15 bd df 32 a7 be 4f aa f3 3e
       -0.22093605 -0.036440313 -0.32656 0.47590873
000330 a7 23 4d 3e 3c b7 ec bd 19 db 07 3e 66 09 57 3c
       0.20033132 -0.11558387 0.13267173 0.013124799
000340 59 72 1d 3e 54 65 e6 3e 91 ee 0c be 78 f8 ca bd
       0.15375651 0.44999182 -0.13762881 -0.09910673
000350 7b e8 3c 3c c7 4a 57 3a 2e cb e3 3d 5d 52 05 be
       0.011530037 0.0008212742 0.11122738 -0.130197
000360 38 d5 9f 3e 97 34 71 bc 16 b4 0d 3e 0e da 45 be
       0.3121736 -0.014722011 0.13838229 -0.19321463
000370 9b 3f 04 3e 2c a9 2c be e1 b3 c7 bd f5 b8 0e 3e
       0.12914889 -0.16861409 -0.09751106 0.13937743
000380 cb 41 84 bb ce 1d da bc 58 5a f0 bd ee 57 49 be
       -0.0040361634 -0.02662554 -0.11735982 -0.19662449
000390 a1 fe 92 3e 73 cb 2f 3e da d9 92 3c a7 09 e2 3d
       0.2870989 0.17167453 0.017926145 0.11036997
0003a0 a9 f8 a0 be b4 12 ae 3e 5e 02 2a bd b4 d0 6c 3b
       -0.31439713 0.33998644 -0.041506164 0.003613514
0003b0 39 90 d1 3d 42 fd a0 3c b0 15 7a bd 62 10 96 3d
       0.102325864 0.019652013 -0.06105584 0.073273435
0003c0 ea 73 8b be ff 81 ac be 21 8d 16 bc 16 5f cd bd
       -0.27236873 -0.3369293 -0.009188921 -0.10027902
0003d0 fe 34 42 3e 65 05 8d be df 35 aa be 2d 31 42 3e
       0.18965527 -0.27543178 -0.33244225 0.18964072
0003e0 3c 8e 4a 3d 42 68 ea bd 73 d4 12 3c 35 22 5b 3c
       0.04945205 -0.11445667 0.008961785 0.013374855
0003f0 0c 9e b3 3c 67 ce c2 bd b7 71 8e 3e df f3 ba be
       0.021925949 -0.095120244 0.27821133 -0.36514184

bias f4 [10]
000000 cc 37 8d bd 7b da 8a 3c ee 96 8e 3d 8e 1a 22 3d
       -0.06895408 0.016949883 0.06962381 0.039576106
000010 65 66 bd 3d 32 3f e6 bc fb 9c ed bd 72 f0 c3 3d
       0.09248046 -0.028106306 -0.11602207 0.09567346
000020 22 1c 41 3c 01 9d 0c 3e
       0.011786493 0.13731767
