mnist_inf_mj.pt (torch_old, 895615 bytes, 18 tensors)

conv1.weight f4 [16, 1, 5, 5]
000000 16 36 37 3d 6a a6 92 bb 66 0a 28 3e c8 23 51 3d
       0.044729315 -0.0044754045 0.16410217 0.051059514
000010 6f 9c f1 bc ba 01 9f bb f4 b1 6d 3d 42 15 ec 3d
       -0.029493539 -0.0048525007 0.058031037 0.11527492
000020 0f 49 24 3e 38 b7 75 3d e0 68 b0 bc d3 40 dd bd
       0.16043495 0.059989184 -0.021534383 -0.1080338
000030 f5 31 8f bc b3 39 3b 3d d4 9e ab 3d 31 15 45 be
       -0.017479876 0.045709323 0.083799034 -0.19246365
000040 98 31 7a bd 4e cf 90 3d c2 32 2b be fc 32 0d 3e
       -0.061082453 0.0707079 -0.16718581 0.1378898
000050 9f 9a b1 be b0 f1 aa bd 4d d2 49 3d a4 5f 40 3e
       -0.3468828 -0.083468795 0.049272824 0.18786484
000060 97 2b 82 3d d6 d9 c7 be 4e 2a d4 bc 8f fe 43 3e
       0.0635597 -0.39033383 -0.025899079 0.19140075
000070 34 5d 85 3e c3 4a a6 bd e1 8e 5f be ee d6 97 bd
       0.2604767 -0.081197284 -0.21831848 -0.074140415
000080 82 a4 03 3e b2 c3 89 3d ea 29 d8 3d 95 cf 35 be
       0.12855724 0.06726779 0.105548695 -0.17754968
000090 8d 81 0a be 24 8f 64 3d bd f0 14 3e f3 ae 8e bd
       -0.13525982 0.055800572 0.1454496 -0.06966963
0000a0 47 aa 4a be 50 67 28 be 00 bf e5 3b 5b ff 2f 3e
       -0.19791518 -0.1644566 0.0070112944 0.17187254
0000b0 b3 06 20 3e 8d 8e c2 bd ce 2b 62 be 09 03 7e be
       0.15627556 -0.09499846 -0.22087023 -0.24805845
0000c0 25 94 e9 bd a0 26 11 3e 1e 21 df 3d 74 21 93 bc
       -0.114052095 0.1417489 0.108949885 -0.017960288
0000d0 3f 76 94 be d7 86 1c be ac 6f 92 bc 0b 5b e3 bd
       -0.28996465 -0.15285812 -0.017875515 -0.111013494
0000e0 5e eb 38 3e 31 b4 37 be 8c 27 47 be 23 93 87 3d
       0.18058535 -0.17939831 -0.1944868 0.06619861
0000f0 35 ab 01 3e 07 06 d8 bc be 77 88 bd 70 cb 31 be
       0.12662967 -0.026370062 -0.06663464 -0.17362761
000100 ef 28 b9 bd 84 4a 1a 3d 9c 0d 75 3d 9b 1f ac b9
       -0.090410106 0.03766872 0.059827432 -0.00032829944
000110 86 4c 19 be 45 7f ab bd 85 83 00 3e 2b c9 93 3d
       -0.14970598 -0.08373884 0.1255017 0.07216104
000120 e2 06 88 bc 83 84 19 be b1 63 8c be 19 31 43 3b
       -0.016604844 -0.14991955 -0.27419809 0.0029783903
000130 12 0e 9f 3e 33 94 4c 3e f9 4f 69 3e bc b6 80 3d
       0.31065422 0.19978409 0.22784413 0.06284854
000140 18 78 5c be a8 10 05 bd c1 12 9c 3b e4 a8 b6 3d
       -0.21530187 -0.032486588 0.004762978 0.08918932
000150 fa 46 07 3e 22 d8 78 be 9c aa c7 bd 10 8d a2 bd
       0.13210669 -0.24301198 -0.09749338 -0.07937062
000160 6a 0d 85 bd 6b c8 88 3c b9 67 28 be 7a 45 e3 bd
       -0.06496699 0.01669713 -0.16445817 -0.11097236
000170 71 99 1c be 3d 62 15 be f9 d3 35 be f4 65 5b be
       -0.15292908 -0.14588256 -0.17756642 -0.21425611
000180 1a 22 84 be e1 38 63 be 00 fe 17 be 25 a7 b6 bd
       -0.25807267 -0.22189666 -0.14842987 -0.08918599
000190 56 b5 34 3e 8d 35 13 bd 27 18 3b 3e 93 f4 e0 3d
       0.17647299 -0.035939742 0.18270932 0.10984149
0001a0 46 a4 42 be 6b 69 7f bd 15 af 82 be 4b e6 8d 3d
       -0.19007978 -0.062356394 -0.25524202 0.069286905
0001b0 8e cd 2a 3e d3 d0 5f be e8 f1 8b 3c 3b ae 71 3d
       0.16679975 -0.21857004 0.017083123 0.05900405
0001c0 98 92 37 3e 8a 2b 0d bd d3 16 80 bd 23 f4 5f 3e
       0.17927015 -0.03446535 -0.062543534 0.21870475
0001d0 a9 b6 bf bd b6 af d9 3d 7a b7 da 3d 1f 53 2c be
       -0.093610115 0.10629217 0.106795266 -0.16828583
0001e0 08 f4 21 be b0 25 20 be ce 9a e6 3d 3f b3 de 3d
       -0.15815747 -0.15639377 0.112599954 0.10874032
0001f0 99 a3 f0 3d ca e0 63 bd d8 6b ae bd 99 84 a3 bd
       0.11749954 -0.055634297 -0.08516663 -0.07984275
000200 3b d6 81 bc a0 81 ee 3d 98 7e 54 3e a7 31 01 3e
       -0.015849223 0.11645818 0.20751417 0.12616597
000210 c2 95 3f 3e 7c 39 2c 3e b4 95 58 3e af ad 3c 3e
       0.18709472 0.16818804 0.21150857 0.1842563
000220 ba 95 37 3d 48 5f 0a 3e b5 f9 27 3e b6 87 ca 3d
       0.044820525 0.1351291 0.1640385 0.09889166
000230 e1 33 9d be ae 8c a3 3d 98 59 8e bd de 18 49 be
       -0.30703643 0.07985817 -0.069506824 -0.19638392
000240 ea 28 4a be 49 86 d2 bd 4a c7 96 be b4 c5 6c be
       -0.1974217 -0.10279519 -0.2944892 -0.23122293
000250 12 48 09 be ad 6e 1d be c5 7d 3d 3e 11 87 2e be
       -0.13406399 -0.1537425 0.18505009 -0.17043711
000260 06 68 a1 be 79 1a 84 be 3c 54 21 be e3 db 5c 3d
       -0.31524676 -0.25801447 -0.15754789 0.053920638
000270 4b c5 76 3e a2 83 61 3d 51 f9 34 be a4 94 46 bd
       0.24098699 0.055057175 -0.17673232 -0.0484816
000280 3e ba b3 3d 46 4a 62 3e 22 68 13 3e c6 df 8b 3e
       0.08775757 0.22098646 0.14395192 0.27319163
000290 ec d2 51 3e b8 67 27 be f7 db 90 3c af bb 68 3e
       0.20490617 -0.1634816 0.017683012 0.22727846
0002a0 d7 7d 9d bd 6a 6a f8 3d e2 4c 49 be 7c 8b 10 be
       -0.07690018 0.12129672 -0.19658235 -0.14115709
0002b0 04 31 43 be 2b 07 eb bd f3 47 ad bd eb 92 df 3d
       -0.19061667 -0.114759766 -0.08460989 0.10916694
0002c0 6a 17 d8 bb 20 06 ec 3d 34 9a 10 bd 7c 5d 11 bd
       -0.006594588 0.11524606 -0.03530331 -0.035489544
0002d0 53 c3 32 3b 7f 3d f2 3d 28 b7 32 3e 4b 31 b4 3d
       0.0027277067 0.11828136 0.17452681 0.087984644
0002e0 55 c6 9c be d4 45 04 bd 5d f3 5a 3e 98 0a e8 3d
       -0.30620065 -0.032293156 0.21381898 0.113301456
0002f0 30 90 92 bd 0c 96 29 be 01 81 ce 3d 52 cf 90 3e
       -0.07156408 -0.16561145 0.10083199 0.28283173
000300 4a 2f 95 3d 59 3b 77 be 69 a2 79 be 1f ec 2a bd
       0.0728441 -0.24143733 -0.24378361 -0.04172909
000310 84 ea 0f bc 22 30 92 be 7f 0f 44 be 80 56 7d be
       -0.00878394 -0.28552347 -0.19146536 -0.24740028
000320 05 6c 09 bd c9 b7 d8 bb a1 bd 1b be 22 e3 a2 3c
       -0.03355028 -0.006613706 -0.15209056 0.019883696
000330 e9 3b c1 3d 1b 96 75 3e 4d 01 32 be d1 41 0f 3d
       0.09435255 0.23983042 -0.17383309 0.034974877
000340 21 b8 98 be 7e e0 2d be 60 7c 4c 3d 48 b0 81 3e
       -0.2982798 -0.16980168 0.0499233 0.25329804
000350 28 ef 56 3c da 0a 46 be 69 2e 33 bc 72 6a 1f bd
       0.013118543 -0.19340077 -0.010936358 -0.038919874
000360 5d bd 80 3e 2e e1 4e 3e bd 41 2a be 15 07 75 be
       0.25144473 0.20203087 -0.1662664 -0.23928483
000370 a0 31 5e be d7 c8 0f 3d 56 0d 7e 3e 3e 65 e3 3d
       -0.21698618 0.035103645 0.24809775 0.11103295
000380 fc 75 a6 bd a6 db 80 3d 9e af 7b be 8b a5 b8 bd
       -0.081279725 0.062918946 -0.24578711 -0.0901595
000390 80 21 48 be 0e 35 11 3e ec e9 b5 bd b1 74 36 be
       -0.19544029 0.14180395 -0.08882508 -0.17817952
0003a0 f4 50 47 be 0a f0 9a bc b2 b6 59 3e 9c 1f 73 bd
       -0.19464475 -0.018913288 0.21261099 -0.059356317
0003b0 bd cf 58 bd 65 50 67 be dc b9 49 3e d2 d9 b2 3d
       -0.05293249 -0.22589262 0.19699806 0.08732952
0003c0 22 a8 aa bd af 64 9d bd e1 b7 d4 bd 5a 20 1b 3e
       -0.0833285 -0.076852195 -0.103866346 0.1514906
0003d0 f5 73 24 3e fa 9c 01 be e8 6a 93 be c4 df 59 bd
       0.16059859 -0.12657538 -0.287925 -0.053191915
0003e0 92 52 21 3e b8 72 ff 3d 52 77 a7 be ea 5c 4b bd
       0.15754154 0.12473053 -0.32708222 -0.049649157
0003f0 84 53 01 3d d6 53 0d 3e c0 1d 37 3e 55 8b 8c be
       0.031573787 0.13801512 0.17882442 -0.27450052

conv1.bias f4 [16]
000000 d6 bf 6d bc 93 93 09 be 96 75 1a be 04 e8 21 3e
       -0.014511069 -0.13435201 -0.15083918 0.15811163
000010 0c 32 a7 bc 72 6b 41 be 3a ca 19 be 8d 7b 19 3d
       -0.020409606 -0.18888643 -0.1501855 0.037471343
000020 6f b8 88 bd 71 4a 27 3e 2e 5c d7 bc ca 0f 40 3e
       -0.06675803 0.16336991 -0.026289072 0.18756023
000030 21 00 42 be 74 47 2d 3e bd c1 b0 bb fa 6d c7 bd
       -0.18945362 0.16921788 -0.005394189 -0.09737773

bn1.weight f4 [16]
000000 d5 20 2e 3f fd 60 8c 3f df b2 90 3f bf d3 9b 3f
       0.6801885 1.0967098 1.1304587 1.2173995
000010 96 56 15 3f fd 41 5a 3f b3 04 65 3f c9 0d 8a 3f
       0.58335245 0.8525694 0.89460295 1.0785457
000020 2b e5 79 3f 9f a1 83 3f 5d 7c a5 3f b4 8e a4 3f
       0.9761531 1.0283698 1.2928578 1.285605
000030 f6 42 57 3f b2 c3 18 3f 72 b7 46 3f 9d 73 87 3f
       0.8408655 0.5967361 0.77623665 1.0582157

bn1.bias f4 [16]
000000 99 5e 83 be 78 96 46 be e6 fa ef bc fa e2 13 be
       -0.2565811 -0.19393337 -0.029294442 -0.14442053
000010 7b 1c 97 be 1b 23 1a be 2f bd 3d be aa ac 89 be
       -0.29513916 -0.15052454 -0.18529199 -0.26889545
000020 ee 50 81 be 8e ee 3b be c8 87 4e be 1a 18 0a be
       -0.25257057 -0.1835272 -0.20168984 -0.13485757
000030 1e b2 6e bd c0 c7 78 be e3 2b 0f be 3c 9e 3b be
       -0.058275335 -0.24294949 -0.13981585 -0.1832208

bn1.running_mean f4 [16]
000000 71 ee ac 3c a6 8f 78 be 2f 4b a4 be b2 e3 0d bd
       0.021109791 -0.24273548 -0.3208861 -0.034640975
000010 fa 94 ab 3c 29 2f 5d be 9f f7 3c be 42 a0 10 bd
       0.020945061 -0.21600021 -0.18453835 -0.035309084
000020 85 5c c9 bd 43 8f 5d 3d f2 69 52 be 34 08 99 3c
       -0.098321 0.054091703 -0.20548227 0.01868067
000030 46 29 7c be 9b 9d c3 3e 4b 96 96 bc 77 17 7d be
       -0.2462512 0.3820618 -0.018382212 -0.24715982

bn1.running_var f4 [16]
000000 e8 b3 47 3d 79 cd fe 3d 3a 77 f6 3d de 6e 50 3e
       0.048755556 0.124415345 0.120344594 0.20354792
000010 48 b4 95 3c 52 ca b5 3d 3f f1 34 3d 92 a1 10 3e
       0.018274441 0.0887648 0.044175383 0.14124134
000020 05 db 30 3d 5e 28 10 3e c8 b0 2f 3e 67 b9 10 3e
       0.043177623 0.14077899 0.1715728 0.14133225
000030 cd 57 e7 3c b8 ed e9 3d f8 3f 01 3d 1d c1 ab 3d
       0.028240109 0.114222944 0.031555146 0.08386443

conv2.weight f4 [32, 16, 5, 5]
000000 da 5e 5e bd 91 02 c7 bc 9f f2 a0 bd 63 12 42 ba
       -0.054289676 -0.024293216 -0.07858776 -0.00074032525
000010 12 1d 13 bc 47 cb 40 bd 2d dc 3f 3b 50 3b 84 3d
       -0.008979099 -0.04706886 0.0029275522 0.064566255
000020 51 38 14 bc 3c c4 fc bc 66 da 33 3d 7e 2d 3c 3d
       -0.00904663 -0.03085529 0.043909453 0.045941822
000030 61 be 25 3c c2 bd 32 3b 7b 51 1d 3c b7 59 e2 3d
       0.010116191 0.002727375 0.009601946 0.11052268
000040 6e 51 cc 3b c1 eb f4 bb 4a f9 0c 3d d2 b0 a0 3d
       0.006235293 -0.007474393 0.034417428 0.07846226
000050 1f 34 90 3c 98 a3 b6 bb 2a 06 09 3d 7a f9 c2 3c
       0.017602978 -0.005573701 0.033453144 0.0238006
000060 8b 76 cc bc a4 5c ac bd c9 c7 13 bb 57 38 67 3d
       -0.02495887 -0.08416107 -0.00225495 0.056450214
000070 7f e5 0c 3d 36 c5 90 ba 58 ca 5b 3c 9c 89 78 3c
       0.034398552 -0.0011045102 0.013414942 0.015169527
000080 0c d4 93 3c 7a e1 93 3c f1 1d b9 bb af 0a 0d 3d
       0.018045448 0.018051852 -0.0056493212 0.034434017
000090 16 2c 13 bc ed 30 22 3d e5 a8 b5 bb a6 4d 90 bc
       -0.008982679 0.03959744 -0.0055438154 -0.01761515
0000a0 bf f5 a4 3d ac b5 59 3d 65 cf d8 3c a1 a4 10 bd
       0.08054685 0.05315177 0.02646608 -0.035313252
0000b0 da 13 51 bd cd 53 0d bb 3b 25 b6 bc 6f 60 89 bc
       -0.051044323 -0.0021564842 -0.02223455 -0.016769616
0000c0 d7 5e ff 3b 94 1e a7 3a d9 7d 97 bc 57 5d 05 bd
       0.007793288 0.0012750202 -0.018492626 -0.03255972
0000d0 ac cf 52 3d 2e 76 26 bd f4 ed 10 bd d5 55 43 bd
       0.051467583 -0.04064005 -0.03538318 -0.047689278
0000e0 73 80 61 3c a4 16 6a 3c f1 ad 5b 3d f7 32 77 3c
       0.013763535 0.0142876245 0.05363268 0.015087835
0000f0 81 b0 58 bd a4 0c 27 3d 21 0e b9 3c 67 da cc 3b
       -0.052902702 0.04078354 0.022589745 0.0062516215
000100 72 d6 29 3d b5 c8 ff bc 96 ed 36 bd 68 ca fa bb
       0.041464277 -0.031223634 -0.044660173 -0.0076535232
000110 dc 32 e0 3c 2d f8 c5 3c 33 e0 95 3c 1d 8d c1 bb
       0.027368002 0.024166191 0.018295383 -0.0059067146
000120 dc 7b 13 bd 5f f7 10 3c 10 20 1a ba fc 3e 23 bd
       -0.036006793 0.00884804 -0.00058794115 -0.03985499
000130 d5 6e 45 3c 10 d1 b1 3c a7 7d 79 bc 42 f7 9d 3d
       0.01205035 0.021706134 -0.015227712 0.07713176
000140 ae 24 21 3c e4 7c ff 3c 8a b0 77 3c af bf 4b 3c
       0.009835405 0.031187482 0.015117774 0.012435838
000150 1e 69 ce bc 16 79 e9 ba 8b 24 c3 bb 5d 48 56 3c
       -0.025196608 -0.0017812576 -0.005955284 0.013078776
000160 2c b7 4b bd eb d9 b9 3b 6a 43 94 3b 43 ec d6 bb
       -0.049735233 0.00567173 0.004524638 -0.0065589263
000170 0f 1c dc bc 9b 31 6e bd 01 53 48 bd bd b5 39 3d
       -0.026868848 -0.058152776 -0.048907284 0.045339335
000180 ff bf 64 b7 63 5b 43 bd ab 6e 64 bd 84 79 96 bd
       -1.3634562e-05 -0.047694575 -0.055769604 -0.07347396
000190 c3 8d c7 bc ac dd 95 bd 76 ae 78 bd 08 47 34 bd
       -0.02435959 -0.07317671 -0.060713254 -0.044013053
0001a0 5e 3c 91 bd 8e b4 77 bc c3 df 16 bb df ed 34 bd
       -0.07091592 -0.015118731 -0.0023021556 -0.044172164
0001b0 fc a6 8f bd 9b 65 a1 3c bb 15 76 3c 16 0c 0a 3c
       -0.070142716 0.01970177 0.015019829 0.008425733
0001c0 e7 08 40 bd e2 d1 ef bc d6 6b 89 bd 27 0d ac 3c
       -0.04688349 -0.029274885 -0.06710021 0.021002365
0001d0 0f 6e 96 3d 6c 15 e7 3c 60 51 e8 3b 12 4a ff bb
       0.07345211 0.028208457 0.007089779 -0.0077908123
0001e0 1d f3 1e 3d 6a f6 96 bc 8b d4 69 bd c5 58 ad bc
       0.03880607 -0.018428046 -0.057087462 -0.021160493
0001f0 0d aa ad 3c d9 5d 99 bc 88 36 c5 bd 05 4a c8 bd
       0.02119925 -0.018721508 -0.09629542 -0.09779743
000200 c1 25 8c bb c4 1c 8a bd f2 5a 30 bd 7b 95 8e 3c
       -0.0042769616 -0.06743768 -0.043055482 0.017405262
000210 88 6b bc bc 75 d8 05 bd fb e8 c5 bd d8 aa 1f bc
       -0.023000494 -0.032677133 -0.09663578 -0.009745322
000220 aa 76 3a 3d 79 78 18 bd 67 33 97 3c 03 fb c0 bc
       0.045523323 -0.037224267 0.018457128 -0.023557192
000230 55 f6 ff 3c 84 be 78 3d 3e 9c 5d 3d 05 25 d7 3c
       0.03124539 0.060728565 0.054104082 0.02626277
000240 4c a0 80 bc ff 7f 7d 3d 63 52 54 bc 2d 4a 49 3d
       -0.015701436 0.061889645 -0.012959096 0.049143005
000250 d3 a2 8b 3c da 31 07 3d a3 0d ee bb d6 d9 01 3c
       0.017045414 0.033006527 -0.007264809 0.007925471
000260 e5 ed 32 3b be bd eb bc a9 9f 8f bd 98 d4 ec bc
       0.002730244 -0.028777 -0.07012875 -0.028909966
000270 5c b6 ad 3b cc 07 c0 3c 44 01 ad bc 20 b1 01 3b
       0.00530128 0.023441218 -0.021118768 0.0019789413
000280 34 f6 e0 3a cb 40 ea bc 1c 43 49 bd 42 11 15 3c
       0.0017163218 -0.028595349 -0.049136266 0.009098353
000290 79 fa ca 3b 82 f3 0a 3d a9 4d 01 3c a0 9c e2 bc
       0.0061944094 0.033923633 0.007892051 -0.027662575
0002a0 83 83 e8 bb 80 f3 0f bd 3c ce 22 bd 29 34 b3 bb
       -0.0070957555 -0.03514433 -0.03974746 -0.0054688645
0002b0 1c 2d 33 3d 10 ea 7d 3c ce 37 20 bd 3a 1c ec bc
       0.04374419 0.015497699 -0.03911572 -0.028822053
0002c0 10 13 36 bd 92 d0 17 3c de 7d e3 bc 6f 67 28 3c
       -0.044451773 0.009266036 -0.02776998 0.010278567
0002d0 61 18 e7 bc 2b 0d f5 3c 0b 97 97 3d b2 83 81 3d
       -0.028209867 0.029913506 0.07401856 0.06323947
0002e0 7a 66 63 bd 86 0e 3c bc 1f 59 af 3d 9b 79 8d 3d
       -0.05551765 -0.011478072 0.085619204 0.0690796
0002f0 ad 02 85 3d 49 b0 9b 3c a8 4a 0b 3d c5 f6 32 3d
       0.06494651 0.019004958 0.034006745 0.04369237
000300 e8 ff a1 3c 4b b2 80 bd 68 a1 3a 3d fd 7f d5 bc
       0.019775346 -0.06284007 0.045564085 -0.026062006
000310 4d a9 46 3d 73 8f af 3c d9 cc f8 3c 6e 0a 13 3c
       0.0485013 0.021430707 0.030371116 0.008974655
000320 76 98 8e 3b 9f a5 75 b9 e8 82 06 3d b1 d0 e5 bc
       0.004351671 -0.0002342672 0.032839686 -0.028053613
000330 91 59 b2 bd 33 eb 03 3d 56 f8 a3 3d a8 b0 e7 3c
       -0.0870849 0.032206725 0.08006351 0.028282478
000340 54 0d 9a bd f8 a4 3e bd 09 07 10 bc a2 9c c7 3d
       -0.075220734 -0.046544045 -0.00879074 0.09746672
000350 80 5a 50 bc af 08 ac bd bb 20 63 bd bd bd 24 3d
       -0.012716889 -0.08400094 -0.055451136 0.04022001
000360 84 d2 ea 3c 2a 92 7b bd d9 e1 52 bd a2 ec 88 bc
       0.028664835 -0.06141869 -0.051484916 -0.016714398
000370 2c cb 99 bc 33 28 86 3c 43 ef 6c bc cf e7 04 bd
       -0.018773638 0.01637659 -0.014461341 -0.032447632
000380 75 53 7b bd 8e d8 cd bb e8 96 4a 3d 76 4e 03 3c
       -0.061358888 -0.006281919 0.04946032 0.008014312
000390 27 ca 3c bc 26 18 d9 3c c3 0b 26 3c 8d 35 37 3d
       -0.011522806 0.026500773 0.01013464 0.044728804
0003a0 0c 1e 17 bd ef 12 a6 3c 92 9f c9 3c 63 af 34 3d
       -0.03689389 0.0202727 0.024612222 0.044112574
0003b0 f8 66 c1 bc 7c 12 6b 3c 37 0f 93 bb e4 75 3f 3d
       -0.02360867 0.014347669 -0.0044878977 0.04674329
0003c0 d2 aa df 3c a6 cc 42 bc a8 ea 79 3b b3 2f 06 3c
       0.027303133 -0.011889612 0.003813425 0.008190083
0003d0 ac 4a a5 3d 38 23 19 bd a2 90 28 3d a1 c4 3d 3d
       0.08070883 -0.037387103 0.041153558 0.046330098
0003e0 6b 18 66 3d c5 7d 68 3c bb 8f 59 3d 9b b4 3c 3d
       0.05617563 0.014190142 0.053115588 0.046070676
0003f0 73 d4 1a 3d d5 63 1c 3d 5b ee 09 bc b1 31 17 37
       0.037800264 0.038181145 -0.008418645 9.011871e-06

conv2.bias f4 [32]
000000 d1 0d 65 3a 63 05 ab bc f3 8d e1 bc 76 16 05 bd
       0.00087377155 -0.020876592 -0.027533507 -0.032492124
000010 98 3b c2 3b 49 17 37 3d 10 10 98 bc 19 b3 04 3d
       0.0059275143 0.04469994 -0.018562347 0.032397363
000020 21 b0 18 3d 20 09 7f bc 5a 77 02 bd 89 c8 4b 3d
       0.037277345 -0.01556614 -0.031852104 0.049751792
000030 dc 03 90 bc 11 5a b0 bb fb b5 48 bd ac 53 0d 3c
       -0.017579965 -0.0053818305 -0.049001675 0.008625906
000040 88 aa 22 3c be 2d b7 3c 6d 49 04 bd 41 fc 4b 3d
       0.009928353 0.022360679 -0.032296587 0.049801115
000050 27 62 31 3d 53 1c 16 3d e0 dd 0d 3c 82 40 88 3c
       0.043306496 0.036648106 0.008658856 0.016632322
000060 71 40 2d 3d 15 13 b5 3b d5 15 39 bd 45 ba 2b 3d
       0.042297784 0.0055259564 -0.045186836 0.041925687
000070 c3 fe 2e bd cd 7a 14 3c 3e 23 ac 3c 44 62 52 3c
       -0.04272343 0.009062481 0.021012899 0.012840811

bn2.weight f4 [32]
000000 15 af 8d 3f 4c 76 a2 3f 0f 1f 96 3f d3 7d a2 3f
       1.1069056 1.2692351 1.1728228 1.2694649
000010 57 78 ac 3f 50 72 98 3f 54 d4 97 3f 92 fe 8b 3f
       1.3474225 1.1909885 1.1861672 1.0937064
000020 53 14 ad 3f 2f ac 8f 3f e9 77 b9 3f 53 ba 96 3f
       1.3521827 1.1224421 1.4489719 1.1775612
000030 e4 f4 96 3f c0 34 a5 3f 18 94 a0 3f be a1 86 3f
       1.1793485 1.2906723 1.2545195 1.051811
000040 8e 2d 8f 3f 8a cd 97 3f 5c a8 9c 3f df 38 a2 3f
       1.1185777 1.18596 1.2238879 1.2673606
000050 44 ff 90 3f fe 41 98 3f 00 b7 a0 3f a1 73 88 3f
       1.1327901 1.1895139 1.2555847 1.0660287
000060 fe 3c 9b 3f 44 9e 98 3f 1e 2c ad 3f 33 1d 99 3f
       1.2127988 1.1923299 1.3529088 1.1962036
000070 f0 c5 a0 3f 46 a6 bd 3f 8c 0f af 3f 3c 16 a8 3f
       1.2560406 1.4816368 1.367662 1.3131785

bn2.bias f4 [32]
000000 d9 65 2e be 10 db 42 be c6 c0 eb bd b8 c3 16 be
       -0.1703104 -0.19028878 -0.11511378 -0.14723098
000010 7d ce 5c be 30 ab 08 be 4c 9e c0 bd 67 9b eb bd
       -0.21563144 -0.13346553 -0.09405193 -0.1150425
000020 05 dd f7 bd 69 b2 19 be ec b9 6d be 71 39 08 be
       -0.12102703 -0.15009464 -0.23215455 -0.13303162
000030 e9 7a 06 be 74 4d 5c be 8e 79 4e be 4e 39 b5 bd
       -0.13132824 -0.21513921 -0.20163557 -0.088488206
000040 d0 50 fe bd 90 00 ab bd f2 0d 4b be f9 9a 1a be
       -0.124177575 -0.08349717 -0.19829538 -0.1509818
000050 fd 0e b5 bd 8d 8e 04 be 16 95 3e be c6 b0 10 be
       -0.088407494 -0.12945004 -0.1861156 -0.14129934
000060 e6 d6 27 be 2e df 09 be cc 27 22 be ab cd f6 bd
       -0.16390571 -0.13464043 -0.15835494 -0.12050947
000070 1b 49 18 be f5 34 8d be b9 af 31 be 2a 10 1f be
       -0.14871638 -0.27579466 -0.17352189 -0.1553351

bn2.running_mean f4 [32]
000000 bc a0 ba bd c5 b7 7d 3f 26 f9 ed 3d 80 20 fd 3e
       -0.09112689 0.99108535 0.11619787 0.49438858
000010 6c f4 95 bf 61 6e 8b bd ac d8 35 be 90 49 44 be
       -1.1715217 -0.068081625 -0.17758435 -0.19168687
000020 ff 28 39 3c 3e a1 ab be 9a ae 07 bf 4e e4 63 3e
       0.011301278 -0.33521456 -0.53000796 0.2225506
000030 93 c6 a6 3e f0 14 2d bf ae 73 8d 3d 75 30 b6 bd
       0.32573375 -0.67610073 0.0690683 -0.08895961
000040 28 88 1b be 18 dd 7c be 34 a5 2c bf 52 a0 23 bf
       -0.15188658 -0.24693716 -0.6743958 -0.63916504
000050 66 28 81 bd a6 27 79 3c 3f f1 eb be 7e b0 3a be
       -0.063065335 0.015207207 -0.46082494 -0.18231389
000060 a9 38 a4 bd 37 c4 66 bc 03 5c c4 bd 3f 06 18 be
       -0.080186196 -0.014084867 -0.09587862 -0.14846133
000070 de ab 16 bf 2a 08 b4 bf 72 df ef be c9 92 29 3d
       -0.58856 -1.4064991 -0.46850163 0.04139975

bn2.running_var f4 [32]
000000 33 65 0c 3f 2d c4 d2 3e 40 3a d6 3e df 45 e8 3e
       0.5484192 0.41165295 0.41841316 0.45365807
000010 a8 e8 07 3f 35 bd de 3e 25 d4 e8 3e 2d df 99 3e
       0.5308938 0.43503729 0.45474353 0.30053082
000020 e1 a8 5d 3f 30 00 c8 3e 9e 09 05 3f 05 d1 01 3f
       0.86585814 0.39062643 0.519678 0.50709563
000030 55 9d e4 3e 62 13 d9 3e 1f 28 1e 3f 33 db cc 3e
       0.44651285 0.423976 0.6177997 0.40010986
000040 66 6d e9 3e 18 13 b8 3e ee ba 12 3f c2 6e 4a 3f
       0.45591277 0.35952067 0.5731648 0.79075253
000050 03 56 c3 3e b5 66 10 3f 98 49 08 3f 58 f2 d0 3e
       0.3815156 0.5640672 0.53237295 0.40809894
000060 f4 c1 c9 3e f2 f5 dd 3e f2 12 27 3f 6b 06 08 3f
       0.39405787 0.43351704 0.65263283 0.53134793
000070 d6 52 e4 3e 49 22 38 3f f5 bf 28 3f 36 87 16 3f
       0.4459445 0.71927315 0.65917903 0.58800066

fc1.weight f4 [128, 1568]
000000 71 03 36 bc e5 f1 cd bc 30 60 6e 3a 0c 8a 40 bc
       -0.011109219 -0.025139758 0.00090933125 -0.011751663
000010 71 38 1d bc e8 99 df bc fe b2 b3 bb 4d dc a3 bc
       -0.009595976 -0.027295068 -0.005483984 -0.020002509
000020 c5 67 16 3b e5 8d 25 bc 88 d5 27 3c 89 c8 cd bc
       0.0022950035 -0.010104631 0.010243781 -0.025120037
000030 19 19 b0 bc 41 53 cd bc d3 5f 8c 3c 7e 94 59 3c
       -0.021496342 -0.025064113 0.017135536 0.013280032
000040 f5 0c b5 bc 78 c4 c2 bc e1 08 73 3c 84 d9 9a bc
       -0.022100905 -0.023775324 0.01483366 -0.018902548
000050 35 f2 bc 3a 9d 31 25 bb 6e 16 a5 3c a5 fd a0 3c
       0.0014415445 -0.0025206574 0.020152297 0.019652197
000060 0c aa 93 bc 6f 01 a8 bc 75 f6 85 bb a4 89 be 3c
       -0.01802542 -0.020508496 -0.004088218 0.023258992
000070 14 2a 8d 3c af a2 92 3b d8 fc 91 3c 6c dd 44 bc
       0.017231978 0.00447496 0.01782076 -0.012015682
000080 d3 c9 05 3b 5b d2 03 3c 41 31 68 bc 9e 8d b1 3c
       0.0020414486 0.008045758 -0.014171899 0.021673974
000090 d1 17 bd 3c fa e7 30 3d 05 42 06 3d 8d a4 d6 37
       0.023082646 0.04318998 0.032777805 2.5587413e-05
0000a0 ed de 9e bc f9 27 f4 bb 80 9e 34 3c ce b1 83 3c
       -0.019393409 -0.007451054 0.0110241175 0.016075995
0000b0 12 f7 84 bc 63 cc 86 3c b6 7d c1 3b 6b dc fa 3b
       -0.016231094 0.016454881 0.0059048785 0.0076556704
0000c0 cc b6 65 bc c5 ca 18 bc 94 07 19 bc 0b f3 a4 bc
       -0.014020633 -0.009325688 -0.009340186 -0.020135423
0000d0 4c 2c 9c bc 60 b4 c3 bb 59 ff ad 3c 08 49 a7 bb
       -0.019064091 -0.00597243 0.021239923 -0.0051051416
0000e0 a0 26 cf bc 14 e0 78 bc 21 5b db bb 6e d1 6b bc
       -0.025286973 -0.015190143 -0.006694213 -0.014393194
0000f0 fa 6e bc 3c f5 28 b6 bb ac a0 86 bc c0 d6 1b 3c
       0.023002136 -0.0055590817 -0.016434036 0.00951165
000100 2a 82 66 3b f7 07 83 3c 5d fc 08 bd 5d b1 7f bc
       0.0035172799 0.015995009 -0.033443797 -0.015606252
000110 ec bc c0 3c 5b 64 1f bc 6f 63 f7 bc e9 51 83 bd
       0.023527585 -0.009728516 -0.03019878 -0.064121075
000120 69 e2 4e bd 94 5e 91 bc 9c 37 18 bb cf ba e1 3a
       -0.05050889 -0.017745294 -0.0023226505 0.0017221811
000130 16 7a 9e 3b 05 2f 29 bd ad f7 6a bd d6 f0 9b bb
       0.004836331 -0.041304607 -0.05736511 -0.0047589345
000140 04 f9 f3 bc 7b d4 06 bb e0 6a 68 3c 2e b9 1e 3d
       -0.029781826 -0.0020573426 0.014185637 0.03875082
000150 c9 68 8e bc 86 99 e2 bc b1 b8 1a bc 94 c3 97 bc
       -0.01738395 -0.027661096 -0.009443448 -0.018525876
000160 94 66 7b 3c 6e 64 30 3b 93 d4 d3 3c 03 d0 ab 3b
       0.015344281 0.002691533 0.0258582 0.005243303
000170 d9 91 b8 3c e6 e0 9c 39 60 76 91 3c 7a 25 a7 bc
       0.022530483 0.000299222 0.01775664 -0.020403612
000180 68 b6 6c 3b 95 3f ac bc 37 dd d7 3c ab 77 a8 bc
       0.0036119465 -0.021026412 0.0263506 -0.020564875
000190 21 6a ce 3c 77 a5 48 3c 91 61 59 bc 22 c6 8b 3c
       0.02519709 0.012246481 -0.013267891 0.01706225
0001a0 24 e5 d5 3a 39 65 2a 3c ce b3 a6 3c f2 ca 9f bb
       0.00163189 0.01040011 0.02034941 -0.004876488
0001b0 d7 85 b1 3c 94 de 26 3c fd a0 94 bc 31 57 ba 3c
       0.021670265 0.010184903 -0.018143171 0.022746654
0001c0 74 d4 80 3c b4 04 8a ba df 5f 1a 3c f0 5e 08 3b
       0.015726306 -0.0010529966 0.0094222715 0.002080854
0001d0 db 6d 06 3d 2b 9f ab 3b 39 6b 17 3c 1e 0c be 3c
       0.03281961 0.00523748 0.0092418725 0.023199137
0001e0 6a b0 2d bc ae 35 0c 3d 92 fe d6 bb bb 78 67 3c
       -0.010601142 0.03423088 -0.006561109 0.0141279055
0001f0 ba ff a1 bc ee 4b 13 3c 88 b8 9e 3a 43 47 ad 3c
       -0.01977526 0.008990271 0.0012109438 0.021152144
000200 d2 c5 35 3d 36 e5 e8 3b be 03 58 3c 14 a7 6e 3c
       0.04437811 0.007107402 0.013184486 0.014566202
000210 98 57 da 3c 47 32 8b bc 25 6f bc 3c af 0e 17 3d
       0.026653096 -0.016991748 0.023002217 0.036879238
000220 7a fd 3b 3d cc 7e c4 3c e1 bc 4b 3c 30 c4 3e bc
       0.04589603 0.023986243 0.012435169 -0.011643454
000230 3d 55 d4 bc 8f df 81 bc 17 1f 24 3c dd 89 a1 3c
       -0.025919551 -0.015853671 0.010017178 0.019719059
000240 bc 15 3d 3c 41 37 b0 3c 0c ea 62 3c ca ac 28 3c
       0.011540826 0.021510722 0.013849746 0.010295102
000250 bb 52 5c bc 65 5b dc bc c0 f6 ea bb 6b 5e b3 bb
       -0.013447459 -0.026899049 -0.007170528 -0.005473902
000260 8f e4 85 3a 9f ae 05 bc 50 89 88 bc 90 ff 32 bd
       0.001021521 -0.008159309 -0.016667038 -0.043700755
000270 07 67 4f bb 3b d0 a3 3b 0b 13 25 3d 6d 73 13 3d
       -0.0031647102 0.0049991882 0.040301364 0.03599875
000280 7b 65 f0 bb ee 17 03 bd 54 06 06 3b e5 e9 1c bc
       -0.007336316 -0.032005243 0.002045055 -0.009577249
000290 2c d3 22 3c 4f 1a 80 3c 06 96 90 3c 25 e1 bd 3c
       0.009938043 0.015637545 0.017649662 0.023178646
0002a0 3d f3 d8 bc 99 95 1e bd f6 03 8d 3c b2 e1 4f 3c
       -0.026483173 -0.038716886 0.017213803 0.012688087
0002b0 cc de ed 3c ac e4 12 3c 43 ad 86 bc b4 cf 00 bd
       0.029036902 0.008965652 -0.01644004 -0.03144808
0002c0 f0 1e dd 3b 1d 1c d5 bb 8a fa b6 bc 0e bb 1e bc
       0.006748073 -0.0065035955 -0.022336263 -0.009688152
0002d0 28 d1 0f 3c eb 37 f6 bc c5 bf 7b bb 3a 19 8e bc
       0.008777894 -0.03005596 -0.0038413864 -0.017346013
0002e0 f8 a6 70 3c 02 23 8a 3b 44 96 76 3c ed 28 6f bc
       0.014688246 0.004215599 0.015050475 -0.01459716
0002f0 4e f2 d3 bb 6b e7 c3 bb 32 93 f4 bc 69 f6 af 3c
       -0.006468094 -0.005978515 -0.029855344 0.021479802
000300 ae 7d 80 bc 15 33 72 bc 49 61 53 3c 9e c6 e1 3b
       -0.015684929 -0.014782687 0.012901613 0.006890132
000310 91 f3 98 bb 74 2e c4 bc 18 aa 12 bd 14 46 a5 3b
       -0.0046677073 -0.023947932 -0.035806745 0.0050437544
000320 04 b1 08 3d eb 40 37 3d 14 13 7e bb 95 62 fb bb
       0.03337194 0.044739645 -0.0038768696 -0.007671664
000330 79 39 26 bd 17 6e d0 bb 5b 07 8a bc af 88 b5 bc
       -0.040582154 -0.00636078 -0.01684921 -0.022159902
000340 98 1a ef 3b 0c 8f b1 3c d3 9f ef 3b 31 84 db bc
       0.0072968714 0.021674655 0.0073127537 -0.026796432
000350 2e d0 4a 3c 33 40 61 3b ec 1a 06 3d c8 de 60 3b
       0.0123787355 0.003437054 0.03274052 0.0034312475
000360 9e 80 97 bc ee 50 f5 3c 1b 83 09 3d aa d2 06 3d
       -0.018493947 0.029945817 0.033572298 0.03291575
000370 44 eb 73 3c e3 f3 c6 3c 34 0c 48 3b 98 79 f8 3b
       0.014887635 0.024286216 0.0030524852 0.0075828545
000380 9b 72 c5 3c 31 c1 b0 3c 54 19 d1 bb b5 5c 38 3c
       0.0241025 0.021576496 -0.006381193 0.011252572
000390 00 5d d0 3b 5a 78 02 3d 97 0b 95 bb ad db ad bb
       0.0063587427 0.031853057 -0.0045485008 -0.0053057284
0003a0 29 f5 30 3d a3 a7 a1 3c 3e 09 b2 bc fe 6c f2 3b
       0.043202553 0.019733256 -0.021732923 0.007398247
0003b0 18 0e 0c bc 8b cd 13 bc 37 75 26 3c a5 35 18 3d
       -0.008548282 -0.009021173 0.010159782 0.037160534
0003c0 48 e2 03 3c 6c b8 ac bb c6 60 eb bb 42 6b 01 3c
       0.008049555 -0.0052710082 -0.007183167 0.007899107
0003d0 04 51 28 ba 9a a2 31 bc 10 a7 95 bc 7e 66 b1 bc
       -0.00064207637 -0.01084199 -0.018268138 -0.021655317
0003e0 7e 26 48 bc 8b 48 16 3d db 2e 81 39 17 21 b3 bc
       -0.0122162085 0.036690276 0.00024639707 -0.021866364
0003f0 38 28 10 bc 99 aa 36 ba a2 12 22 3d ba c9 12 3d
       -0.008798651 -0.000696817 0.03956855 0.035836913

fc1.bias f4 [128]
000000 3c fa a5 3b 10 ce 97 bc 89 9b 6c 3c 6d 89 b3 bb
       0.0050652307 -0.018530875 0.014441379 -0.005479029
000010 a2 cc 73 3a 7f fa 97 bc 63 0d a5 bc 80 fe 39 3b
       0.0009300207 -0.018552063 -0.020147985 0.0028380454
000020 6e 5c 3a 3b 66 d9 4b 3d 9a a6 80 3c fb 2b b6 bc
       0.002843644 0.049767874 0.015704442 -0.022237768
000030 ee c9 a5 3c cf 74 de 3c 1b 5c 1d 3c ef 87 8e 3c
       0.02023789 0.027155308 0.009604479 0.017398803
000040 c8 8f cf bc b9 c5 9e 3c 4f 6f 43 bc c9 9b da bb
       -0.025337115 0.01938139 -0.0119283935 -0.006671403
000050 04 6a 79 bc 18 5a d2 bc 31 8a 91 3c 15 e6 ca bb
       -0.01522303 -0.025677726 0.01776609 -0.0061919787
000060 2e a9 59 bb 45 d2 86 3c 2e c6 5b 3c ed 3f 07 3b
       -0.0033212411 0.016457686 0.013413949 0.0020637468
000070 de 3e 9b bc a0 c6 d1 3a c1 1d 4b b8 c0 ec 8d bb
       -0.018950876 0.001600463 -4.8426682e-05 -0.0043312013
000080 dd 01 74 3c 2c df d6 3c 53 ac 9a bc ac 18 21 bb
       0.014893022 0.026229464 -0.018880999 -0.0024581356
000090 3b df d4 bc ef 96 10 bc 87 9a 3e bb 6e 2b 70 bc
       -0.02598535 -0.008825048 -0.0029083805 -0.014658792
0000a0 84 4e be bc 3d a4 20 3c eb 26 95 3b 3b c2 4b bc
       -0.023230799 0.009804782 0.0045517585 -0.012436445
0000b0 5c 9b af bc 11 67 8e 3c 47 73 09 3c 4e f6 83 bc
       -0.021436386 0.01738313 0.008389301 -0.016108658
0000c0 91 9f 34 3c df c7 bf 3b f9 3d 3f bc 0d 14 08 3c
       0.011024372 0.005852684 -0.01167249 0.008305562
0000d0 da 87 d7 bb 98 bc 5d bc c3 3f 97 bc d6 39 80 bc
       -0.006577474 -0.013533734 -0.018463021 -0.015652578
0000e0 b3 ba 19 bc cd 1f 8c bc 5f db ab 3a da e7 2a 3c
       -0.0093828915 -0.017105008 0.0013111642 0.010431254
0000f0 74 80 89 3c ab 7d 43 bc dc c3 d0 3c 07 fb 5c bc
       0.016784884 -0.011931817 0.025484018 -0.013487584
000100 22 25 d4 3b ed b7 82 bc 43 f8 bb ba 8c e4 17 bb
       0.006474153 -0.015956843 -0.0014340956 -0.0023176996
000110 3b 8d 4d 3c 94 44 a0 3c 7a b1 9f ba 1f 6f a5 3c
       0.012545879 0.01956395 -0.001218363 0.020194588
000120 53 9a ac bb 3d d0 66 3c 29 32 af bb 4d 14 91 bc
       -0.0052674203 0.014087734 -0.0053465557 -0.017709875
000130 fb ba 38 3b 9f ec dc bc bb 82 cf bc 4c 3c c7 bc
       0.002818762 -0.026968298 -0.025330892 -0.024320744
000140 68 04 bc 3c 56 20 1b bb 2c b5 c0 3b 7d 60 1f bc
       0.02295132 -0.0023670397 0.0058809724 -0.009727594
000150 78 79 b7 bc 4c d1 03 bc 1a f9 36 3c 74 fc 85 3b
       -0.022396788 -0.008045506 0.011167789 0.0040889326
000160 b5 58 2a 3c 4b 99 33 bb 4e ef fc bc 63 63 36 bb
       0.010397126 -0.0027404602 -0.030875828 -0.0027830235
000170 21 d3 d4 b9 7e dc 7c 3c 46 8b fc bc 25 58 9a bc
       -0.00040593094 0.015433429 -0.03082813 -0.018840859
000180 93 9e 85 3c d8 5a 91 3c ee 98 44 bc 28 fd 38 3b
       0.016310966 0.017743513 -0.011999352 0.0028227065
000190 85 f1 54 3c 2c 5f 21 3b 97 a5 03 bc 29 03 ad bb
       0.012997036 0.0024623377 -0.008035085 -0.0052799177
0001a0 51 72 5d 3b b5 91 55 3c c4 8f e8 3b c5 5e 94 3c
       0.0033790062 0.013035228 0.0070972163 0.018111596
0001b0 1d 61 0b bd b9 c2 84 bc d0 f3 54 bb 2c fd 33 bc
       -0.03402816 -0.016206132 -0.0032493956 -0.010985654
0001c0 46 b1 98 3c f1 d5 00 bc 52 3b a1 bc 24 90 10 3c
       0.018639218 -0.007863508 -0.019681606 0.008823428
0001d0 b8 9f 95 bc 56 9e cc 3c 4c 08 81 bc 05 87 35 bc
       -0.018264636 0.024977844 -0.015751027 -0.011079554
0001e0 93 47 67 3c ef 6e 50 3c 21 08 34 3c d6 c1 8f bc
       0.014116186 0.012721761 0.010988266 -0.017548483
0001f0 fb 51 bb bb 34 cf 74 bb fd 53 9f 3c 05 0f d1 bb
       -0.00571656 -0.0037354948 0.019449228 -0.0063799643

fc2.weight f4 [64, 128]
000000 b2 55 1f 3e 06 1e a8 bd 7d ee 8f 3d 19 50 c4 bd
       0.15560034 -0.082088515 0.0702791 -0.0958559
000010 86 1f b8 bd 55 97 62 3c 79 76 6e bd 4e 36 46 3d
       -0.089903876 0.013830026 -0.058218453 0.048391633
000020 21 93 17 bd f9 47 d3 bd 72 a1 2f 3d ab 19 34 3d
       -0.037005547 -0.10316462 0.042878576 0.04396979
000030 38 07 2c bd ba 41 08 3e 44 10 9c 3c ea af 18 3d
       -0.04199907 0.13306323 0.019050725 0.03727714
000040 a4 7b 30 3d 78 e0 2b 3d 2b 03 98 bd c5 c7 96 bc
       0.043086663 0.041962117 -0.07422479 -0.018405804
000050 df 1f 1b 3c d5 70 d5 bc 15 1c 6b bd c2 cc 40 3d
       0.009468048 -0.026054779 -0.057399828 0.047070272
000060 df ce 11 3e b6 53 17 3d 00 0c 75 bd 04 60 9f 3c
       0.14239071 0.036945067 -0.059825897 0.019454964
000070 28 7d a3 3d d4 5e 34 bd 97 73 12 3d 9b f4 d1 3d
       0.07982856 -0.044035748 0.035754766 0.10251733
000080 dd 18 aa 3d 7c 49 f3 3d 3b 9b 70 bd ec cf 2d bd
       0.083055235 0.118792504 -0.05874179 -0.042434618
000090 19 76 c5 3d 9a 5f cd 3c f1 c7 2a bc 85 e8 df 3c
       0.09641666 0.02507 -0.010423646 0.027332554
0000a0 d0 a1 e3 bb 18 5b 66 3d 8b 46 88 3d 5b 54 55 bc
       -0.00694678 0.056239218 0.0665408 -0.0130206
0000b0 e7 5a ad bb a7 dd aa bc 93 a6 a5 3d 25 71 1f bc
       -0.0052903774 -0.020857645 0.08088412 -0.009731566
0000c0 65 0b 40 bd c2 8d a6 3d 23 ef 2a bd 84 22 a2 bd
       -0.046885867 0.08132507 -0.041731965 -0.079167396
0000d0 05 2a 85 bd c8 8b 84 3d 9f 11 30 3c cc 89 f4 3b
       -0.06502155 0.06471974 0.010746389 0.0074627157
0000e0 79 68 d3 3c 03 8d df 3c d3 9a a5 3d 36 1e af 3d
       0.025806652 0.02728892 0.08086171 0.08550684
0000f0 ea c3 3b bd 84 c8 55 3d 8e 73 51 3c 05 ca c2 3d
       -0.045841135 0.05219318 0.012783898 0.095111884
000100 f6 fc 99 bd 1c 2d ac bd 98 2a ce 3d 92 f9 ba bd
       -0.075189516 -0.084070414 0.10066718 -0.09129633
000110 96 8f e5 bc d3 ef 8f bd 0c ae 1d bc bd 8b d0 bc
       -0.028022569 -0.07028165 -0.009624016 -0.025457257
000120 58 ac 5f 3d aa 67 92 bc f4 aa 29 3d ed 19 0e bc
       0.05460772 -0.017871697 0.0414228 -0.008673173
000130 3a 30 30 bd a2 c9 03 3e f5 dd f4 3c a4 1f 25 bd
       -0.043014742 0.12869886 0.029890994 -0.040313378
000140 f0 3a 33 bc c0 c6 24 3d 89 1a 99 3d f5 54 91 3d
       -0.010939345 0.040228605 0.07475764 0.070962824
000150 55 62 a6 bd 19 8b c2 3d 6c ad 9b ba cd 1f f8 3c
       -0.08124224 0.09499187 -0.0011877245 0.030288601
000160 2d c8 cf 3d 1b db 6c 3d 49 18 4f 3d 02 24 9c bd
       0.101456024 0.057826143 0.05056027 -0.076240554
000170 55 e3 55 bd a6 56 4c 3d f2 7d 8b 3d 3e 67 a8 bc
       -0.052218754 0.049887322 0.068111315 -0.020557042
000180 03 2e b3 3d 8a 5e 5e bd 8b 54 3a 3d f8 d3 bb 3b
       0.087490104 -0.05428938 0.045490783 0.0057320558
000190 ea a3 76 3d b7 dd 1d 3d ff cd ac bd 56 e0 4c 3d
       0.060214914 0.038541522 -0.08437728 0.05001863
0001a0 75 cb 10 bd a5 ab ae 3d bc e6 2d 3e 1c 3a b7 bd
       -0.03535028 0.08528832 0.1698255 -0.0894663
0001b0 3a 1b ae 3b 45 14 e9 bc d1 f9 98 bd 8b 82 cf 3b
       0.0053133043 -0.028452048 -0.07469524 0.0063327006
0001c0 3c 9b 54 bd 8a a4 f7 3d 59 15 9e bc b9 8d c5 bd
       -0.051905856 0.1209193 -0.019297289 -0.09646172
0001d0 5d fd 7e 3d 8f 08 60 bd 73 a8 0b bd 65 89 48 bd
       0.062253345 -0.054695662 -0.034096193 -0.048959155
0001e0 14 7b 09 b9 06 10 bf bc 65 bf ee 3b b4 c4 d7 bd
       -0.00013111188 -0.02332307 0.0072859996 -0.10535565
0001f0 c3 95 87 3d 72 d5 13 bd 76 a8 85 bd 04 6c 17 bb
       0.06620362 -0.03609223 -0.06526272 -0.0023105154
000200 b6 6d bf bd ff 9b ef 3b eb c6 fa bd 94 76 72 3d
       -0.093470976 0.0073122974 -0.12244972 0.059195116
000210 14 a9 b9 3c 2b c7 b3 3b b8 ee b7 bd f9 69 de 3d
       0.02266363 0.005486389 -0.08981079 0.108600564
000220 de dd 00 be 60 0c 29 be cc 75 f9 3c 93 74 1c 3d
       -0.12584636 -0.16508627 0.030451678 0.03819711
000230 6f 4e 39 bd 2f 7d 90 3c 1f 62 f4 bc 35 b3 35 bc
       -0.045240816 0.017637817 -0.029831944 -0.01109009
000240 96 ca 9b bc 92 c4 67 3d 85 fb c9 bd f9 23 8c bc
       -0.019017499 0.05658395 -0.09862427 -0.017106997
000250 d5 78 1c bb ed 3a 5e 3d 16 9c 08 3e 3b f2 ad bd
       -0.0023875732 0.054255415 0.13340792 -0.084934674
000260 54 ec 68 3d 1f 0b d6 3c 94 97 97 3d 3c 2c 30 3d
       0.056866005 0.02612835 0.07401958 0.043010935
000270 bb 1e 80 bd 4a e9 7c bd a4 2a 16 3e cb a6 99 bd
       -0.06255861 -0.06174592 0.14664704 -0.07502516
000280 f6 4c e8 3d 69 5e b1 bc a7 f4 fa bd f6 35 e9 3b
       0.11342804 -0.021651464 -0.12253695 0.0071170283
000290 76 75 a9 3c ec 89 35 3d ae b1 9a 3d a3 fe 7e bd
       0.020685893 0.044320986 0.07553421 -0.06225456
0002a0 72 13 c0 3d 32 6d 9e 3d ce c3 f4 bd 50 51 08 3e
       0.09378709 0.07735671 -0.11951409 0.13312268
0002b0 78 38 a7 3d f4 ab 9e 3c 12 a5 df 3d 29 10 66 3d
       0.081650674 0.019369103 0.109201565 0.056167755
0002c0 6b d5 31 bd 3b 2b 32 3d 42 3a ec bc 32 fb 19 bd
       -0.04341642 0.04349826 -0.028836373 -0.037593074
0002d0 de 2e 5b 3c f0 d2 c1 bd db 94 5b 3c 22 c6 b3 3c
       0.013377873 -0.09464061 0.013402189 0.021945063
0002e0 5c 18 be 3d ea 78 ca 3d bd de 2e bd cb 03 b1 3c
       0.0928199 0.09886344 -0.04269289 0.021608254
0002f0 f2 a1 a7 3c 7d 33 40 bd 7c 8b 2d 3d 81 38 85 bd
       0.020462964 -0.046924103 0.04236935 -0.06504918
000300 7c cc 18 bd 28 4c 44 bd ee eb 52 bc 7d ef dc bd
       -0.037304386 -0.04792419 -0.012873633 -0.10787866
000310 68 d5 b9 3c 4c cf 14 3d fb 42 11 bd fa b9 30 3d
       0.022684768 0.036330506 -0.03546427 0.04314611
000320 d3 43 be bd 7e f0 bb 3d b2 a1 70 3d 29 e0 f7 3c
       -0.0929028 0.091767296 0.058747955 0.030258255
000330 a0 eb 94 bd 60 0e 93 bd 83 51 3d 3d a6 ef 77 bd
       -0.072715044 -0.07180476 0.046220314 -0.06053128
000340 4d 42 3a 3d 28 a8 5d 3d 00 6b b3 bc ef dc 8d 3d
       0.045473386 0.054115444 -0.021901608 0.06926905
000350 fd 94 d8 bc dd 7b 8e 3d 54 74 de bb 31 5d 05 bb
       -0.02643823 0.06957219 -0.0067887697 -0.0020349736
000360 96 94 48 bc b8 cb 3c bd 82 31 c6 3d 44 51 96 3d
       -0.012242457 -0.04609272 0.096774116 0.07339719
000370 de cb 03 be 98 af 49 bd 44 e7 28 3d 30 bb 62 3d
       -0.12870738 -0.049239725 0.041236177 0.055354297
000380 48 25 30 bd 28 55 42 3d 9b 03 9c 38 87 ed 34 3d
       -0.043004304 0.047444493 7.439331e-05 0.044171836
000390 60 9c bf ba 7b b5 62 bc 65 ae bd 3c 1c dc 3b bc
       -0.0014618747 -0.013837214 0.023154447 -0.011466052
0003a0 e7 ed d7 bd 6e 0a b7 3d c1 64 16 3d b1 cc a6 bc
       -0.10543423 0.08937536 0.03671718 -0.020361276
0003b0 45 3b fa 3d 71 a2 55 3d 72 61 8b bc c2 23 08 be
       0.12218336 0.05215687 -0.017014239 -0.1329489
0003c0 e2 86 93 bd 70 2e af 3d a3 c5 eb bc f5 aa 4c 3d
       -0.07203461 0.08553779 -0.028780764 0.049967725
0003d0 cd 6f 61 bc b7 7c cd bc b6 8b c7 bc 96 50 2e be
       -0.013759566 -0.025083883 -0.024358612 -0.17022929
0003e0 a7 6d 44 3d 4f a0 2e 3d b0 0f 88 bc 3c 76 ba 3d
       0.047956135 0.04263335 -0.016609043 0.09104583
0003f0 90 e0 c2 3b c6 f0 f3 3d b0 a8 e0 bc e6 db f5 3c
       0.00594718 0.11911158 -0.027424186 0.030012082

fc2.bias f4 [64]
000000 04 3e c0 bc b3 b5 96 3c 19 15 86 bd 59 73 ff 3b
       -0.023467071 0.018397188 -0.06546993 0.007795733
000010 f9 a4 05 bd e4 2f 22 3d 36 51 9c bc d4 46 d3 3d
       -0.032628033 0.039596453 -0.019081693 0.10316244
000020 f6 64 f3 3c cb b3 05 bd 7e 2e 65 bc d8 8f 7e bd
       0.029711228 -0.032642167 -0.013988135 -0.0621489
000030 52 99 61 3d ab c1 13 3c 59 6e 16 bd 74 71 8f 3d
       0.05507786 0.009018342 -0.03672633 0.07004061
000040 00 3b 64 3d 91 fa 1d bd 4a 28 61 bd d6 e3 82 3c
       0.05572033 -0.038569037 -0.054970063 0.015977781
000050 84 8f 15 3d 4c 90 e8 bc d8 1d bf 3b ab 56 8b 3d
       0.03651382 -0.028389119 0.005832415 0.0680364
000060 22 b4 68 bd 67 1c af 3d f8 54 6a bd 3e fb 0a 3d
       -0.056812413 0.08550339 -0.05720994 0.03393101
000070 69 03 87 bc 9f 63 bb bc 0d fb 21 bd ed 69 6a bc
       -0.016481118 -0.022874651 -0.03954606 -0.014307481
000080 27 f1 36 bd 6e 5b 53 bd 87 83 e2 bb c0 c7 71 bd
       -0.044663575 -0.051600866 -0.006912652 -0.059028387
000090 23 88 3f 3d eb 2b b0 3d 23 08 b1 bc a0 78 94 3d
       0.04676069 0.08602127 -0.021610325 0.0724957
0000a0 46 f3 4a 3d bb 1e 74 3d d7 88 81 3d 21 15 01 3c
       0.04954841 0.05959962 0.06324928 0.007878573
0000b0 32 a9 a2 3c 88 5e a4 3d ae 0f d0 bc 73 8b db bc
       0.01985607 0.08025843 -0.025398102 -0.026799893
0000c0 71 ed ca 3b 50 e7 9b bd cd d5 01 3c 5b 46 62 3d
       0.006192856 -0.07612479 0.007924509 0.055242877
0000d0 61 2f 8f 3c ee 6d 7b bd e9 58 8a 3d 73 7a b6 3c
       0.017478647 -0.061384134 0.067552395 0.022275185
0000e0 3b f1 57 3d 3b 28 2f bd 33 00 59 3d 4c 46 78 3d
       0.05272029 -0.042762976 0.052978706 0.060613915
0000f0 03 6b 6c 3a 26 ff cc 3d 2b 02 49 3d 7d a8 91 3d
       0.00090186315 0.10009603 0.049074333 0.07112215

fc3.weight f4 [10, 64]
000000 75 b0 90 3e 23 9b 1f bd e0 fd cb 3e 7f ae ca be
       0.28259626 -0.03896631 0.3984213 -0.39586255
000010 d3 48 0e be cc 2b 2d 3e 72 df 8f 3d d5 54 0b be
       -0.13894968 0.16911238 0.07025041 -0.1360658
000020 88 b6 07 be 97 c1 0e be 01 91 0f bd cd 94 9d be
       -0.13253224 -0.13941036 -0.035050396 -0.30777588
000030 61 06 02 3d e1 fc b5 3e a3 99 d4 3d 52 61 21 3b
       0.031744365 0.35544494 0.103808664 0.0024624658
000040 63 48 45 be 45 17 65 3b 8b b4 9c be 52 95 73 3e
       -0.19265895 0.0034956497 -0.30606493 0.2378743
000050 19 30 a8 bd e3 46 71 be 89 0f 9c bd 0a a3 91 3d
       -0.08212299 -0.23562197 -0.076201506 0.07111175
000060 2b aa 94 bd d8 71 11 3e 17 58 b8 3e 60 9d df 3d
       -0.072590195 0.14203584 0.36004707 0.10918689
000070 91 09 49 3e 30 57 84 be 9a 8a e0 bd 8b 30 02 be
       0.19632556 -0.2584777 -0.10963936 -0.1271383
000080 18 af f5 3c 07 4e 6b be 1e 86 83 be f7 8f 7e 3d
       0.029990718 -0.22978984 -0.2568826 0.062149014
000090 8d 5a 78 bd 19 c9 18 bb ab 66 9a bd ab ce b1 3e
       -0.06063323 -0.0023313223 -0.075391136 0.34727988
0000a0 8a 49 dd 3d 5f 14 70 bd e6 08 1b be f4 a5 be 3e
       0.10805042 -0.058613177 -0.15140113 0.37235987
0000b0 7d 57 2c 3c f6 39 83 3e a8 79 85 3e f1 b7 14 3e
       0.010518906 0.25630158 0.2606938 0.14523293
0000c0 ee 42 89 bd 86 85 34 be 44 bf e9 3d c8 62 b1 bd
       -0.06702219 -0.1762906 0.11413434 -0.08661419
0000d0 f2 b6 52 be 5a 01 f7 bd 2b 64 a3 be af cc 4d 3e
       -0.205776 -0.12060805 -0.3191236 0.20097612
0000e0 4c b7 6c be 52 ce ab 3a 19 23 9c 3c 81 72 2f be
       -0.23116797 0.0013107753 0.019059705 -0.17133524
0000f0 a1 af 9e bd 73 25 a1 be 14 a3 38 be 5a 7e c8 3d
       -0.07748342 -0.31473884 -0.1803096 0.09789725
000100 49 64 53 3d a2 f8 80 be 42 af 98 be a3 68 1a 3e
       0.05160931 -0.25189692 -0.2982121 0.15078978
000110 91 b5 ee 3e e0 84 31 3e b8 90 70 bc 36 d3 90 3e
       0.466229 0.17335844 -0.014682941 0.2828614
000120 b0 47 1f be dc 75 57 3b 57 12 e4 bd 60 19 1c 3e
       -0.1555469 0.0032876646 -0.111363105 0.15244055
000130 40 41 f4 3d 14 08 45 3d 4d a6 ea 3d 4c cc b4 3d
       0.11926508 0.048103407 0.114575006 0.08828029
000140 77 ea 4a 3e 7d 02 a6 bd 21 fe 1d 3d 9b 3d e1 3c
       0.19816004 -0.08105943 0.038572434 0.027495196
000150 e0 51 85 be ec de 2d be 1d 02 06 be bc 03 d5 3e
       -0.26039028 -0.16979569 -0.13086744 0.41604412
000160 8f 6e af 3d b9 32 b3 bd 5b 87 ed 3d ca 22 aa 3e
       0.08566009 -0.08749909 0.11598083 0.33229667
000170 b8 67 6f be fa 9d 9e bd 9a 23 b8 bb d8 84 5e 3d
       -0.2337941 -0.077449754 -0.0056194784 0.05432591
000180 9d 6b 06 be 0f 95 2e 3d dc 96 57 be 80 ea c5 3e
       -0.13126989 0.042622622 -0.21053642 0.38655472
000190 d4 be af bd a9 1d d4 bd cc 77 01 3e fd f4 bd 3d
       -0.085813195 -0.1035722 0.12643355 0.092752434
0001a0 c2 69 f8 bc 1e c3 d7 3c 23 bb 46 be 69 19 d6 bc
       -0.030323867 0.026338156 -0.19407324 -0.026135163
0001b0 e5 02 4f bc fc 24 9e be 9a ed b0 be 71 94 61 be
       -0.012634967 -0.30887592 -0.34556276 -0.22029282
0001c0 0a 22 c9 3d cf 01 ba be 9c 36 b0 3b 50 90 b7 3d
       0.098209456 -0.36329505 0.0053776037 0.08963072
0001d0 c4 e1 21 bc 55 b4 c0 bd eb 2f 9f 3d 60 e4 88 be
       -0.009880487 -0.094093956 0.077728115 -0.26736736
0001e0 cc fc 19 3e 59 fe c9 be 3b 44 aa bc 02 38 a5 3d
       0.1503784 -0.39451864 -0.020784488 0.08067323
0001f0 fe d0 88 3e 69 d9 69 3e e3 8c 6e 3e 61 f3 b0 3d
       0.26721948 0.22836842 0.23295932 0.08640171
000200 f7 67 b4 3d 1a 51 11 be 69 ca df be 01 bf e4 be
       0.08808892 -0.14191094 -0.43709114 -0.44676974
000210 a2 95 47 3e 7c 95 1a be 99 45 9e 3d 2b 57 63 bc
       0.19490674 -0.15096086 0.077281184 -0.013875763
000220 03 57 3a 3e 8b 83 ff bd 11 89 8e bd c5 f7 a4 be
       0.18197255 -0.12476262 -0.06959737 -0.32220283
000230 07 ea 17 bd 3b b0 91 3e 61 13 91 bd 86 8b 8a bd
       -0.03708842 0.28454766 -0.07083774 -0.06764893
000240 0e 0c 1f 3e 27 d6 c8 3e 3b 1e 5f 3e 7e e2 7b be
       0.15531942 0.39225885 0.21788876 -0.24598119
000250 c9 ec 14 be ca 32 c3 3d 2a bf c4 3e 07 df 95 bd
       -0.14543451 0.095311716 0.38427097 -0.0731793
000260 21 83 6e 3d b8 1b bb 3d 84 c5 ae 3c 8d c0 5c bd
       0.058230523 0.09136146 0.021334417 -0.05389457
000270 64 38 79 be ee 75 26 3e 22 56 90 3e ca eb 06 be
       -0.24337918 0.16255924 0.28190714 -0.13175884
000280 38 9f 05 3e cf 2c 82 be 83 b4 26 3e 99 21 e1 3e
       0.13049018 -0.2542481 0.16279797 0.43970945
000290 a2 3e 7a 3d bc 70 00 be 35 a9 a1 be f1 4c 73 bd
       0.061094888 -0.12543005 -0.31574407 -0.05939955
0002a0 8f 33 cd bd ab fe 04 ba 59 bb c0 bc ba 9e 57 3e
       -0.100196 -0.0005073349 -0.023526834 0.21056643
0002b0 b6 c7 f3 3b fe f1 bd 3e ad 40 ee bd fb e4 a5 be
       0.007439579 0.37098688 -0.1163343 -0.3240126
0002c0 c2 fa 5a 3d 4f 44 aa 3e d0 6e c8 bd 6b e3 5f be
       0.053461798 0.3325524 -0.09786761 -0.21864097
0002d0 b6 a9 91 3e 14 18 65 3d 3c 8f 18 3d d1 42 31 3e
       0.28449792 0.055931166 0.037245974 0.17310645
0002e0 16 64 65 bd b7 a3 8b be 99 57 6d 3c 9e 04 b5 be
       -0.056003653 -0.27273342 0.014486217 -0.35355085
0002f0 f5 13 af 3d fc 39 16 3e 05 80 63 be 54 41 6b bc
       0.085487284 0.14670557 -0.22216804 -0.014358837
000300 14 d7 ae 3d f3 55 1c 3e 29 32 ba bd 9c 6e d5 3e
       0.08537117 0.15267162 -0.090915985 0.4168595
000310 77 57 6f be 62 a9 cb bd a8 6a bd 3d 89 2b a2 bd
       -0.23373209 -0.099444166 0.09248859 -0.0791846
000320 4c fc 49 3b 7a b0 87 3e 37 c0 85 3d 92 c7 ab be
       0.0030820547 0.26501828 0.06530803 -0.33550698
000330 32 cb ed b9 b9 0e 4d be 5f b3 0a 3e 08 8f 7a 3e
       -0.00045355555 -0.20025147 0.13544987 0.24468625
000340 7f 3b a7 3d 21 de 4a 3e 47 3a 59 ba fe 0c 3f 3e
       0.08165645 0.19811298 -0.0008286577 0.186573
000350 ed 51 c8 3c c1 12 94 3e 8d 6a b0 3e a4 97 c9 bc
       0.024453128 0.28920558 0.34456292 -0.02460844
000360 9a 37 8a bc a0 ae a5 be e1 5d 5d bd ee 83 09 be
       -0.016872216 -0.3235979 -0.054044608 -0.13429233
000370 24 24 f5 bc 04 bc ae 3e 7c 76 91 bd 9b d9 be 3c
       -0.02992446 0.3412782 -0.07102677 0.023297122
000380 4d 64 2a 3d dc d1 6a be 22 fa 88 3d 86 c7 b0 3d
       0.04159956 -0.22931617 0.06688334 0.08631806
000390 ae 46 1d bd 4a 66 be bc d9 e1 c4 3e c0 da cd bd
       -0.038397484 -0.023242135 0.38453558 -0.10051489
0003a0 e0 e0 91 3d a1 81 e1 bd 6c 3f 7a 3d 98 88 75 3d
       0.071229696 -0.11011053 0.06109564 0.05994472
0003b0 30 9b 2a 3e 2d 44 da be d5 97 e8 3d d7 86 8b 3e
       0.16660762 -0.4263014 0.11357085 0.27251312
0003c0 d1 97 08 3d f0 d6 b5 be 07 fc 8a 3d 67 2f 73 bc
       0.03334791 -0.35515547 0.06786352 -0.014842845
0003d0 00 9e 9a 3e 9b 6a fe bd 4e 78 82 3d 64 5b 2d be
       0.3019867 -0.12422677 0.063706025 -0.16929394
0003e0 ab c7 4e be ef 70 12 be 5a d9 39 3c a4 4e a4 be
       -0.20193355 -0.14300893 0.011343325 -0.32091248
0003f0 58 a6 e8 3d f6 56 8d 3e 10 01 1f be 60 fd e3 3b
       0.113598526 0.27605408 -0.15527749 0.006957695

fc3.bias f4 [10]
000000 fe ee 01 bc 09 c6 1c 3e 3d f0 d2 3d c9 74 07 be
       -0.007930515 0.1530992 0.10299728 -0.13228144
000010 de c0 80 bd c4 92 9e bc 3d 06 99 3d 6e 8c 15 3d
       -0.062867865 -0.019357093 0.07471893 0.036510877
000020 de 06 87 bb 87 2d e9 3a
       -0.0041206917 0.0017790057
