model.pth (torch_old, 117030 bytes, 6 tensors)

layer1.0.weight f4 [16, 1, 5, 5]
00000000: 785e 1f3e 5fad 41be 3625 b8be 450a 39be
00000010: 4e47 503d ae2d 243e 1f97 983c 8ea3 89be
00000020: c0db 81be dbb4 3fbe d261 8d3e f545 af3c
00000030: 9112 073e 09e3 9cbd bc50 4ebe a7ba da3d
00000040: a9de 443e d9f6 a7bc ef1b 563e 8e3a 94be
00000050: f8d2 76bd 1efa 1a3e 0f5e b43e 2413 8a3e
00000060: 9e09 573e 2c3c e43d 86b2 613b 53fd 583e
00000070: 7c45 503e af68 89bc 55b1 e1bd 422f b7bd
00000080: ef71 893e 6fcb 91bc 7b58 90be f785 0ebe
00000090: db83 08be 49fc 843e 452f bd3e 0bd9 46be
000000a0: f08c 71be d3d3 0abe 254e 073e a568 3d3e
000000b0: 59f4 c2bd 00ed 9b3c 9dca 5dbe fb81 143d
000000c0: a8e5 5c3e c24c a93d 21bf 3f3e 6a1d 4dbe
000000d0: 301a d6be 0e30 98bd 6bf9 733e 5e51 5a3e
000000e0: d4c0 a5bd 0693 b4be 457d cb3e 47af 903e
000000f0: 3235 7dbc 9b4b 443e a6dc 953d 1a24 a63e
00000100: a6a2 aabe fda4 d83d d770 66be 9ae8 b83d
00000110: 9604 a4ba b8b7 0fbe f5d6 053e d9f2 4abd
00000120: 48a1 863e efdc d13d 271b 233b 6014 d6bd
00000130: 4159 2d3e 0197 00bd 4699 18be fc8b e73b
00000140: 1f9b 24be 8eee 49be 394e 11bc 89cc 52bd
00000150: 597c 623e 0022 83be ce4b c93d ddce 9e3e
00000160: 4e1e 913e 2486 363d b862 b93d 3007 a03e
00000170: ffdb 0d3e ef31 d2bd d65e 6cbe 81b6 c73c
00000180: 1e54 bfbd 63f2 c8bc 0ac6 86be 2347 743b
00000190: b8e6 d2bd c5a7 b63e cee8 8d3b 7543 23be
000001a0: cce2 a23d a324 9f3d faf4 873e 063f d0bd
000001b0: e8c1 25be 901f 583d b1fb 643d 03b8 d53c
000001c0: e6a7 9dbd bf16 b0bd 0a83 e53d f3af d03d
000001d0: 372f 75bd 6898 3e3e 7b18 6ebe 0742 e4bd
000001e0: c3b0 f33d fbe3 623d 205a 533d e61d 9f3e
000001f0: 822e 8e3e 0987 b93c 4e86 5b3d 6215 2b3e
00000200: eb32 9f3d 2961 0a3d 0ae0 00bd 9b93 c93a
00000210: be96 34bd 617d e1bc e267 133c cc6f 523d
00000220: cf72 46bd 602e a9bc 4759 abbd 09c0 afbd
00000230: 263f 95bd 007a 2c3d c1db c33b e431 39be
00000240: 5200 d53d 5de1 94bd 3d89 cdbd f394 00be
00000250: 7505 223e e4f6 4f3e 6ff7 e63c d526 a4be
00000260: 66f2 83be 8808 b8bd e992 97be 552f 2a3e
00000270: 2a08 413e 6a5d 553c b0ed 573e 6e3d 813e
00000280: a873 783e 8894 a83e 4913 bf3e e018 1e3e
00000290: c1b9 133e 0eb1 84be 0d7b 58bd c479 8cbe
000002a0: 9bde 11be 882a bbbd 0338 2abe c063 1bbe
000002b0: 2f0d 9e3d 280c 31be 27d0 063e 1b15 883e
000002c0: 0d40 333e 4433 553e 9a35 7b3e 3f0f 053e
000002d0: 8d4e 3fbe 10f2 ea3d b3d1 913c 74ec 7f3d
000002e0: 72d0 713e db84 10be 76eb 06be eb0a fdbd
000002f0: 0e69 52be 76a3 acbd d2fa b73d e5be 5fbe
00000300: 0a8e 58be 5ecc aebd f998 12be d619 50bd
00000310: 5367 8f3d 4682 123e 9b1b 513d a4e8 353e
00000320: 3fde 833e a55b ca3e c317 953d 3aae 04be
00000330: df3c 3cbe 3ae6 e9bd 95a8 863d 3b38 b33e
00000340: db58 d13e 73e0 fbbd d799 7abd a795 b1bd
00000350: 65c9 4b3e 4487 7a3e 711f 933e d8f1 eabd
00000360: 1aa1 89be 0d18 c6be adaf e2bd da37 f53d
00000370: 3b82 3dbe 161e bdbd 3a8e b4bd 882d 93be
00000380: f0bc 123d cc2d 323d d5c9 9bbd fca0 7c3e
00000390: 6498 013e cda6 c53d fbed 603e 40e8 833e
000003a0: f5e2 753e a8dd 183d 5baf 5dbe 0e9e 703e
000003b0: fdd3 443e 05ac 59bd 139e 5ebe 826c 80bc
000003c0: 8fd6 e8bd e950 d13d c146 8dbe 497a 8ebd
000003d0: 0bac f4bd 844d 1d3d 0879 5abe 7d71 30be
000003e0: 4f82 0bbe 0bfa c93d ce01 c83b 57eb 9a3e
000003f0: 4181 8f3e 1499 1abe 11ab 3ebe fdc7 a0be
0.1556338 -0.18913792 -0.3596589 -0.18070324 0.05084925 0.1603305 0.018626748 -0.26882595
-0.25362968 -0.18721335 0.27613693 0.021395663 0.13190676 -0.07660491 -0.20147985 0.10680132
0.19225563 -0.020503448 0.20909093 -0.28950924 -0.06025979 0.15134475 0.3522801 0.26967728
0.20999762 0.111442894 0.0034438684 0.21190386 0.20339006 -0.01677355 -0.110201515 -0.089445606
0.26844737 -0.0177972 -0.28192505 -0.13918291 -0.13331549 0.25973728 0.36950126 -0.19418733
-0.2358892 -0.13557367 0.13213404 0.1849695 -0.09519262 0.019033909 -0.21659322 0.03625677
0.21571982 0.082665935 0.18725254 -0.20030752 -0.41816854 -0.07431041 0.23825614 0.21320102
-0.0809342 -0.3526842 0.3974401 0.28258726 -0.015454577 0.19169466 0.07317476 0.32449418
-0.33327216 0.10578344 -0.22503982 0.0902874 -0.0012513574 -0.14034927 0.13070281 -0.049548004
0.26294923 0.10247218 0.002488801 -0.10453105 0.16928579 -0.03139401 -0.14902219 0.007066248
-0.16074799 -0.19719908 -0.008868747 -0.05146459 0.22117747 -0.25611877 0.09828912 0.310172
0.28343433 0.04456152 0.09052032 0.31255484 0.13853453 -0.1026343 -0.23083052 0.024379017
-0.09342216 -0.024529641 -0.26322967 0.0037273846 -0.10297912 0.35674873 0.004330731 -0.15943702
0.07953414 0.0777066 0.2655409 -0.10168271 -0.1618725 0.052764475 0.055904094 0.02608872
-0.0769804 -0.085980885 0.11206634 0.1018981 -0.05985948 0.18612826 -0.23251526 -0.11145406
0.11898949 0.0553932 0.05159962 0.31077498 0.27769858 0.022647398 0.05359488 0.16707376
0.07773384 0.033784065 -0.03146366 0.0015379073 -0.04408907 -0.027525606 0.008996936 0.05137615
-0.048449334 -0.020651996 -0.08366638 -0.0858155 -0.07287435 0.042108536 0.0059771244 -0.18085438
0.10400452 -0.07269547 -0.10035942 -0.1255682 0.15822394 0.20309025 0.028194157 -0.32060876
-0.25770873 -0.08986002 -0.2960427 0.16619618 0.1885077 0.01302276 0.21086764 0.2524218
0.2426287 0.3292582 0.373194 0.15439177 0.14426328 -0.25916332 -0.052851725 -0.2743665
-0.14245073 -0.091389716 -0.1662293 -0.1517477 0.07717358 -0.17289793 0.13165341 0.26578602
0.17504902 0.20820338 0.24532166 0.12994097 -0.18682308 0.11471951 0.017800188 0.06248136
0.23614672 -0.1411318 -0.13175759 -0.12355598 -0.20547888 -0.08429615 0.08983387 -0.21850164
-0.21147934 -0.08535074 -0.14316167 -0.05080589 0.070021294 0.14307508 0.051051717 0.17764527
0.25755498 0.39523044 0.07279923 -0.12957087 -0.18382595 -0.11420865 0.06575123 0.35003838
0.40888104 -0.1229867 -0.06118187 -0.08671122 0.19901045 0.24465662 0.28734925 -0.11471909
-0.26880723 -0.38690224 -0.11068664 0.119735435 -0.1850671 -0.09234254 -0.0881619 -0.28745675
0.035824716 0.043500707 -0.07606856 0.24670786 0.12655789 0.09650955 0.21965782 0.2576313
0.24012358 0.037320763 -0.21648924 0.23497793 0.19221492 -0.053142566 -0.21739988 -0.01567674
-0.11369049 0.102205105 -0.27593043 -0.06956918 -0.11946877 0.038404003 -0.21335232 -0.17230792
-0.13623928 0.09862145 0.0061037308 0.30257675 0.280283 -0.15097457 -0.18619944 -0.3140258

layer1.0.bias f4 [16]
00000000: d299 3ebe 96d0 85be 4fe6 8ebe 36ce 90be
00000010: 65d2 40be f5ad a0be 8f76 2fbe d2d3 34be
00000020: 02ea 01be 8975 11be f764 48be ba81 7ebe
00000030: 8917 b2bc 0aec aebe 91d3 cbbe e8c4 8dbe
-0.18613365 -0.261357 -0.27910087 -0.28282326 -0.18830259 -0.3138272 -0.1713507 -0.17658928
-0.12686923 -0.14204992 -0.19569765 -0.24854174 -0.021739738 -0.3416446 -0.3980985 -0.2768929

layer2.0.weight f4 [32, 16, 5, 5]
00000000: d810 73bd 2243 07bc 71ba f83d 040a 493e
00000010: 6e2d 29bd 7047 7c3d f056 f6bd 9476 94bd
00000020: b989 7d3d 16ea 86be ce8b 39bd d1ed 46be
00000030: 64cc 15be a1ea f1bc 7ba1 a8be 5f5f 3bbe
00000040: da68 cdbd 1a80 67bc 6f7e 713c aded c3bd
00000050: 224d 443d 07eb bbbb b5bc 3dbd 25d7 cf3b
00000060: 593c 193b b4a9 833d 102c 023e 22d6 6a3e
00000070: 18a5 37be 23cb 9e3d 8b27 d6bd 0a77 afbd
00000080: 6ca8 edbb 2466 c7be 8ee3 80bd f20f 01bd
00000090: 167f 09be 41c1 e0bd 55f4 a9be 56a7 3dba
000000a0: 5197 623d 7377 71be eb61 58be 3e83 b6bd
000000b0: 8f14 fb3c e680 373d 2ad6 0abe 4db3 68bd
000000c0: 0938 6e3c 0f8c a63d 7dec b83d df30 a63d
000000d0: cb47 75bd b2c1 c7bd e5a9 2abc 3c95 4a3e
000000e0: 17d4 a13e 8991 383e a532 96be 57ce 5b3e
000000f0: 3137 833e 7586 133e 5c2a e3be 0964 2ebd
00000100: 7cea 823e 3af0 3abd 9838 a4be 25df b9bd
00000110: 7731 173e 990a 9f3d 5443 fbbd 5454 fbbd
00000120: 7bc1 353e 848f 2b3e 2dfb d3bd c0a4 91bd
00000130: a8c9 ddbc 126a 613e 146b acbd df6e 95be
00000140: dcc6 8a3c fe54 8c3e 4543 043e d0f0 bfbd
00000150: b73a a53d ed90 343e 914b 7c3e accc d9bd
00000160: 7bd3 0fbe f246 233d 3131 f6bb 4ed4 8cbe
00000170: 415b bbbe 1bec 81bd 45b7 afbb e543 2bbd
00000180: 4fb9 50be 49d4 c9bd b644 553a a519 713c
00000190: 60e8 ca3c d65a 16bd cd61 82bd 9f32 a93d
000001a0: 8d13 79bd 21bb 5ebd 6a96 b4bd 8578 d23d
000001b0: 3074 303e f9a8 a0be f14e 2bbe 245b f2bd
000001c0: eba6 693e 1e6c 1a3e 8739 93be 2ad8 59bd
000001d0: 225c 243d 3ce6 b63d 35e6 83bd 6a04 cc3c
000001e0: 3d5c 27bd e6dc 25be 2f5f 3fbe 3bea 76bd
000001f0: 0d3e c83d aca1 97bc b041 8bbd 924e 1ebe
00000200: 6459 d73c f3b8 883d 1233 493d 20db b2bd
00000210: 6272 a7bd 30a3 c43d 38db 333d 4324 8cbd
00000220: 087e df3b 1297 67bb 87fb 363c 8e6a a5bd
00000230: 17b6 bd3d 8109 403d 8565 a5bb 11b0 7bbd
00000240: 256d fdbd 5123 1a3d 6e74 d0bc b7f1 edbc
00000250: 8943 29bd 710e 09bd 4024 043e 5924 383d
00000260: 97b4 5bbd cbf8 2abe 8c65 75be 526b 363e
00000270: 8aa4 6c3d d70f 03be 1eab 14be 14f1 d0bd
00000280: b946 403e 3fdf d93d d3a5 ddbd ba4e 91be
00000290: 9dc1 73be e5ef 933e 3219 123e 01dd 81be
000002a0: 76a7 85be 4a3b a9be 7b7c b03d 0410 983d
000002b0: 1158 04be fc52 9cbc 7aae df3d f931 913d
000002c0: e95b a7bc 5fa7 0abe b829 67bd b686 3b3d
000002d0: d9f1 1bbd cee8 16be 2f87 bebd 21a9 87bd
000002e0: 0887 03be 9739 95bd 5dff 633b 7a96 70bd
000002f0: b279 19be 6f92 3ebe 3197 5b3e f90c 2d3e
00000300: 37d5 523d 0ce6 eebd da9b 84be f5b5 a43d
00000310: 1dba 7a3c 5915 9bbd b746 98bd 2f97 00be
00000320: dd7a b83d 8bb3 253d ff7a 94bc 5b8b 05be
00000330: cfc8 16be 621b c6bd e9b2 35be 51d9 6cbe
00000340: b104 03be 46ee dfbd e694 2c3d df40 ae3c
00000350: 03a2 17be 3b93 62be 162d abbe e8aa 473e
00000360: 2370 983c 9533 75bd c53e 0fbe 256b 89be
00000370: 46f4 cd3c be1c d1bd bcc1 7dbc 0871 4abd
00000380: a7ad b23d 1572 09be faf0 73be 5e8f 54be
00000390: 4747 b53d e3d5 98bd 8814 43be 06cb 56bd
000003a0: 9d8d 303e bbaa 413d 6855 6dbe 6f5f 0fbc
000003b0: 831d 5f3e 5706 f93d 88cc 173c 2cb9 c8bd
000003c0: 5822 ac3d bfdb 1f3e e9f8 e1bd c9b8 65be
000003d0: f755 ebbd 6bf4 24be 128f a7be c717 90be
000003e0: 2123 b7bd a7b6 25be a5d2 92bd dc5e 2f3e
000003f0: fa0b 923e 516a c73c 2bca 87be 827f e8bd
-0.059342235 -0.008255752 0.12144936 0.19632727 -0.04130309 0.061591566 -0.12028301 -0.072491795
0.06189892 -0.26350468 -0.045299344 -0.19426657 -0.1462875 -0.029530825 -0.329357 -0.182981
-0.100297645 -0.014129663 0.014739617 -0.095668174 0.047925122 -0.0057348046 -0.046322543 0.006342786
0.0023381917 0.06428853 0.12712121 0.22933248 -0.17934072 0.07753589 -0.10456761 -0.08567627
-0.0072527435 -0.38945115 -0.062934026 -0.031509347 -0.13427386 -0.1097436 -0.33194223 -0.0007234713
0.055320088 -0.23580723 -0.21131103 -0.08911751 0.030649452 0.04480066 -0.1355826 -0.05681162
0.014539727 0.08132183 0.090294816 0.0811479 -0.05988292 -0.09753741 -0.010416483 0.19783491
0.31607124 0.18024267 -0.29335514 0.21465431 0.25628045 0.1440676 -0.44368255 -0.04257587
0.25569522 -0.045639254 -0.32074428 -0.090757646 0.14764963 0.07765693 -0.12268701 -0.12271944
0.17749588 0.16753966 -0.10350642 -0.07111502 -0.027073696 0.22013119 -0.08418861 -0.2918615
0.016940527 0.27408594 0.12916286 -0.09372103 0.080678396 0.1763341 0.24638201 -0.10634741
-0.14045517 0.03986258 -0.0075131883 -0.27505726 -0.3659306 -0.06343862 -0.0053624236 -0.041812796
-0.2038319 -0.09854943 0.0008135544 0.014715587 0.024769008 -0.03670772 -0.0636631 0.08261608
-0.06080966 -0.05437768 -0.08817752 0.102768935 0.17231822 -0.31378916 -0.16729333 -0.1183379
0.2281758 0.15080306 -0.28754827 -0.053184666 0.040126927 0.089306325 -0.06440393 0.024904449
-0.04085945 -0.16197547 -0.18688653 -0.060281973 0.0977746 -0.018509708 -0.06799638 -0.1545966
0.026287742 0.06675901 0.04912097 -0.08733201 -0.08176114 0.09601438 0.043910235 -0.06842854
0.006820444 -0.0035337848 0.011168367 -0.08076964 0.092632465 0.046884064 -0.0050475025 -0.061447207
-0.12374333 0.037631337 -0.025446143 -0.029045923 -0.041324172 -0.033461038 0.12904453 0.04495654
-0.05363902 -0.1669647 -0.23964518 0.17814377 0.057774104 -0.12799011 -0.14518401 -0.10202232
0.18776979 0.10638284 -0.10822644 -0.28380376 -0.23804326 0.28893963 0.14267424 -0.25363925
-0.26104325 -0.33053046 0.08617493 0.0742493 -0.1292422 -0.019082539 0.10921951 0.0708961
-0.020429568 -0.1354041 -0.05643627 0.045782767 -0.03807244 -0.14737245 -0.09303128 -0.06624056
-0.12844479 -0.07286375 0.003478966 -0.058737256 -0.1498783 -0.18610547 0.21444394 0.1689948
0.05147287 -0.11664972 -0.25900155 0.08042518 0.015303162 -0.07572431 -0.07435363 -0.12557672
0.09007809 0.04045443 -0.018125055 -0.13041441 -0.1472504 -0.096731916 -0.1774403 -0.23129775
-0.12794758 -0.10934119 0.042134188 0.021271167 -0.14807896 -0.22126476 -0.33432835 0.1949879
0.018608158 -0.059863646 -0.13988788 -0.26839557 0.025140893 -0.1021056 -0.015488084 -0.0494242
0.08724528 -0.13422425 -0.23822394 -0.20757815 0.08851486 -0.07462671 -0.19050801 -0.052439712
0.17241521 0.047281962 -0.23177111 -0.0087507805 0.21788602 0.12159412 0.009265073 -0.09800944
0.08404988 0.1561117 -0.11033804 -0.22433771 -0.11491006 -0.16108863 -0.3272634 -0.2814314
-0.08942247 -0.16182958 -0.071690835 0.1712603 0.28524762 0.024342688 -0.2652143 -0.11352445

layer2.0.bias f4 [32]
00000000: 6fa6 c4bd eaeb f7bd 7a24 37be 7683 0abb
00000010: 964f 27be b973 dfbd f66e e0bd 446c 01be
00000020: 541b 13be 9399 cfbd e910 0abe 87d4 d2bd
00000030: 5fb4 debd 01e5 e4bd e98f e0bd 201d a9bd
00000040: 839f 63bd 5740 823d 9ff8 24bd 148a f5bd
00000050: f89d 62bd 2b9d 01be 36e3 25be 272c 33be
00000060: 8d96 1abe aea7 cbbd 63fe a0bd 1ded 09be
00000070: c28d 10be 92a1 2bbe 6bda 6dbd 0d27 d5bd
-0.09602057 -0.12105544 -0.17885008 -0.0021135486 -0.16338953 -0.10910744 -0.10958664 -0.12638956
-0.14365894 -0.10136714 -0.13483013 -0.102944426 -0.10874247 -0.111764915 -0.10964949 -0.08257508
-0.055572044 0.06359928 -0.040276166 -0.11989227 -0.055326432 -0.12657611 -0.16199955 -0.17497312
-0.15096493 -0.09944092 -0.078610204 -0.13469358 -0.14116576 -0.16760853 -0.058069628 -0.10407839

fc1.weight f4 [10, 1568]
00000000: e23c 7d3c 07a0 88bd 637f 26bc 176d dabc
00000010: bb30 993d a2a8 22bc 7ae9 cb3c bfa9 91bd
00000020: dd21 513d 39be 40bb 2ac2 ebbb e09c 3fbe
00000030: f395 79be 6330 d8bd 51fe 343d 3c3c 413d
00000040: 9210 363d 49c8 53be 6e33 24be e559 d2be
00000050: d500 1bbe 9986 3d3d 9c47 4d3e a714 71bd
00000060: 1cb1 aa3d 4ad2 213c efa8 723d baa7 8e3d
00000070: 1177 123d 39de 653d 8e10 0a3e 92e7 393e
00000080: 8f78 c23d 5272 a13d 8bc6 023e 9219 103e
00000090: 36fc 0ebe cb67 48be 8ffe 163e 3bbc 063e
000000a0: 2a06 e2bb 9a03 b43b 3641 b7bd 31a7 703d
000000b0: e942 d6bd 1715 6fbe 5b95 613d 59a1 07be
000000c0: daca 1fbd b386 cebd 1360 2dbe c0ca aebd
000000d0: da9e 1dbd d013 07bd 1b66 31bc f8e7 a9bc
000000e0: e80d ac3b cf01 073e 51d4 a2bd ce43 993c
000000f0: 4912 ba3d 3c9b 67b9 cef1 c73d 8b06 8abd
00000100: 31d4 f8bc bbd2 67bd 7661 d13d be51 b03d
00000110: bc7e ae3d 43ab b53d 6ab5 0dbd c1ec 42be
00000120: 5b7a 1b3b 708a 2fbd 163b 4ebd 7b92 e33c
00000130: 4802 ef3d 279d 09bd 7c44 1ebe 9773 de3d
00000140: e97d c43d 7863 37be 01e5 9fbd 7363 693d
00000150: 0774 623d 2fcf aebd f7be fd3d 9118 dc3d
00000160: f084 3fbe b3ec 06be b9d5 77be 4afc 62bd
00000170: 9a28 d4b9 28c3 ba3d 918a 84bd bd00 86be
00000180: 1964 9fbe ee1d 5cbe b5bc 8abc aaac 82bd
00000190: 8ad4 1bbd 00db 6fbe b6b3 933d 712a 013d
000001a0: 84cb 6f3d b154 2abd 21c6 693c 06b0 e3bd
000001b0: 6dd5 ddbd 0f6c 043d a475 8a3c 1f9c 653d
000001c0: 9576 933d 23ed 813d 3f60 6f3c caed 91bd
000001d0: 1704 1a3c a6de a2bd 73a2 9a3c f738 21bd
000001e0: 5634 5abd 81bd 65be fd2e 8ebd 0a7f 48bc
000001f0: 76b2 f2bc 099c 09be f9bf 863d 31af 80bd
00000200: e1fd e7bd 0c72 04be 7f40 433d dabf 10be
00000210: d427 e6bd 5334 c53b 6a3e 80bd 2cfd 4dbd
00000220: 98fe 2b3d c68c ef3c 681b 85bd bd03 c3bc
00000230: 1734 a0bc 27f2 cf3c 69cb f13c fe0f abbd
00000240: 8a66 36bd c6ec 92bb 1c6a 313a 4c07 8c3d
00000250: adba 8f3c 5a7d 133d a105 9c3d 0245 4f3b
00000260: df8d 723d 54f0 6d3d 8285 f33c 18b5 813c
00000270: 2d32 ff3c 94ad bb3c 9f53 383d d9d3 dd3c
00000280: a230 573c 897b 00bb 8b1d 5f3c 9799 363d
00000290: 413d b33c 83a9 573d 7390 2b3d aa49 0c3d
000002a0: 9c99 32be 7cca 173c df67 7d3b 7d2e 29bc
000002b0: 4ce6 2a3d aee7 4f3d 5e73 323d b0d6 28bd
000002c0: 242b e23d fb58 293d bbbd 2d3d 6721 553d
000002d0: c2d9 a53d 3dcf 973c 2822 043b 7079 aebc
000002e0: 78f6 073d 913c 643d 6a28 423b 6132 c43c
000002f0: 41ba 013d 3d71 1ebc 2b1c 563d 3dbe 2f3d
00000300: d850 073d 5ff4 1d3c 6e22 403d cd96 153d
00000310: 454d 14bd c054 c5bc e64c 443c 1cd7 03bd
00000320: 0829 563d 97ea 1abd 7ebd 9fbc 06ad a3bd
00000330: 79aa a9bd 5b6b bcbd 9698 a8bd 4919 83bc
00000340: 5b91 c6bd 8b44 e83d 4fc1 9cbd a64e 99bd
00000350: 56c0 19bd d2b6 a2bd ad6c 56bd 24ac e4ba
00000360: f400 983c e3fd cc3d 20a0 16be 5ec2 c3be
00000370: 3135 d2bd a26e f53d 920a 0d3e 12db c53b
00000380: f2d6 80bd 90cb 64bd ddb6 03be 200b 03be
00000390: f44c af3d fb9d 963d 1e7c b53c 35b4 d0bd
000003a0: 45e7 07bd 6a6a c53d d31f 5f3d ec80 c2bc
000003b0: b4ca 8fbd f253 fcbc 6535 a7bc 6569 733c
000003c0: 93dc a63d 81e9 fd3d 6fe6 1fbe 7a31 6cbe
000003d0: baea b6bd 00c3 fabd f415 21bd bc4c f23c
000003e0: 5ed2 8cbd 1772 18bd 8555 55be 4ddd da39
000003f0: 0f59 91bc 3c03 c83c 7656 48bd 996f b9bb
0.01545641 -0.06671148 -0.010162207 -0.026663346 0.07479998 -0.0099279005 0.024891604 -0.071124546
0.051057685 -0.0029410257 -0.007194777 -0.18712187 -0.24373607 -0.10556104 0.044187848 0.047176585
0.044449396 -0.20681871 -0.16035244 -0.4108421 -0.15137036 0.04627094 0.20046848 -0.058857586
0.08334562 0.009876797 0.05924314 0.06965585 0.03575808 0.05612013 0.13482878 0.18154743
0.09495651 0.07883133 0.1277105 0.14072254 -0.13963398 -0.19570844 0.14745544 0.13157742
-0.0068977075 0.0054935934 -0.08947985 0.058753196 -0.10461981 -0.23347889 0.055074077 -0.13245143
-0.039011814 -0.100842856 -0.1693118 -0.08534765 -0.03848157 -0.03297788 -0.0108275665 -0.020740494
0.005250681 0.13184284 -0.079506524 0.01870909 0.09085519 -0.00022087706 0.097629175 -0.06739529
-0.030374618 -0.056597453 0.10223667 0.08609341 0.085202664 0.08870556 -0.034596838 -0.19035627
0.0023724053 -0.042856634 -0.050349317 0.027779808 0.11670357 -0.033597138 -0.15455812 0.10861891
0.09594328 -0.17909038 -0.07807351 0.056979608 0.055286434 -0.08535611 0.12389939 0.10746873
-0.18703055 -0.13176231 -0.24202622 -0.055416383 -0.00040466042 0.09119254 -0.06471742 -0.26172438
-0.31131056 -0.21495792 -0.016935686 -0.06380589 -0.03804449 -0.23423386 0.072120115 0.031534616
0.058543697 -0.041584674 0.014268429 -0.11117558 -0.10831723 0.032329615 0.016901799 0.05605709
0.07200352 0.06344058 0.014610349 -0.07125433 0.009400389 -0.07952623 0.01887629 -0.039360967
-0.053272568 -0.22435571 -0.06942556 -0.01223732 -0.029626112 -0.13438429 0.06579585 -0.06283415
-0.113277204 -0.1293413 0.04766893 -0.14135686 -0.11238065 0.0060182004 -0.062619045 -0.05029027
0.041990846 0.02924193 -0.06499368 -0.023805493 -0.019556088 0.025384022 0.029515939 -0.0835266
-0.044531383 -0.004483792 0.00067678257 0.06837329 0.017545069 0.036008216 0.07618261 0.0031626825
0.05921733 0.058090523 0.029726747 0.015833423 0.031151855 0.022909917 0.045001622 0.027078556
0.013134154 -0.0019604883 0.013617883 0.04458007 0.021879794 0.052651893 0.041885804 0.03424994
-0.1744141 0.009264585 0.0038666648 -0.010326025 0.041723534 0.050758056 0.043567054 -0.041220367
0.11043385 0.041344624 0.04241727 0.052033808 0.08098175 0.018531436 0.002016196 -0.02129814
0.033194035 0.055721823 0.002962614 0.023949804 0.031671766 -0.009670553 0.052272957 0.042906035
0.033036083 0.009640782 0.046907835 0.036520768 -0.036206502 -0.024088264 0.011981225 -0.032187566
0.052285224 -0.03782138 -0.019499537 -0.07991986 -0.08284468 -0.09200164 -0.082322285 -0.016003268
-0.09695693 0.113411985 -0.07654058 -0.07485704 -0.03753694 -0.079450265 -0.052349735 -0.0017446321
0.018555142 0.100093625 -0.1470952 -0.38234228 -0.10264052 0.11983992 0.13773564 0.006038078
-0.062909976 -0.055858195 -0.12862726 -0.12797213 0.085595995 0.07354351 0.02215391 -0.10190622
-0.03317954 0.096394375 0.05447371 -0.023743115 -0.070210844 -0.030801747 -0.020411203 0.014856671
0.0814754 0.12398053 -0.15615247 -0.23065749 -0.08931489 -0.122442245 -0.039327577 0.029577605
-0.06876062 -0.03721818 -0.20833404 0.00041745082 -0.017742662 0.024415605 -0.04891058 -0.0056590554

fc1.bias f4 [10]
00000000: a5f7 3d3d cb93 703d 9a3d f6bb 56d2 293c
00000010: 0194 bcbc de3a a6bc 3ca8 12bd e4bd f13c
00000020: 2482 acbc aa2d 34bd
0.04637875 0.058734696 -0.0075146677 0.010365089 -0.023019793 -0.020291742 -0.035804972 0.029509492
-0.02105815 -0.04398886
